21-07-21 13:40:18.764 - INFO: Dataset [GTDataset - DIV2K] is created.
21-07-21 13:40:18.767 - INFO: Dataset [LQGTDataset - DIV2KRK] is created.
21-07-21 13:40:21.078 - INFO: Network G structure: DataParallel - DAN, with parameters: 4,181,799
21-07-21 13:40:21.078 - INFO: DAN(
  (Restorer): Restorer(
    (head): Conv2d(3, 64, kernel_size=(3, 3), stride=(1, 1), padding=(1, 1))
    (body): Sequential(
      (0): CRB_Layer(
        (body): Sequential(
          (0): Conv2d(74, 74, kernel_size=(3, 3), stride=(1, 1), padding=(1, 1))
          (1): LeakyReLU(negative_slope=0.2, inplace=True)
          (2): Conv2d(74, 64, kernel_size=(3, 3), stride=(1, 1), padding=(1, 1))
          (3): CALayer(
            (body): Sequential(
              (0): Conv2d(64, 4, kernel_size=(1, 1), stride=(1, 1))
              (1): LeakyReLU(negative_slope=0.2)
              (2): Conv2d(4, 64, kernel_size=(1, 1), stride=(1, 1))
              (3): Sigmoid()
            )
            (avg): AdaptiveAvgPool2d(output_size=1)
          )
        )
      )
      (1): CRB_Layer(
        (body): Sequential(
          (0): Conv2d(74, 74, kernel_size=(3, 3), stride=(1, 1), padding=(1, 1))
          (1): LeakyReLU(negative_slope=0.2, inplace=True)
          (2): Conv2d(74, 64, kernel_size=(3, 3), stride=(1, 1), padding=(1, 1))
          (3): CALayer(
            (body): Sequential(
              (0): Conv2d(64, 4, kernel_size=(1, 1), stride=(1, 1))
              (1): LeakyReLU(negative_slope=0.2)
              (2): Conv2d(4, 64, kernel_size=(1, 1), stride=(1, 1))
              (3): Sigmoid()
            )
            (avg): AdaptiveAvgPool2d(output_size=1)
          )
        )
      )
      (2): CRB_Layer(
        (body): Sequential(
          (0): Conv2d(74, 74, kernel_size=(3, 3), stride=(1, 1), padding=(1, 1))
          (1): LeakyReLU(negative_slope=0.2, inplace=True)
          (2): Conv2d(74, 64, kernel_size=(3, 3), stride=(1, 1), padding=(1, 1))
          (3): CALayer(
            (body): Sequential(
              (0): Conv2d(64, 4, kernel_size=(1, 1), stride=(1, 1))
              (1): LeakyReLU(negative_slope=0.2)
              (2): Conv2d(4, 64, kernel_size=(1, 1), stride=(1, 1))
              (3): Sigmoid()
            )
            (avg): AdaptiveAvgPool2d(output_size=1)
          )
        )
      )
      (3): CRB_Layer(
        (body): Sequential(
          (0): Conv2d(74, 74, kernel_size=(3, 3), stride=(1, 1), padding=(1, 1))
          (1): LeakyReLU(negative_slope=0.2, inplace=True)
          (2): Conv2d(74, 64, kernel_size=(3, 3), stride=(1, 1), padding=(1, 1))
          (3): CALayer(
            (body): Sequential(
              (0): Conv2d(64, 4, kernel_size=(1, 1), stride=(1, 1))
              (1): LeakyReLU(negative_slope=0.2)
              (2): Conv2d(4, 64, kernel_size=(1, 1), stride=(1, 1))
              (3): Sigmoid()
            )
            (avg): AdaptiveAvgPool2d(output_size=1)
          )
        )
      )
      (4): CRB_Layer(
        (body): Sequential(
          (0): Conv2d(74, 74, kernel_size=(3, 3), stride=(1, 1), padding=(1, 1))
          (1): LeakyReLU(negative_slope=0.2, inplace=True)
          (2): Conv2d(74, 64, kernel_size=(3, 3), stride=(1, 1), padding=(1, 1))
          (3): CALayer(
            (body): Sequential(
              (0): Conv2d(64, 4, kernel_size=(1, 1), stride=(1, 1))
              (1): LeakyReLU(negative_slope=0.2)
              (2): Conv2d(4, 64, kernel_size=(1, 1), stride=(1, 1))
              (3): Sigmoid()
            )
            (avg): AdaptiveAvgPool2d(output_size=1)
          )
        )
      )
      (5): CRB_Layer(
        (body): Sequential(
          (0): Conv2d(74, 74, kernel_size=(3, 3), stride=(1, 1), padding=(1, 1))
          (1): LeakyReLU(negative_slope=0.2, inplace=True)
          (2): Conv2d(74, 64, kernel_size=(3, 3), stride=(1, 1), padding=(1, 1))
          (3): CALayer(
            (body): Sequential(
              (0): Conv2d(64, 4, kernel_size=(1, 1), stride=(1, 1))
              (1): LeakyReLU(negative_slope=0.2)
              (2): Conv2d(4, 64, kernel_size=(1, 1), stride=(1, 1))
              (3): Sigmoid()
            )
            (avg): AdaptiveAvgPool2d(output_size=1)
          )
        )
      )
      (6): CRB_Layer(
        (body): Sequential(
          (0): Conv2d(74, 74, kernel_size=(3, 3), stride=(1, 1), padding=(1, 1))
          (1): LeakyReLU(negative_slope=0.2, inplace=True)
          (2): Conv2d(74, 64, kernel_size=(3, 3), stride=(1, 1), padding=(1, 1))
          (3): CALayer(
            (body): Sequential(
              (0): Conv2d(64, 4, kernel_size=(1, 1), stride=(1, 1))
              (1): LeakyReLU(negative_slope=0.2)
              (2): Conv2d(4, 64, kernel_size=(1, 1), stride=(1, 1))
              (3): Sigmoid()
            )
            (avg): AdaptiveAvgPool2d(output_size=1)
          )
        )
      )
      (7): CRB_Layer(
        (body): Sequential(
          (0): Conv2d(74, 74, kernel_size=(3, 3), stride=(1, 1), padding=(1, 1))
          (1): LeakyReLU(negative_slope=0.2, inplace=True)
          (2): Conv2d(74, 64, kernel_size=(3, 3), stride=(1, 1), padding=(1, 1))
          (3): CALayer(
            (body): Sequential(
              (0): Conv2d(64, 4, kernel_size=(1, 1), stride=(1, 1))
              (1): LeakyReLU(negative_slope=0.2)
              (2): Conv2d(4, 64, kernel_size=(1, 1), stride=(1, 1))
              (3): Sigmoid()
            )
            (avg): AdaptiveAvgPool2d(output_size=1)
          )
        )
      )
      (8): CRB_Layer(
        (body): Sequential(
          (0): Conv2d(74, 74, kernel_size=(3, 3), stride=(1, 1), padding=(1, 1))
          (1): LeakyReLU(negative_slope=0.2, inplace=True)
          (2): Conv2d(74, 64, kernel_size=(3, 3), stride=(1, 1), padding=(1, 1))
          (3): CALayer(
            (body): Sequential(
              (0): Conv2d(64, 4, kernel_size=(1, 1), stride=(1, 1))
              (1): LeakyReLU(negative_slope=0.2)
              (2): Conv2d(4, 64, kernel_size=(1, 1), stride=(1, 1))
              (3): Sigmoid()
            )
            (avg): AdaptiveAvgPool2d(output_size=1)
          )
        )
      )
      (9): CRB_Layer(
        (body): Sequential(
          (0): Conv2d(74, 74, kernel_size=(3, 3), stride=(1, 1), padding=(1, 1))
          (1): LeakyReLU(negative_slope=0.2, inplace=True)
          (2): Conv2d(74, 64, kernel_size=(3, 3), stride=(1, 1), padding=(1, 1))
          (3): CALayer(
            (body): Sequential(
              (0): Conv2d(64, 4, kernel_size=(1, 1), stride=(1, 1))
              (1): LeakyReLU(negative_slope=0.2)
              (2): Conv2d(4, 64, kernel_size=(1, 1), stride=(1, 1))
              (3): Sigmoid()
            )
            (avg): AdaptiveAvgPool2d(output_size=1)
          )
        )
      )
      (10): CRB_Layer(
        (body): Sequential(
          (0): Conv2d(74, 74, kernel_size=(3, 3), stride=(1, 1), padding=(1, 1))
          (1): LeakyReLU(negative_slope=0.2, inplace=True)
          (2): Conv2d(74, 64, kernel_size=(3, 3), stride=(1, 1), padding=(1, 1))
          (3): CALayer(
            (body): Sequential(
              (0): Conv2d(64, 4, kernel_size=(1, 1), stride=(1, 1))
              (1): LeakyReLU(negative_slope=0.2)
              (2): Conv2d(4, 64, kernel_size=(1, 1), stride=(1, 1))
              (3): Sigmoid()
            )
            (avg): AdaptiveAvgPool2d(output_size=1)
          )
        )
      )
      (11): CRB_Layer(
        (body): Sequential(
          (0): Conv2d(74, 74, kernel_size=(3, 3), stride=(1, 1), padding=(1, 1))
          (1): LeakyReLU(negative_slope=0.2, inplace=True)
          (2): Conv2d(74, 64, kernel_size=(3, 3), stride=(1, 1), padding=(1, 1))
          (3): CALayer(
            (body): Sequential(
              (0): Conv2d(64, 4, kernel_size=(1, 1), stride=(1, 1))
              (1): LeakyReLU(negative_slope=0.2)
              (2): Conv2d(4, 64, kernel_size=(1, 1), stride=(1, 1))
              (3): Sigmoid()
            )
            (avg): AdaptiveAvgPool2d(output_size=1)
          )
        )
      )
      (12): CRB_Layer(
        (body): Sequential(
          (0): Conv2d(74, 74, kernel_size=(3, 3), stride=(1, 1), padding=(1, 1))
          (1): LeakyReLU(negative_slope=0.2, inplace=True)
          (2): Conv2d(74, 64, kernel_size=(3, 3), stride=(1, 1), padding=(1, 1))
          (3): CALayer(
            (body): Sequential(
              (0): Conv2d(64, 4, kernel_size=(1, 1), stride=(1, 1))
              (1): LeakyReLU(negative_slope=0.2)
              (2): Conv2d(4, 64, kernel_size=(1, 1), stride=(1, 1))
              (3): Sigmoid()
            )
            (avg): AdaptiveAvgPool2d(output_size=1)
          )
        )
      )
      (13): CRB_Layer(
        (body): Sequential(
          (0): Conv2d(74, 74, kernel_size=(3, 3), stride=(1, 1), padding=(1, 1))
          (1): LeakyReLU(negative_slope=0.2, inplace=True)
          (2): Conv2d(74, 64, kernel_size=(3, 3), stride=(1, 1), padding=(1, 1))
          (3): CALayer(
            (body): Sequential(
              (0): Conv2d(64, 4, kernel_size=(1, 1), stride=(1, 1))
              (1): LeakyReLU(negative_slope=0.2)
              (2): Conv2d(4, 64, kernel_size=(1, 1), stride=(1, 1))
              (3): Sigmoid()
            )
            (avg): AdaptiveAvgPool2d(output_size=1)
          )
        )
      )
      (14): CRB_Layer(
        (body): Sequential(
          (0): Conv2d(74, 74, kernel_size=(3, 3), stride=(1, 1), padding=(1, 1))
          (1): LeakyReLU(negative_slope=0.2, inplace=True)
          (2): Conv2d(74, 64, kernel_size=(3, 3), stride=(1, 1), padding=(1, 1))
          (3): CALayer(
            (body): Sequential(
              (0): Conv2d(64, 4, kernel_size=(1, 1), stride=(1, 1))
              (1): LeakyReLU(negative_slope=0.2)
              (2): Conv2d(4, 64, kernel_size=(1, 1), stride=(1, 1))
              (3): Sigmoid()
            )
            (avg): AdaptiveAvgPool2d(output_size=1)
          )
        )
      )
      (15): CRB_Layer(
        (body): Sequential(
          (0): Conv2d(74, 74, kernel_size=(3, 3), stride=(1, 1), padding=(1, 1))
          (1): LeakyReLU(negative_slope=0.2, inplace=True)
          (2): Conv2d(74, 64, kernel_size=(3, 3), stride=(1, 1), padding=(1, 1))
          (3): CALayer(
            (body): Sequential(
              (0): Conv2d(64, 4, kernel_size=(1, 1), stride=(1, 1))
              (1): LeakyReLU(negative_slope=0.2)
              (2): Conv2d(4, 64, kernel_size=(1, 1), stride=(1, 1))
              (3): Sigmoid()
            )
            (avg): AdaptiveAvgPool2d(output_size=1)
          )
        )
      )
      (16): CRB_Layer(
        (body): Sequential(
          (0): Conv2d(74, 74, kernel_size=(3, 3), stride=(1, 1), padding=(1, 1))
          (1): LeakyReLU(negative_slope=0.2, inplace=True)
          (2): Conv2d(74, 64, kernel_size=(3, 3), stride=(1, 1), padding=(1, 1))
          (3): CALayer(
            (body): Sequential(
              (0): Conv2d(64, 4, kernel_size=(1, 1), stride=(1, 1))
              (1): LeakyReLU(negative_slope=0.2)
              (2): Conv2d(4, 64, kernel_size=(1, 1), stride=(1, 1))
              (3): Sigmoid()
            )
            (avg): AdaptiveAvgPool2d(output_size=1)
          )
        )
      )
      (17): CRB_Layer(
        (body): Sequential(
          (0): Conv2d(74, 74, kernel_size=(3, 3), stride=(1, 1), padding=(1, 1))
          (1): LeakyReLU(negative_slope=0.2, inplace=True)
          (2): Conv2d(74, 64, kernel_size=(3, 3), stride=(1, 1), padding=(1, 1))
          (3): CALayer(
            (body): Sequential(
              (0): Conv2d(64, 4, kernel_size=(1, 1), stride=(1, 1))
              (1): LeakyReLU(negative_slope=0.2)
              (2): Conv2d(4, 64, kernel_size=(1, 1), stride=(1, 1))
              (3): Sigmoid()
            )
            (avg): AdaptiveAvgPool2d(output_size=1)
          )
        )
      )
      (18): CRB_Layer(
        (body): Sequential(
          (0): Conv2d(74, 74, kernel_size=(3, 3), stride=(1, 1), padding=(1, 1))
          (1): LeakyReLU(negative_slope=0.2, inplace=True)
          (2): Conv2d(74, 64, kernel_size=(3, 3), stride=(1, 1), padding=(1, 1))
          (3): CALayer(
            (body): Sequential(
              (0): Conv2d(64, 4, kernel_size=(1, 1), stride=(1, 1))
              (1): LeakyReLU(negative_slope=0.2)
              (2): Conv2d(4, 64, kernel_size=(1, 1), stride=(1, 1))
              (3): Sigmoid()
            )
            (avg): AdaptiveAvgPool2d(output_size=1)
          )
        )
      )
      (19): CRB_Layer(
        (body): Sequential(
          (0): Conv2d(74, 74, kernel_size=(3, 3), stride=(1, 1), padding=(1, 1))
          (1): LeakyReLU(negative_slope=0.2, inplace=True)
          (2): Conv2d(74, 64, kernel_size=(3, 3), stride=(1, 1), padding=(1, 1))
          (3): CALayer(
            (body): Sequential(
              (0): Conv2d(64, 4, kernel_size=(1, 1), stride=(1, 1))
              (1): LeakyReLU(negative_slope=0.2)
              (2): Conv2d(4, 64, kernel_size=(1, 1), stride=(1, 1))
              (3): Sigmoid()
            )
            (avg): AdaptiveAvgPool2d(output_size=1)
          )
        )
      )
      (20): CRB_Layer(
        (body): Sequential(
          (0): Conv2d(74, 74, kernel_size=(3, 3), stride=(1, 1), padding=(1, 1))
          (1): LeakyReLU(negative_slope=0.2, inplace=True)
          (2): Conv2d(74, 64, kernel_size=(3, 3), stride=(1, 1), padding=(1, 1))
          (3): CALayer(
            (body): Sequential(
              (0): Conv2d(64, 4, kernel_size=(1, 1), stride=(1, 1))
              (1): LeakyReLU(negative_slope=0.2)
              (2): Conv2d(4, 64, kernel_size=(1, 1), stride=(1, 1))
              (3): Sigmoid()
            )
            (avg): AdaptiveAvgPool2d(output_size=1)
          )
        )
      )
      (21): CRB_Layer(
        (body): Sequential(
          (0): Conv2d(74, 74, kernel_size=(3, 3), stride=(1, 1), padding=(1, 1))
          (1): LeakyReLU(negative_slope=0.2, inplace=True)
          (2): Conv2d(74, 64, kernel_size=(3, 3), stride=(1, 1), padding=(1, 1))
          (3): CALayer(
            (body): Sequential(
              (0): Conv2d(64, 4, kernel_size=(1, 1), stride=(1, 1))
              (1): LeakyReLU(negative_slope=0.2)
              (2): Conv2d(4, 64, kernel_size=(1, 1), stride=(1, 1))
              (3): Sigmoid()
            )
            (avg): AdaptiveAvgPool2d(output_size=1)
          )
        )
      )
      (22): CRB_Layer(
        (body): Sequential(
          (0): Conv2d(74, 74, kernel_size=(3, 3), stride=(1, 1), padding=(1, 1))
          (1): LeakyReLU(negative_slope=0.2, inplace=True)
          (2): Conv2d(74, 64, kernel_size=(3, 3), stride=(1, 1), padding=(1, 1))
          (3): CALayer(
            (body): Sequential(
              (0): Conv2d(64, 4, kernel_size=(1, 1), stride=(1, 1))
              (1): LeakyReLU(negative_slope=0.2)
              (2): Conv2d(4, 64, kernel_size=(1, 1), stride=(1, 1))
              (3): Sigmoid()
            )
            (avg): AdaptiveAvgPool2d(output_size=1)
          )
        )
      )
      (23): CRB_Layer(
        (body): Sequential(
          (0): Conv2d(74, 74, kernel_size=(3, 3), stride=(1, 1), padding=(1, 1))
          (1): LeakyReLU(negative_slope=0.2, inplace=True)
          (2): Conv2d(74, 64, kernel_size=(3, 3), stride=(1, 1), padding=(1, 1))
          (3): CALayer(
            (body): Sequential(
              (0): Conv2d(64, 4, kernel_size=(1, 1), stride=(1, 1))
              (1): LeakyReLU(negative_slope=0.2)
              (2): Conv2d(4, 64, kernel_size=(1, 1), stride=(1, 1))
              (3): Sigmoid()
            )
            (avg): AdaptiveAvgPool2d(output_size=1)
          )
        )
      )
      (24): CRB_Layer(
        (body): Sequential(
          (0): Conv2d(74, 74, kernel_size=(3, 3), stride=(1, 1), padding=(1, 1))
          (1): LeakyReLU(negative_slope=0.2, inplace=True)
          (2): Conv2d(74, 64, kernel_size=(3, 3), stride=(1, 1), padding=(1, 1))
          (3): CALayer(
            (body): Sequential(
              (0): Conv2d(64, 4, kernel_size=(1, 1), stride=(1, 1))
              (1): LeakyReLU(negative_slope=0.2)
              (2): Conv2d(4, 64, kernel_size=(1, 1), stride=(1, 1))
              (3): Sigmoid()
            )
            (avg): AdaptiveAvgPool2d(output_size=1)
          )
        )
      )
      (25): CRB_Layer(
        (body): Sequential(
          (0): Conv2d(74, 74, kernel_size=(3, 3), stride=(1, 1), padding=(1, 1))
          (1): LeakyReLU(negative_slope=0.2, inplace=True)
          (2): Conv2d(74, 64, kernel_size=(3, 3), stride=(1, 1), padding=(1, 1))
          (3): CALayer(
            (body): Sequential(
              (0): Conv2d(64, 4, kernel_size=(1, 1), stride=(1, 1))
              (1): LeakyReLU(negative_slope=0.2)
              (2): Conv2d(4, 64, kernel_size=(1, 1), stride=(1, 1))
              (3): Sigmoid()
            )
            (avg): AdaptiveAvgPool2d(output_size=1)
          )
        )
      )
      (26): CRB_Layer(
        (body): Sequential(
          (0): Conv2d(74, 74, kernel_size=(3, 3), stride=(1, 1), padding=(1, 1))
          (1): LeakyReLU(negative_slope=0.2, inplace=True)
          (2): Conv2d(74, 64, kernel_size=(3, 3), stride=(1, 1), padding=(1, 1))
          (3): CALayer(
            (body): Sequential(
              (0): Conv2d(64, 4, kernel_size=(1, 1), stride=(1, 1))
              (1): LeakyReLU(negative_slope=0.2)
              (2): Conv2d(4, 64, kernel_size=(1, 1), stride=(1, 1))
              (3): Sigmoid()
            )
            (avg): AdaptiveAvgPool2d(output_size=1)
          )
        )
      )
      (27): CRB_Layer(
        (body): Sequential(
          (0): Conv2d(74, 74, kernel_size=(3, 3), stride=(1, 1), padding=(1, 1))
          (1): LeakyReLU(negative_slope=0.2, inplace=True)
          (2): Conv2d(74, 64, kernel_size=(3, 3), stride=(1, 1), padding=(1, 1))
          (3): CALayer(
            (body): Sequential(
              (0): Conv2d(64, 4, kernel_size=(1, 1), stride=(1, 1))
              (1): LeakyReLU(negative_slope=0.2)
              (2): Conv2d(4, 64, kernel_size=(1, 1), stride=(1, 1))
              (3): Sigmoid()
            )
            (avg): AdaptiveAvgPool2d(output_size=1)
          )
        )
      )
      (28): CRB_Layer(
        (body): Sequential(
          (0): Conv2d(74, 74, kernel_size=(3, 3), stride=(1, 1), padding=(1, 1))
          (1): LeakyReLU(negative_slope=0.2, inplace=True)
          (2): Conv2d(74, 64, kernel_size=(3, 3), stride=(1, 1), padding=(1, 1))
          (3): CALayer(
            (body): Sequential(
              (0): Conv2d(64, 4, kernel_size=(1, 1), stride=(1, 1))
              (1): LeakyReLU(negative_slope=0.2)
              (2): Conv2d(4, 64, kernel_size=(1, 1), stride=(1, 1))
              (3): Sigmoid()
            )
            (avg): AdaptiveAvgPool2d(output_size=1)
          )
        )
      )
      (29): CRB_Layer(
        (body): Sequential(
          (0): Conv2d(74, 74, kernel_size=(3, 3), stride=(1, 1), padding=(1, 1))
          (1): LeakyReLU(negative_slope=0.2, inplace=True)
          (2): Conv2d(74, 64, kernel_size=(3, 3), stride=(1, 1), padding=(1, 1))
          (3): CALayer(
            (body): Sequential(
              (0): Conv2d(64, 4, kernel_size=(1, 1), stride=(1, 1))
              (1): LeakyReLU(negative_slope=0.2)
              (2): Conv2d(4, 64, kernel_size=(1, 1), stride=(1, 1))
              (3): Sigmoid()
            )
            (avg): AdaptiveAvgPool2d(output_size=1)
          )
        )
      )
      (30): CRB_Layer(
        (body): Sequential(
          (0): Conv2d(74, 74, kernel_size=(3, 3), stride=(1, 1), padding=(1, 1))
          (1): LeakyReLU(negative_slope=0.2, inplace=True)
          (2): Conv2d(74, 64, kernel_size=(3, 3), stride=(1, 1), padding=(1, 1))
          (3): CALayer(
            (body): Sequential(
              (0): Conv2d(64, 4, kernel_size=(1, 1), stride=(1, 1))
              (1): LeakyReLU(negative_slope=0.2)
              (2): Conv2d(4, 64, kernel_size=(1, 1), stride=(1, 1))
              (3): Sigmoid()
            )
            (avg): AdaptiveAvgPool2d(output_size=1)
          )
        )
      )
      (31): CRB_Layer(
        (body): Sequential(
          (0): Conv2d(74, 74, kernel_size=(3, 3), stride=(1, 1), padding=(1, 1))
          (1): LeakyReLU(negative_slope=0.2, inplace=True)
          (2): Conv2d(74, 64, kernel_size=(3, 3), stride=(1, 1), padding=(1, 1))
          (3): CALayer(
            (body): Sequential(
              (0): Conv2d(64, 4, kernel_size=(1, 1), stride=(1, 1))
              (1): LeakyReLU(negative_slope=0.2)
              (2): Conv2d(4, 64, kernel_size=(1, 1), stride=(1, 1))
              (3): Sigmoid()
            )
            (avg): AdaptiveAvgPool2d(output_size=1)
          )
        )
      )
      (32): CRB_Layer(
        (body): Sequential(
          (0): Conv2d(74, 74, kernel_size=(3, 3), stride=(1, 1), padding=(1, 1))
          (1): LeakyReLU(negative_slope=0.2, inplace=True)
          (2): Conv2d(74, 64, kernel_size=(3, 3), stride=(1, 1), padding=(1, 1))
          (3): CALayer(
            (body): Sequential(
              (0): Conv2d(64, 4, kernel_size=(1, 1), stride=(1, 1))
              (1): LeakyReLU(negative_slope=0.2)
              (2): Conv2d(4, 64, kernel_size=(1, 1), stride=(1, 1))
              (3): Sigmoid()
            )
            (avg): AdaptiveAvgPool2d(output_size=1)
          )
        )
      )
      (33): CRB_Layer(
        (body): Sequential(
          (0): Conv2d(74, 74, kernel_size=(3, 3), stride=(1, 1), padding=(1, 1))
          (1): LeakyReLU(negative_slope=0.2, inplace=True)
          (2): Conv2d(74, 64, kernel_size=(3, 3), stride=(1, 1), padding=(1, 1))
          (3): CALayer(
            (body): Sequential(
              (0): Conv2d(64, 4, kernel_size=(1, 1), stride=(1, 1))
              (1): LeakyReLU(negative_slope=0.2)
              (2): Conv2d(4, 64, kernel_size=(1, 1), stride=(1, 1))
              (3): Sigmoid()
            )
            (avg): AdaptiveAvgPool2d(output_size=1)
          )
        )
      )
      (34): CRB_Layer(
        (body): Sequential(
          (0): Conv2d(74, 74, kernel_size=(3, 3), stride=(1, 1), padding=(1, 1))
          (1): LeakyReLU(negative_slope=0.2, inplace=True)
          (2): Conv2d(74, 64, kernel_size=(3, 3), stride=(1, 1), padding=(1, 1))
          (3): CALayer(
            (body): Sequential(
              (0): Conv2d(64, 4, kernel_size=(1, 1), stride=(1, 1))
              (1): LeakyReLU(negative_slope=0.2)
              (2): Conv2d(4, 64, kernel_size=(1, 1), stride=(1, 1))
              (3): Sigmoid()
            )
            (avg): AdaptiveAvgPool2d(output_size=1)
          )
        )
      )
      (35): CRB_Layer(
        (body): Sequential(
          (0): Conv2d(74, 74, kernel_size=(3, 3), stride=(1, 1), padding=(1, 1))
          (1): LeakyReLU(negative_slope=0.2, inplace=True)
          (2): Conv2d(74, 64, kernel_size=(3, 3), stride=(1, 1), padding=(1, 1))
          (3): CALayer(
            (body): Sequential(
              (0): Conv2d(64, 4, kernel_size=(1, 1), stride=(1, 1))
              (1): LeakyReLU(negative_slope=0.2)
              (2): Conv2d(4, 64, kernel_size=(1, 1), stride=(1, 1))
              (3): Sigmoid()
            )
            (avg): AdaptiveAvgPool2d(output_size=1)
          )
        )
      )
      (36): CRB_Layer(
        (body): Sequential(
          (0): Conv2d(74, 74, kernel_size=(3, 3), stride=(1, 1), padding=(1, 1))
          (1): LeakyReLU(negative_slope=0.2, inplace=True)
          (2): Conv2d(74, 64, kernel_size=(3, 3), stride=(1, 1), padding=(1, 1))
          (3): CALayer(
            (body): Sequential(
              (0): Conv2d(64, 4, kernel_size=(1, 1), stride=(1, 1))
              (1): LeakyReLU(negative_slope=0.2)
              (2): Conv2d(4, 64, kernel_size=(1, 1), stride=(1, 1))
              (3): Sigmoid()
            )
            (avg): AdaptiveAvgPool2d(output_size=1)
          )
        )
      )
      (37): CRB_Layer(
        (body): Sequential(
          (0): Conv2d(74, 74, kernel_size=(3, 3), stride=(1, 1), padding=(1, 1))
          (1): LeakyReLU(negative_slope=0.2, inplace=True)
          (2): Conv2d(74, 64, kernel_size=(3, 3), stride=(1, 1), padding=(1, 1))
          (3): CALayer(
            (body): Sequential(
              (0): Conv2d(64, 4, kernel_size=(1, 1), stride=(1, 1))
              (1): LeakyReLU(negative_slope=0.2)
              (2): Conv2d(4, 64, kernel_size=(1, 1), stride=(1, 1))
              (3): Sigmoid()
            )
            (avg): AdaptiveAvgPool2d(output_size=1)
          )
        )
      )
      (38): CRB_Layer(
        (body): Sequential(
          (0): Conv2d(74, 74, kernel_size=(3, 3), stride=(1, 1), padding=(1, 1))
          (1): LeakyReLU(negative_slope=0.2, inplace=True)
          (2): Conv2d(74, 64, kernel_size=(3, 3), stride=(1, 1), padding=(1, 1))
          (3): CALayer(
            (body): Sequential(
              (0): Conv2d(64, 4, kernel_size=(1, 1), stride=(1, 1))
              (1): LeakyReLU(negative_slope=0.2)
              (2): Conv2d(4, 64, kernel_size=(1, 1), stride=(1, 1))
              (3): Sigmoid()
            )
            (avg): AdaptiveAvgPool2d(output_size=1)
          )
        )
      )
      (39): CRB_Layer(
        (body): Sequential(
          (0): Conv2d(74, 74, kernel_size=(3, 3), stride=(1, 1), padding=(1, 1))
          (1): LeakyReLU(negative_slope=0.2, inplace=True)
          (2): Conv2d(74, 64, kernel_size=(3, 3), stride=(1, 1), padding=(1, 1))
          (3): CALayer(
            (body): Sequential(
              (0): Conv2d(64, 4, kernel_size=(1, 1), stride=(1, 1))
              (1): LeakyReLU(negative_slope=0.2)
              (2): Conv2d(4, 64, kernel_size=(1, 1), stride=(1, 1))
              (3): Sigmoid()
            )
            (avg): AdaptiveAvgPool2d(output_size=1)
          )
        )
      )
    )
    (fusion): Conv2d(64, 64, kernel_size=(3, 3), stride=(1, 1), padding=(1, 1))
    (upscale): Sequential(
      (0): Conv2d(64, 256, kernel_size=(3, 3), stride=(1, 1), padding=(1, 1))
      (1): PixelShuffle(upscale_factor=2)
      (2): Conv2d(64, 3, kernel_size=(3, 3), stride=(1, 1), padding=(1, 1))
    )
  )
  (Estimator): Estimator(
    (head_LR): Conv2d(3, 32, kernel_size=(1, 1), stride=(1, 1))
    (head_HR): Conv2d(3, 32, kernel_size=(9, 9), stride=(2, 2), padding=(4, 4))
    (body): Sequential(
      (0): CRB_Layer(
        (body): Sequential(
          (0): Conv2d(64, 64, kernel_size=(3, 3), stride=(1, 1), padding=(1, 1))
          (1): LeakyReLU(negative_slope=0.2, inplace=True)
          (2): Conv2d(64, 32, kernel_size=(3, 3), stride=(1, 1), padding=(1, 1))
          (3): CALayer(
            (body): Sequential(
              (0): Conv2d(32, 2, kernel_size=(1, 1), stride=(1, 1))
              (1): LeakyReLU(negative_slope=0.2)
              (2): Conv2d(2, 32, kernel_size=(1, 1), stride=(1, 1))
              (3): Sigmoid()
            )
            (avg): AdaptiveAvgPool2d(output_size=1)
          )
        )
      )
      (1): CRB_Layer(
        (body): Sequential(
          (0): Conv2d(64, 64, kernel_size=(3, 3), stride=(1, 1), padding=(1, 1))
          (1): LeakyReLU(negative_slope=0.2, inplace=True)
          (2): Conv2d(64, 32, kernel_size=(3, 3), stride=(1, 1), padding=(1, 1))
          (3): CALayer(
            (body): Sequential(
              (0): Conv2d(32, 2, kernel_size=(1, 1), stride=(1, 1))
              (1): LeakyReLU(negative_slope=0.2)
              (2): Conv2d(2, 32, kernel_size=(1, 1), stride=(1, 1))
              (3): Sigmoid()
            )
            (avg): AdaptiveAvgPool2d(output_size=1)
          )
        )
      )
      (2): CRB_Layer(
        (body): Sequential(
          (0): Conv2d(64, 64, kernel_size=(3, 3), stride=(1, 1), padding=(1, 1))
          (1): LeakyReLU(negative_slope=0.2, inplace=True)
          (2): Conv2d(64, 32, kernel_size=(3, 3), stride=(1, 1), padding=(1, 1))
          (3): CALayer(
            (body): Sequential(
              (0): Conv2d(32, 2, kernel_size=(1, 1), stride=(1, 1))
              (1): LeakyReLU(negative_slope=0.2)
              (2): Conv2d(2, 32, kernel_size=(1, 1), stride=(1, 1))
              (3): Sigmoid()
            )
            (avg): AdaptiveAvgPool2d(output_size=1)
          )
        )
      )
      (3): CRB_Layer(
        (body): Sequential(
          (0): Conv2d(64, 64, kernel_size=(3, 3), stride=(1, 1), padding=(1, 1))
          (1): LeakyReLU(negative_slope=0.2, inplace=True)
          (2): Conv2d(64, 32, kernel_size=(3, 3), stride=(1, 1), padding=(1, 1))
          (3): CALayer(
            (body): Sequential(
              (0): Conv2d(32, 2, kernel_size=(1, 1), stride=(1, 1))
              (1): LeakyReLU(negative_slope=0.2)
              (2): Conv2d(2, 32, kernel_size=(1, 1), stride=(1, 1))
              (3): Sigmoid()
            )
            (avg): AdaptiveAvgPool2d(output_size=1)
          )
        )
      )
      (4): CRB_Layer(
        (body): Sequential(
          (0): Conv2d(64, 64, kernel_size=(3, 3), stride=(1, 1), padding=(1, 1))
          (1): LeakyReLU(negative_slope=0.2, inplace=True)
          (2): Conv2d(64, 32, kernel_size=(3, 3), stride=(1, 1), padding=(1, 1))
          (3): CALayer(
            (body): Sequential(
              (0): Conv2d(32, 2, kernel_size=(1, 1), stride=(1, 1))
              (1): LeakyReLU(negative_slope=0.2)
              (2): Conv2d(2, 32, kernel_size=(1, 1), stride=(1, 1))
              (3): Sigmoid()
            )
            (avg): AdaptiveAvgPool2d(output_size=1)
          )
        )
      )
    )
    (out): Conv2d(32, 10, kernel_size=(3, 3), stride=(1, 1), padding=(1, 1))
    (globalPooling): AdaptiveAvgPool2d(output_size=(1, 1))
  )
)
21-07-21 13:40:21.083 - INFO: Model [B_Model] is created.
21-07-21 13:43:14.711 - INFO: Path already exists. Rename it to [/content/DAN/experiments/DANv1/DANx2_setting1_archived_210721-134314]
21-07-21 13:43:14.775 - INFO: Dataset [GTDataset - DIV2K] is created.
21-07-21 13:43:14.777 - INFO: Dataset [LQGTDataset - DIV2KRK] is created.
21-07-21 13:43:14.892 - INFO: Network G structure: DataParallel - DAN, with parameters: 4,181,799
21-07-21 13:43:14.892 - INFO: DAN(
  (Restorer): Restorer(
    (head): Conv2d(3, 64, kernel_size=(3, 3), stride=(1, 1), padding=(1, 1))
    (body): Sequential(
      (0): CRB_Layer(
        (body): Sequential(
          (0): Conv2d(74, 74, kernel_size=(3, 3), stride=(1, 1), padding=(1, 1))
          (1): LeakyReLU(negative_slope=0.2, inplace=True)
          (2): Conv2d(74, 64, kernel_size=(3, 3), stride=(1, 1), padding=(1, 1))
          (3): CALayer(
            (body): Sequential(
              (0): Conv2d(64, 4, kernel_size=(1, 1), stride=(1, 1))
              (1): LeakyReLU(negative_slope=0.2)
              (2): Conv2d(4, 64, kernel_size=(1, 1), stride=(1, 1))
              (3): Sigmoid()
            )
            (avg): AdaptiveAvgPool2d(output_size=1)
          )
        )
      )
      (1): CRB_Layer(
        (body): Sequential(
          (0): Conv2d(74, 74, kernel_size=(3, 3), stride=(1, 1), padding=(1, 1))
          (1): LeakyReLU(negative_slope=0.2, inplace=True)
          (2): Conv2d(74, 64, kernel_size=(3, 3), stride=(1, 1), padding=(1, 1))
          (3): CALayer(
            (body): Sequential(
              (0): Conv2d(64, 4, kernel_size=(1, 1), stride=(1, 1))
              (1): LeakyReLU(negative_slope=0.2)
              (2): Conv2d(4, 64, kernel_size=(1, 1), stride=(1, 1))
              (3): Sigmoid()
            )
            (avg): AdaptiveAvgPool2d(output_size=1)
          )
        )
      )
      (2): CRB_Layer(
        (body): Sequential(
          (0): Conv2d(74, 74, kernel_size=(3, 3), stride=(1, 1), padding=(1, 1))
          (1): LeakyReLU(negative_slope=0.2, inplace=True)
          (2): Conv2d(74, 64, kernel_size=(3, 3), stride=(1, 1), padding=(1, 1))
          (3): CALayer(
            (body): Sequential(
              (0): Conv2d(64, 4, kernel_size=(1, 1), stride=(1, 1))
              (1): LeakyReLU(negative_slope=0.2)
              (2): Conv2d(4, 64, kernel_size=(1, 1), stride=(1, 1))
              (3): Sigmoid()
            )
            (avg): AdaptiveAvgPool2d(output_size=1)
          )
        )
      )
      (3): CRB_Layer(
        (body): Sequential(
          (0): Conv2d(74, 74, kernel_size=(3, 3), stride=(1, 1), padding=(1, 1))
          (1): LeakyReLU(negative_slope=0.2, inplace=True)
          (2): Conv2d(74, 64, kernel_size=(3, 3), stride=(1, 1), padding=(1, 1))
          (3): CALayer(
            (body): Sequential(
              (0): Conv2d(64, 4, kernel_size=(1, 1), stride=(1, 1))
              (1): LeakyReLU(negative_slope=0.2)
              (2): Conv2d(4, 64, kernel_size=(1, 1), stride=(1, 1))
              (3): Sigmoid()
            )
            (avg): AdaptiveAvgPool2d(output_size=1)
          )
        )
      )
      (4): CRB_Layer(
        (body): Sequential(
          (0): Conv2d(74, 74, kernel_size=(3, 3), stride=(1, 1), padding=(1, 1))
          (1): LeakyReLU(negative_slope=0.2, inplace=True)
          (2): Conv2d(74, 64, kernel_size=(3, 3), stride=(1, 1), padding=(1, 1))
          (3): CALayer(
            (body): Sequential(
              (0): Conv2d(64, 4, kernel_size=(1, 1), stride=(1, 1))
              (1): LeakyReLU(negative_slope=0.2)
              (2): Conv2d(4, 64, kernel_size=(1, 1), stride=(1, 1))
              (3): Sigmoid()
            )
            (avg): AdaptiveAvgPool2d(output_size=1)
          )
        )
      )
      (5): CRB_Layer(
        (body): Sequential(
          (0): Conv2d(74, 74, kernel_size=(3, 3), stride=(1, 1), padding=(1, 1))
          (1): LeakyReLU(negative_slope=0.2, inplace=True)
          (2): Conv2d(74, 64, kernel_size=(3, 3), stride=(1, 1), padding=(1, 1))
          (3): CALayer(
            (body): Sequential(
              (0): Conv2d(64, 4, kernel_size=(1, 1), stride=(1, 1))
              (1): LeakyReLU(negative_slope=0.2)
              (2): Conv2d(4, 64, kernel_size=(1, 1), stride=(1, 1))
              (3): Sigmoid()
            )
            (avg): AdaptiveAvgPool2d(output_size=1)
          )
        )
      )
      (6): CRB_Layer(
        (body): Sequential(
          (0): Conv2d(74, 74, kernel_size=(3, 3), stride=(1, 1), padding=(1, 1))
          (1): LeakyReLU(negative_slope=0.2, inplace=True)
          (2): Conv2d(74, 64, kernel_size=(3, 3), stride=(1, 1), padding=(1, 1))
          (3): CALayer(
            (body): Sequential(
              (0): Conv2d(64, 4, kernel_size=(1, 1), stride=(1, 1))
              (1): LeakyReLU(negative_slope=0.2)
              (2): Conv2d(4, 64, kernel_size=(1, 1), stride=(1, 1))
              (3): Sigmoid()
            )
            (avg): AdaptiveAvgPool2d(output_size=1)
          )
        )
      )
      (7): CRB_Layer(
        (body): Sequential(
          (0): Conv2d(74, 74, kernel_size=(3, 3), stride=(1, 1), padding=(1, 1))
          (1): LeakyReLU(negative_slope=0.2, inplace=True)
          (2): Conv2d(74, 64, kernel_size=(3, 3), stride=(1, 1), padding=(1, 1))
          (3): CALayer(
            (body): Sequential(
              (0): Conv2d(64, 4, kernel_size=(1, 1), stride=(1, 1))
              (1): LeakyReLU(negative_slope=0.2)
              (2): Conv2d(4, 64, kernel_size=(1, 1), stride=(1, 1))
              (3): Sigmoid()
            )
            (avg): AdaptiveAvgPool2d(output_size=1)
          )
        )
      )
      (8): CRB_Layer(
        (body): Sequential(
          (0): Conv2d(74, 74, kernel_size=(3, 3), stride=(1, 1), padding=(1, 1))
          (1): LeakyReLU(negative_slope=0.2, inplace=True)
          (2): Conv2d(74, 64, kernel_size=(3, 3), stride=(1, 1), padding=(1, 1))
          (3): CALayer(
            (body): Sequential(
              (0): Conv2d(64, 4, kernel_size=(1, 1), stride=(1, 1))
              (1): LeakyReLU(negative_slope=0.2)
              (2): Conv2d(4, 64, kernel_size=(1, 1), stride=(1, 1))
              (3): Sigmoid()
            )
            (avg): AdaptiveAvgPool2d(output_size=1)
          )
        )
      )
      (9): CRB_Layer(
        (body): Sequential(
          (0): Conv2d(74, 74, kernel_size=(3, 3), stride=(1, 1), padding=(1, 1))
          (1): LeakyReLU(negative_slope=0.2, inplace=True)
          (2): Conv2d(74, 64, kernel_size=(3, 3), stride=(1, 1), padding=(1, 1))
          (3): CALayer(
            (body): Sequential(
              (0): Conv2d(64, 4, kernel_size=(1, 1), stride=(1, 1))
              (1): LeakyReLU(negative_slope=0.2)
              (2): Conv2d(4, 64, kernel_size=(1, 1), stride=(1, 1))
              (3): Sigmoid()
            )
            (avg): AdaptiveAvgPool2d(output_size=1)
          )
        )
      )
      (10): CRB_Layer(
        (body): Sequential(
          (0): Conv2d(74, 74, kernel_size=(3, 3), stride=(1, 1), padding=(1, 1))
          (1): LeakyReLU(negative_slope=0.2, inplace=True)
          (2): Conv2d(74, 64, kernel_size=(3, 3), stride=(1, 1), padding=(1, 1))
          (3): CALayer(
            (body): Sequential(
              (0): Conv2d(64, 4, kernel_size=(1, 1), stride=(1, 1))
              (1): LeakyReLU(negative_slope=0.2)
              (2): Conv2d(4, 64, kernel_size=(1, 1), stride=(1, 1))
              (3): Sigmoid()
            )
            (avg): AdaptiveAvgPool2d(output_size=1)
          )
        )
      )
      (11): CRB_Layer(
        (body): Sequential(
          (0): Conv2d(74, 74, kernel_size=(3, 3), stride=(1, 1), padding=(1, 1))
          (1): LeakyReLU(negative_slope=0.2, inplace=True)
          (2): Conv2d(74, 64, kernel_size=(3, 3), stride=(1, 1), padding=(1, 1))
          (3): CALayer(
            (body): Sequential(
              (0): Conv2d(64, 4, kernel_size=(1, 1), stride=(1, 1))
              (1): LeakyReLU(negative_slope=0.2)
              (2): Conv2d(4, 64, kernel_size=(1, 1), stride=(1, 1))
              (3): Sigmoid()
            )
            (avg): AdaptiveAvgPool2d(output_size=1)
          )
        )
      )
      (12): CRB_Layer(
        (body): Sequential(
          (0): Conv2d(74, 74, kernel_size=(3, 3), stride=(1, 1), padding=(1, 1))
          (1): LeakyReLU(negative_slope=0.2, inplace=True)
          (2): Conv2d(74, 64, kernel_size=(3, 3), stride=(1, 1), padding=(1, 1))
          (3): CALayer(
            (body): Sequential(
              (0): Conv2d(64, 4, kernel_size=(1, 1), stride=(1, 1))
              (1): LeakyReLU(negative_slope=0.2)
              (2): Conv2d(4, 64, kernel_size=(1, 1), stride=(1, 1))
              (3): Sigmoid()
            )
            (avg): AdaptiveAvgPool2d(output_size=1)
          )
        )
      )
      (13): CRB_Layer(
        (body): Sequential(
          (0): Conv2d(74, 74, kernel_size=(3, 3), stride=(1, 1), padding=(1, 1))
          (1): LeakyReLU(negative_slope=0.2, inplace=True)
          (2): Conv2d(74, 64, kernel_size=(3, 3), stride=(1, 1), padding=(1, 1))
          (3): CALayer(
            (body): Sequential(
              (0): Conv2d(64, 4, kernel_size=(1, 1), stride=(1, 1))
              (1): LeakyReLU(negative_slope=0.2)
              (2): Conv2d(4, 64, kernel_size=(1, 1), stride=(1, 1))
              (3): Sigmoid()
            )
            (avg): AdaptiveAvgPool2d(output_size=1)
          )
        )
      )
      (14): CRB_Layer(
        (body): Sequential(
          (0): Conv2d(74, 74, kernel_size=(3, 3), stride=(1, 1), padding=(1, 1))
          (1): LeakyReLU(negative_slope=0.2, inplace=True)
          (2): Conv2d(74, 64, kernel_size=(3, 3), stride=(1, 1), padding=(1, 1))
          (3): CALayer(
            (body): Sequential(
              (0): Conv2d(64, 4, kernel_size=(1, 1), stride=(1, 1))
              (1): LeakyReLU(negative_slope=0.2)
              (2): Conv2d(4, 64, kernel_size=(1, 1), stride=(1, 1))
              (3): Sigmoid()
            )
            (avg): AdaptiveAvgPool2d(output_size=1)
          )
        )
      )
      (15): CRB_Layer(
        (body): Sequential(
          (0): Conv2d(74, 74, kernel_size=(3, 3), stride=(1, 1), padding=(1, 1))
          (1): LeakyReLU(negative_slope=0.2, inplace=True)
          (2): Conv2d(74, 64, kernel_size=(3, 3), stride=(1, 1), padding=(1, 1))
          (3): CALayer(
            (body): Sequential(
              (0): Conv2d(64, 4, kernel_size=(1, 1), stride=(1, 1))
              (1): LeakyReLU(negative_slope=0.2)
              (2): Conv2d(4, 64, kernel_size=(1, 1), stride=(1, 1))
              (3): Sigmoid()
            )
            (avg): AdaptiveAvgPool2d(output_size=1)
          )
        )
      )
      (16): CRB_Layer(
        (body): Sequential(
          (0): Conv2d(74, 74, kernel_size=(3, 3), stride=(1, 1), padding=(1, 1))
          (1): LeakyReLU(negative_slope=0.2, inplace=True)
          (2): Conv2d(74, 64, kernel_size=(3, 3), stride=(1, 1), padding=(1, 1))
          (3): CALayer(
            (body): Sequential(
              (0): Conv2d(64, 4, kernel_size=(1, 1), stride=(1, 1))
              (1): LeakyReLU(negative_slope=0.2)
              (2): Conv2d(4, 64, kernel_size=(1, 1), stride=(1, 1))
              (3): Sigmoid()
            )
            (avg): AdaptiveAvgPool2d(output_size=1)
          )
        )
      )
      (17): CRB_Layer(
        (body): Sequential(
          (0): Conv2d(74, 74, kernel_size=(3, 3), stride=(1, 1), padding=(1, 1))
          (1): LeakyReLU(negative_slope=0.2, inplace=True)
          (2): Conv2d(74, 64, kernel_size=(3, 3), stride=(1, 1), padding=(1, 1))
          (3): CALayer(
            (body): Sequential(
              (0): Conv2d(64, 4, kernel_size=(1, 1), stride=(1, 1))
              (1): LeakyReLU(negative_slope=0.2)
              (2): Conv2d(4, 64, kernel_size=(1, 1), stride=(1, 1))
              (3): Sigmoid()
            )
            (avg): AdaptiveAvgPool2d(output_size=1)
          )
        )
      )
      (18): CRB_Layer(
        (body): Sequential(
          (0): Conv2d(74, 74, kernel_size=(3, 3), stride=(1, 1), padding=(1, 1))
          (1): LeakyReLU(negative_slope=0.2, inplace=True)
          (2): Conv2d(74, 64, kernel_size=(3, 3), stride=(1, 1), padding=(1, 1))
          (3): CALayer(
            (body): Sequential(
              (0): Conv2d(64, 4, kernel_size=(1, 1), stride=(1, 1))
              (1): LeakyReLU(negative_slope=0.2)
              (2): Conv2d(4, 64, kernel_size=(1, 1), stride=(1, 1))
              (3): Sigmoid()
            )
            (avg): AdaptiveAvgPool2d(output_size=1)
          )
        )
      )
      (19): CRB_Layer(
        (body): Sequential(
          (0): Conv2d(74, 74, kernel_size=(3, 3), stride=(1, 1), padding=(1, 1))
          (1): LeakyReLU(negative_slope=0.2, inplace=True)
          (2): Conv2d(74, 64, kernel_size=(3, 3), stride=(1, 1), padding=(1, 1))
          (3): CALayer(
            (body): Sequential(
              (0): Conv2d(64, 4, kernel_size=(1, 1), stride=(1, 1))
              (1): LeakyReLU(negative_slope=0.2)
              (2): Conv2d(4, 64, kernel_size=(1, 1), stride=(1, 1))
              (3): Sigmoid()
            )
            (avg): AdaptiveAvgPool2d(output_size=1)
          )
        )
      )
      (20): CRB_Layer(
        (body): Sequential(
          (0): Conv2d(74, 74, kernel_size=(3, 3), stride=(1, 1), padding=(1, 1))
          (1): LeakyReLU(negative_slope=0.2, inplace=True)
          (2): Conv2d(74, 64, kernel_size=(3, 3), stride=(1, 1), padding=(1, 1))
          (3): CALayer(
            (body): Sequential(
              (0): Conv2d(64, 4, kernel_size=(1, 1), stride=(1, 1))
              (1): LeakyReLU(negative_slope=0.2)
              (2): Conv2d(4, 64, kernel_size=(1, 1), stride=(1, 1))
              (3): Sigmoid()
            )
            (avg): AdaptiveAvgPool2d(output_size=1)
          )
        )
      )
      (21): CRB_Layer(
        (body): Sequential(
          (0): Conv2d(74, 74, kernel_size=(3, 3), stride=(1, 1), padding=(1, 1))
          (1): LeakyReLU(negative_slope=0.2, inplace=True)
          (2): Conv2d(74, 64, kernel_size=(3, 3), stride=(1, 1), padding=(1, 1))
          (3): CALayer(
            (body): Sequential(
              (0): Conv2d(64, 4, kernel_size=(1, 1), stride=(1, 1))
              (1): LeakyReLU(negative_slope=0.2)
              (2): Conv2d(4, 64, kernel_size=(1, 1), stride=(1, 1))
              (3): Sigmoid()
            )
            (avg): AdaptiveAvgPool2d(output_size=1)
          )
        )
      )
      (22): CRB_Layer(
        (body): Sequential(
          (0): Conv2d(74, 74, kernel_size=(3, 3), stride=(1, 1), padding=(1, 1))
          (1): LeakyReLU(negative_slope=0.2, inplace=True)
          (2): Conv2d(74, 64, kernel_size=(3, 3), stride=(1, 1), padding=(1, 1))
          (3): CALayer(
            (body): Sequential(
              (0): Conv2d(64, 4, kernel_size=(1, 1), stride=(1, 1))
              (1): LeakyReLU(negative_slope=0.2)
              (2): Conv2d(4, 64, kernel_size=(1, 1), stride=(1, 1))
              (3): Sigmoid()
            )
            (avg): AdaptiveAvgPool2d(output_size=1)
          )
        )
      )
      (23): CRB_Layer(
        (body): Sequential(
          (0): Conv2d(74, 74, kernel_size=(3, 3), stride=(1, 1), padding=(1, 1))
          (1): LeakyReLU(negative_slope=0.2, inplace=True)
          (2): Conv2d(74, 64, kernel_size=(3, 3), stride=(1, 1), padding=(1, 1))
          (3): CALayer(
            (body): Sequential(
              (0): Conv2d(64, 4, kernel_size=(1, 1), stride=(1, 1))
              (1): LeakyReLU(negative_slope=0.2)
              (2): Conv2d(4, 64, kernel_size=(1, 1), stride=(1, 1))
              (3): Sigmoid()
            )
            (avg): AdaptiveAvgPool2d(output_size=1)
          )
        )
      )
      (24): CRB_Layer(
        (body): Sequential(
          (0): Conv2d(74, 74, kernel_size=(3, 3), stride=(1, 1), padding=(1, 1))
          (1): LeakyReLU(negative_slope=0.2, inplace=True)
          (2): Conv2d(74, 64, kernel_size=(3, 3), stride=(1, 1), padding=(1, 1))
          (3): CALayer(
            (body): Sequential(
              (0): Conv2d(64, 4, kernel_size=(1, 1), stride=(1, 1))
              (1): LeakyReLU(negative_slope=0.2)
              (2): Conv2d(4, 64, kernel_size=(1, 1), stride=(1, 1))
              (3): Sigmoid()
            )
            (avg): AdaptiveAvgPool2d(output_size=1)
          )
        )
      )
      (25): CRB_Layer(
        (body): Sequential(
          (0): Conv2d(74, 74, kernel_size=(3, 3), stride=(1, 1), padding=(1, 1))
          (1): LeakyReLU(negative_slope=0.2, inplace=True)
          (2): Conv2d(74, 64, kernel_size=(3, 3), stride=(1, 1), padding=(1, 1))
          (3): CALayer(
            (body): Sequential(
              (0): Conv2d(64, 4, kernel_size=(1, 1), stride=(1, 1))
              (1): LeakyReLU(negative_slope=0.2)
              (2): Conv2d(4, 64, kernel_size=(1, 1), stride=(1, 1))
              (3): Sigmoid()
            )
            (avg): AdaptiveAvgPool2d(output_size=1)
          )
        )
      )
      (26): CRB_Layer(
        (body): Sequential(
          (0): Conv2d(74, 74, kernel_size=(3, 3), stride=(1, 1), padding=(1, 1))
          (1): LeakyReLU(negative_slope=0.2, inplace=True)
          (2): Conv2d(74, 64, kernel_size=(3, 3), stride=(1, 1), padding=(1, 1))
          (3): CALayer(
            (body): Sequential(
              (0): Conv2d(64, 4, kernel_size=(1, 1), stride=(1, 1))
              (1): LeakyReLU(negative_slope=0.2)
              (2): Conv2d(4, 64, kernel_size=(1, 1), stride=(1, 1))
              (3): Sigmoid()
            )
            (avg): AdaptiveAvgPool2d(output_size=1)
          )
        )
      )
      (27): CRB_Layer(
        (body): Sequential(
          (0): Conv2d(74, 74, kernel_size=(3, 3), stride=(1, 1), padding=(1, 1))
          (1): LeakyReLU(negative_slope=0.2, inplace=True)
          (2): Conv2d(74, 64, kernel_size=(3, 3), stride=(1, 1), padding=(1, 1))
          (3): CALayer(
            (body): Sequential(
              (0): Conv2d(64, 4, kernel_size=(1, 1), stride=(1, 1))
              (1): LeakyReLU(negative_slope=0.2)
              (2): Conv2d(4, 64, kernel_size=(1, 1), stride=(1, 1))
              (3): Sigmoid()
            )
            (avg): AdaptiveAvgPool2d(output_size=1)
          )
        )
      )
      (28): CRB_Layer(
        (body): Sequential(
          (0): Conv2d(74, 74, kernel_size=(3, 3), stride=(1, 1), padding=(1, 1))
          (1): LeakyReLU(negative_slope=0.2, inplace=True)
          (2): Conv2d(74, 64, kernel_size=(3, 3), stride=(1, 1), padding=(1, 1))
          (3): CALayer(
            (body): Sequential(
              (0): Conv2d(64, 4, kernel_size=(1, 1), stride=(1, 1))
              (1): LeakyReLU(negative_slope=0.2)
              (2): Conv2d(4, 64, kernel_size=(1, 1), stride=(1, 1))
              (3): Sigmoid()
            )
            (avg): AdaptiveAvgPool2d(output_size=1)
          )
        )
      )
      (29): CRB_Layer(
        (body): Sequential(
          (0): Conv2d(74, 74, kernel_size=(3, 3), stride=(1, 1), padding=(1, 1))
          (1): LeakyReLU(negative_slope=0.2, inplace=True)
          (2): Conv2d(74, 64, kernel_size=(3, 3), stride=(1, 1), padding=(1, 1))
          (3): CALayer(
            (body): Sequential(
              (0): Conv2d(64, 4, kernel_size=(1, 1), stride=(1, 1))
              (1): LeakyReLU(negative_slope=0.2)
              (2): Conv2d(4, 64, kernel_size=(1, 1), stride=(1, 1))
              (3): Sigmoid()
            )
            (avg): AdaptiveAvgPool2d(output_size=1)
          )
        )
      )
      (30): CRB_Layer(
        (body): Sequential(
          (0): Conv2d(74, 74, kernel_size=(3, 3), stride=(1, 1), padding=(1, 1))
          (1): LeakyReLU(negative_slope=0.2, inplace=True)
          (2): Conv2d(74, 64, kernel_size=(3, 3), stride=(1, 1), padding=(1, 1))
          (3): CALayer(
            (body): Sequential(
              (0): Conv2d(64, 4, kernel_size=(1, 1), stride=(1, 1))
              (1): LeakyReLU(negative_slope=0.2)
              (2): Conv2d(4, 64, kernel_size=(1, 1), stride=(1, 1))
              (3): Sigmoid()
            )
            (avg): AdaptiveAvgPool2d(output_size=1)
          )
        )
      )
      (31): CRB_Layer(
        (body): Sequential(
          (0): Conv2d(74, 74, kernel_size=(3, 3), stride=(1, 1), padding=(1, 1))
          (1): LeakyReLU(negative_slope=0.2, inplace=True)
          (2): Conv2d(74, 64, kernel_size=(3, 3), stride=(1, 1), padding=(1, 1))
          (3): CALayer(
            (body): Sequential(
              (0): Conv2d(64, 4, kernel_size=(1, 1), stride=(1, 1))
              (1): LeakyReLU(negative_slope=0.2)
              (2): Conv2d(4, 64, kernel_size=(1, 1), stride=(1, 1))
              (3): Sigmoid()
            )
            (avg): AdaptiveAvgPool2d(output_size=1)
          )
        )
      )
      (32): CRB_Layer(
        (body): Sequential(
          (0): Conv2d(74, 74, kernel_size=(3, 3), stride=(1, 1), padding=(1, 1))
          (1): LeakyReLU(negative_slope=0.2, inplace=True)
          (2): Conv2d(74, 64, kernel_size=(3, 3), stride=(1, 1), padding=(1, 1))
          (3): CALayer(
            (body): Sequential(
              (0): Conv2d(64, 4, kernel_size=(1, 1), stride=(1, 1))
              (1): LeakyReLU(negative_slope=0.2)
              (2): Conv2d(4, 64, kernel_size=(1, 1), stride=(1, 1))
              (3): Sigmoid()
            )
            (avg): AdaptiveAvgPool2d(output_size=1)
          )
        )
      )
      (33): CRB_Layer(
        (body): Sequential(
          (0): Conv2d(74, 74, kernel_size=(3, 3), stride=(1, 1), padding=(1, 1))
          (1): LeakyReLU(negative_slope=0.2, inplace=True)
          (2): Conv2d(74, 64, kernel_size=(3, 3), stride=(1, 1), padding=(1, 1))
          (3): CALayer(
            (body): Sequential(
              (0): Conv2d(64, 4, kernel_size=(1, 1), stride=(1, 1))
              (1): LeakyReLU(negative_slope=0.2)
              (2): Conv2d(4, 64, kernel_size=(1, 1), stride=(1, 1))
              (3): Sigmoid()
            )
            (avg): AdaptiveAvgPool2d(output_size=1)
          )
        )
      )
      (34): CRB_Layer(
        (body): Sequential(
          (0): Conv2d(74, 74, kernel_size=(3, 3), stride=(1, 1), padding=(1, 1))
          (1): LeakyReLU(negative_slope=0.2, inplace=True)
          (2): Conv2d(74, 64, kernel_size=(3, 3), stride=(1, 1), padding=(1, 1))
          (3): CALayer(
            (body): Sequential(
              (0): Conv2d(64, 4, kernel_size=(1, 1), stride=(1, 1))
              (1): LeakyReLU(negative_slope=0.2)
              (2): Conv2d(4, 64, kernel_size=(1, 1), stride=(1, 1))
              (3): Sigmoid()
            )
            (avg): AdaptiveAvgPool2d(output_size=1)
          )
        )
      )
      (35): CRB_Layer(
        (body): Sequential(
          (0): Conv2d(74, 74, kernel_size=(3, 3), stride=(1, 1), padding=(1, 1))
          (1): LeakyReLU(negative_slope=0.2, inplace=True)
          (2): Conv2d(74, 64, kernel_size=(3, 3), stride=(1, 1), padding=(1, 1))
          (3): CALayer(
            (body): Sequential(
              (0): Conv2d(64, 4, kernel_size=(1, 1), stride=(1, 1))
              (1): LeakyReLU(negative_slope=0.2)
              (2): Conv2d(4, 64, kernel_size=(1, 1), stride=(1, 1))
              (3): Sigmoid()
            )
            (avg): AdaptiveAvgPool2d(output_size=1)
          )
        )
      )
      (36): CRB_Layer(
        (body): Sequential(
          (0): Conv2d(74, 74, kernel_size=(3, 3), stride=(1, 1), padding=(1, 1))
          (1): LeakyReLU(negative_slope=0.2, inplace=True)
          (2): Conv2d(74, 64, kernel_size=(3, 3), stride=(1, 1), padding=(1, 1))
          (3): CALayer(
            (body): Sequential(
              (0): Conv2d(64, 4, kernel_size=(1, 1), stride=(1, 1))
              (1): LeakyReLU(negative_slope=0.2)
              (2): Conv2d(4, 64, kernel_size=(1, 1), stride=(1, 1))
              (3): Sigmoid()
            )
            (avg): AdaptiveAvgPool2d(output_size=1)
          )
        )
      )
      (37): CRB_Layer(
        (body): Sequential(
          (0): Conv2d(74, 74, kernel_size=(3, 3), stride=(1, 1), padding=(1, 1))
          (1): LeakyReLU(negative_slope=0.2, inplace=True)
          (2): Conv2d(74, 64, kernel_size=(3, 3), stride=(1, 1), padding=(1, 1))
          (3): CALayer(
            (body): Sequential(
              (0): Conv2d(64, 4, kernel_size=(1, 1), stride=(1, 1))
              (1): LeakyReLU(negative_slope=0.2)
              (2): Conv2d(4, 64, kernel_size=(1, 1), stride=(1, 1))
              (3): Sigmoid()
            )
            (avg): AdaptiveAvgPool2d(output_size=1)
          )
        )
      )
      (38): CRB_Layer(
        (body): Sequential(
          (0): Conv2d(74, 74, kernel_size=(3, 3), stride=(1, 1), padding=(1, 1))
          (1): LeakyReLU(negative_slope=0.2, inplace=True)
          (2): Conv2d(74, 64, kernel_size=(3, 3), stride=(1, 1), padding=(1, 1))
          (3): CALayer(
            (body): Sequential(
              (0): Conv2d(64, 4, kernel_size=(1, 1), stride=(1, 1))
              (1): LeakyReLU(negative_slope=0.2)
              (2): Conv2d(4, 64, kernel_size=(1, 1), stride=(1, 1))
              (3): Sigmoid()
            )
            (avg): AdaptiveAvgPool2d(output_size=1)
          )
        )
      )
      (39): CRB_Layer(
        (body): Sequential(
          (0): Conv2d(74, 74, kernel_size=(3, 3), stride=(1, 1), padding=(1, 1))
          (1): LeakyReLU(negative_slope=0.2, inplace=True)
          (2): Conv2d(74, 64, kernel_size=(3, 3), stride=(1, 1), padding=(1, 1))
          (3): CALayer(
            (body): Sequential(
              (0): Conv2d(64, 4, kernel_size=(1, 1), stride=(1, 1))
              (1): LeakyReLU(negative_slope=0.2)
              (2): Conv2d(4, 64, kernel_size=(1, 1), stride=(1, 1))
              (3): Sigmoid()
            )
            (avg): AdaptiveAvgPool2d(output_size=1)
          )
        )
      )
    )
    (fusion): Conv2d(64, 64, kernel_size=(3, 3), stride=(1, 1), padding=(1, 1))
    (upscale): Sequential(
      (0): Conv2d(64, 256, kernel_size=(3, 3), stride=(1, 1), padding=(1, 1))
      (1): PixelShuffle(upscale_factor=2)
      (2): Conv2d(64, 3, kernel_size=(3, 3), stride=(1, 1), padding=(1, 1))
    )
  )
  (Estimator): Estimator(
    (head_LR): Conv2d(3, 32, kernel_size=(1, 1), stride=(1, 1))
    (head_HR): Conv2d(3, 32, kernel_size=(9, 9), stride=(2, 2), padding=(4, 4))
    (body): Sequential(
      (0): CRB_Layer(
        (body): Sequential(
          (0): Conv2d(64, 64, kernel_size=(3, 3), stride=(1, 1), padding=(1, 1))
          (1): LeakyReLU(negative_slope=0.2, inplace=True)
          (2): Conv2d(64, 32, kernel_size=(3, 3), stride=(1, 1), padding=(1, 1))
          (3): CALayer(
            (body): Sequential(
              (0): Conv2d(32, 2, kernel_size=(1, 1), stride=(1, 1))
              (1): LeakyReLU(negative_slope=0.2)
              (2): Conv2d(2, 32, kernel_size=(1, 1), stride=(1, 1))
              (3): Sigmoid()
            )
            (avg): AdaptiveAvgPool2d(output_size=1)
          )
        )
      )
      (1): CRB_Layer(
        (body): Sequential(
          (0): Conv2d(64, 64, kernel_size=(3, 3), stride=(1, 1), padding=(1, 1))
          (1): LeakyReLU(negative_slope=0.2, inplace=True)
          (2): Conv2d(64, 32, kernel_size=(3, 3), stride=(1, 1), padding=(1, 1))
          (3): CALayer(
            (body): Sequential(
              (0): Conv2d(32, 2, kernel_size=(1, 1), stride=(1, 1))
              (1): LeakyReLU(negative_slope=0.2)
              (2): Conv2d(2, 32, kernel_size=(1, 1), stride=(1, 1))
              (3): Sigmoid()
            )
            (avg): AdaptiveAvgPool2d(output_size=1)
          )
        )
      )
      (2): CRB_Layer(
        (body): Sequential(
          (0): Conv2d(64, 64, kernel_size=(3, 3), stride=(1, 1), padding=(1, 1))
          (1): LeakyReLU(negative_slope=0.2, inplace=True)
          (2): Conv2d(64, 32, kernel_size=(3, 3), stride=(1, 1), padding=(1, 1))
          (3): CALayer(
            (body): Sequential(
              (0): Conv2d(32, 2, kernel_size=(1, 1), stride=(1, 1))
              (1): LeakyReLU(negative_slope=0.2)
              (2): Conv2d(2, 32, kernel_size=(1, 1), stride=(1, 1))
              (3): Sigmoid()
            )
            (avg): AdaptiveAvgPool2d(output_size=1)
          )
        )
      )
      (3): CRB_Layer(
        (body): Sequential(
          (0): Conv2d(64, 64, kernel_size=(3, 3), stride=(1, 1), padding=(1, 1))
          (1): LeakyReLU(negative_slope=0.2, inplace=True)
          (2): Conv2d(64, 32, kernel_size=(3, 3), stride=(1, 1), padding=(1, 1))
          (3): CALayer(
            (body): Sequential(
              (0): Conv2d(32, 2, kernel_size=(1, 1), stride=(1, 1))
              (1): LeakyReLU(negative_slope=0.2)
              (2): Conv2d(2, 32, kernel_size=(1, 1), stride=(1, 1))
              (3): Sigmoid()
            )
            (avg): AdaptiveAvgPool2d(output_size=1)
          )
        )
      )
      (4): CRB_Layer(
        (body): Sequential(
          (0): Conv2d(64, 64, kernel_size=(3, 3), stride=(1, 1), padding=(1, 1))
          (1): LeakyReLU(negative_slope=0.2, inplace=True)
          (2): Conv2d(64, 32, kernel_size=(3, 3), stride=(1, 1), padding=(1, 1))
          (3): CALayer(
            (body): Sequential(
              (0): Conv2d(32, 2, kernel_size=(1, 1), stride=(1, 1))
              (1): LeakyReLU(negative_slope=0.2)
              (2): Conv2d(2, 32, kernel_size=(1, 1), stride=(1, 1))
              (3): Sigmoid()
            )
            (avg): AdaptiveAvgPool2d(output_size=1)
          )
        )
      )
    )
    (out): Conv2d(32, 10, kernel_size=(3, 3), stride=(1, 1), padding=(1, 1))
    (globalPooling): AdaptiveAvgPool2d(output_size=(1, 1))
  )
)
21-07-21 13:43:14.898 - INFO: Model [B_Model] is created.
21-07-21 13:44:04.762 - INFO: Path already exists. Rename it to [/content/DAN/experiments/DANv1/DANx2_setting1_archived_210721-134404]
21-07-21 13:44:04.825 - INFO: Dataset [GTDataset - DIV2K] is created.
21-07-21 13:44:04.828 - INFO: Dataset [LQGTDataset - DIV2KRK] is created.
21-07-21 13:44:05.120 - INFO: Network G structure: DataParallel - DAN, with parameters: 4,181,799
21-07-21 13:44:05.120 - INFO: DAN(
  (Restorer): Restorer(
    (head): Conv2d(3, 64, kernel_size=(3, 3), stride=(1, 1), padding=(1, 1))
    (body): Sequential(
      (0): CRB_Layer(
        (body): Sequential(
          (0): Conv2d(74, 74, kernel_size=(3, 3), stride=(1, 1), padding=(1, 1))
          (1): LeakyReLU(negative_slope=0.2, inplace=True)
          (2): Conv2d(74, 64, kernel_size=(3, 3), stride=(1, 1), padding=(1, 1))
          (3): CALayer(
            (body): Sequential(
              (0): Conv2d(64, 4, kernel_size=(1, 1), stride=(1, 1))
              (1): LeakyReLU(negative_slope=0.2)
              (2): Conv2d(4, 64, kernel_size=(1, 1), stride=(1, 1))
              (3): Sigmoid()
            )
            (avg): AdaptiveAvgPool2d(output_size=1)
          )
        )
      )
      (1): CRB_Layer(
        (body): Sequential(
          (0): Conv2d(74, 74, kernel_size=(3, 3), stride=(1, 1), padding=(1, 1))
          (1): LeakyReLU(negative_slope=0.2, inplace=True)
          (2): Conv2d(74, 64, kernel_size=(3, 3), stride=(1, 1), padding=(1, 1))
          (3): CALayer(
            (body): Sequential(
              (0): Conv2d(64, 4, kernel_size=(1, 1), stride=(1, 1))
              (1): LeakyReLU(negative_slope=0.2)
              (2): Conv2d(4, 64, kernel_size=(1, 1), stride=(1, 1))
              (3): Sigmoid()
            )
            (avg): AdaptiveAvgPool2d(output_size=1)
          )
        )
      )
      (2): CRB_Layer(
        (body): Sequential(
          (0): Conv2d(74, 74, kernel_size=(3, 3), stride=(1, 1), padding=(1, 1))
          (1): LeakyReLU(negative_slope=0.2, inplace=True)
          (2): Conv2d(74, 64, kernel_size=(3, 3), stride=(1, 1), padding=(1, 1))
          (3): CALayer(
            (body): Sequential(
              (0): Conv2d(64, 4, kernel_size=(1, 1), stride=(1, 1))
              (1): LeakyReLU(negative_slope=0.2)
              (2): Conv2d(4, 64, kernel_size=(1, 1), stride=(1, 1))
              (3): Sigmoid()
            )
            (avg): AdaptiveAvgPool2d(output_size=1)
          )
        )
      )
      (3): CRB_Layer(
        (body): Sequential(
          (0): Conv2d(74, 74, kernel_size=(3, 3), stride=(1, 1), padding=(1, 1))
          (1): LeakyReLU(negative_slope=0.2, inplace=True)
          (2): Conv2d(74, 64, kernel_size=(3, 3), stride=(1, 1), padding=(1, 1))
          (3): CALayer(
            (body): Sequential(
              (0): Conv2d(64, 4, kernel_size=(1, 1), stride=(1, 1))
              (1): LeakyReLU(negative_slope=0.2)
              (2): Conv2d(4, 64, kernel_size=(1, 1), stride=(1, 1))
              (3): Sigmoid()
            )
            (avg): AdaptiveAvgPool2d(output_size=1)
          )
        )
      )
      (4): CRB_Layer(
        (body): Sequential(
          (0): Conv2d(74, 74, kernel_size=(3, 3), stride=(1, 1), padding=(1, 1))
          (1): LeakyReLU(negative_slope=0.2, inplace=True)
          (2): Conv2d(74, 64, kernel_size=(3, 3), stride=(1, 1), padding=(1, 1))
          (3): CALayer(
            (body): Sequential(
              (0): Conv2d(64, 4, kernel_size=(1, 1), stride=(1, 1))
              (1): LeakyReLU(negative_slope=0.2)
              (2): Conv2d(4, 64, kernel_size=(1, 1), stride=(1, 1))
              (3): Sigmoid()
            )
            (avg): AdaptiveAvgPool2d(output_size=1)
          )
        )
      )
      (5): CRB_Layer(
        (body): Sequential(
          (0): Conv2d(74, 74, kernel_size=(3, 3), stride=(1, 1), padding=(1, 1))
          (1): LeakyReLU(negative_slope=0.2, inplace=True)
          (2): Conv2d(74, 64, kernel_size=(3, 3), stride=(1, 1), padding=(1, 1))
          (3): CALayer(
            (body): Sequential(
              (0): Conv2d(64, 4, kernel_size=(1, 1), stride=(1, 1))
              (1): LeakyReLU(negative_slope=0.2)
              (2): Conv2d(4, 64, kernel_size=(1, 1), stride=(1, 1))
              (3): Sigmoid()
            )
            (avg): AdaptiveAvgPool2d(output_size=1)
          )
        )
      )
      (6): CRB_Layer(
        (body): Sequential(
          (0): Conv2d(74, 74, kernel_size=(3, 3), stride=(1, 1), padding=(1, 1))
          (1): LeakyReLU(negative_slope=0.2, inplace=True)
          (2): Conv2d(74, 64, kernel_size=(3, 3), stride=(1, 1), padding=(1, 1))
          (3): CALayer(
            (body): Sequential(
              (0): Conv2d(64, 4, kernel_size=(1, 1), stride=(1, 1))
              (1): LeakyReLU(negative_slope=0.2)
              (2): Conv2d(4, 64, kernel_size=(1, 1), stride=(1, 1))
              (3): Sigmoid()
            )
            (avg): AdaptiveAvgPool2d(output_size=1)
          )
        )
      )
      (7): CRB_Layer(
        (body): Sequential(
          (0): Conv2d(74, 74, kernel_size=(3, 3), stride=(1, 1), padding=(1, 1))
          (1): LeakyReLU(negative_slope=0.2, inplace=True)
          (2): Conv2d(74, 64, kernel_size=(3, 3), stride=(1, 1), padding=(1, 1))
          (3): CALayer(
            (body): Sequential(
              (0): Conv2d(64, 4, kernel_size=(1, 1), stride=(1, 1))
              (1): LeakyReLU(negative_slope=0.2)
              (2): Conv2d(4, 64, kernel_size=(1, 1), stride=(1, 1))
              (3): Sigmoid()
            )
            (avg): AdaptiveAvgPool2d(output_size=1)
          )
        )
      )
      (8): CRB_Layer(
        (body): Sequential(
          (0): Conv2d(74, 74, kernel_size=(3, 3), stride=(1, 1), padding=(1, 1))
          (1): LeakyReLU(negative_slope=0.2, inplace=True)
          (2): Conv2d(74, 64, kernel_size=(3, 3), stride=(1, 1), padding=(1, 1))
          (3): CALayer(
            (body): Sequential(
              (0): Conv2d(64, 4, kernel_size=(1, 1), stride=(1, 1))
              (1): LeakyReLU(negative_slope=0.2)
              (2): Conv2d(4, 64, kernel_size=(1, 1), stride=(1, 1))
              (3): Sigmoid()
            )
            (avg): AdaptiveAvgPool2d(output_size=1)
          )
        )
      )
      (9): CRB_Layer(
        (body): Sequential(
          (0): Conv2d(74, 74, kernel_size=(3, 3), stride=(1, 1), padding=(1, 1))
          (1): LeakyReLU(negative_slope=0.2, inplace=True)
          (2): Conv2d(74, 64, kernel_size=(3, 3), stride=(1, 1), padding=(1, 1))
          (3): CALayer(
            (body): Sequential(
              (0): Conv2d(64, 4, kernel_size=(1, 1), stride=(1, 1))
              (1): LeakyReLU(negative_slope=0.2)
              (2): Conv2d(4, 64, kernel_size=(1, 1), stride=(1, 1))
              (3): Sigmoid()
            )
            (avg): AdaptiveAvgPool2d(output_size=1)
          )
        )
      )
      (10): CRB_Layer(
        (body): Sequential(
          (0): Conv2d(74, 74, kernel_size=(3, 3), stride=(1, 1), padding=(1, 1))
          (1): LeakyReLU(negative_slope=0.2, inplace=True)
          (2): Conv2d(74, 64, kernel_size=(3, 3), stride=(1, 1), padding=(1, 1))
          (3): CALayer(
            (body): Sequential(
              (0): Conv2d(64, 4, kernel_size=(1, 1), stride=(1, 1))
              (1): LeakyReLU(negative_slope=0.2)
              (2): Conv2d(4, 64, kernel_size=(1, 1), stride=(1, 1))
              (3): Sigmoid()
            )
            (avg): AdaptiveAvgPool2d(output_size=1)
          )
        )
      )
      (11): CRB_Layer(
        (body): Sequential(
          (0): Conv2d(74, 74, kernel_size=(3, 3), stride=(1, 1), padding=(1, 1))
          (1): LeakyReLU(negative_slope=0.2, inplace=True)
          (2): Conv2d(74, 64, kernel_size=(3, 3), stride=(1, 1), padding=(1, 1))
          (3): CALayer(
            (body): Sequential(
              (0): Conv2d(64, 4, kernel_size=(1, 1), stride=(1, 1))
              (1): LeakyReLU(negative_slope=0.2)
              (2): Conv2d(4, 64, kernel_size=(1, 1), stride=(1, 1))
              (3): Sigmoid()
            )
            (avg): AdaptiveAvgPool2d(output_size=1)
          )
        )
      )
      (12): CRB_Layer(
        (body): Sequential(
          (0): Conv2d(74, 74, kernel_size=(3, 3), stride=(1, 1), padding=(1, 1))
          (1): LeakyReLU(negative_slope=0.2, inplace=True)
          (2): Conv2d(74, 64, kernel_size=(3, 3), stride=(1, 1), padding=(1, 1))
          (3): CALayer(
            (body): Sequential(
              (0): Conv2d(64, 4, kernel_size=(1, 1), stride=(1, 1))
              (1): LeakyReLU(negative_slope=0.2)
              (2): Conv2d(4, 64, kernel_size=(1, 1), stride=(1, 1))
              (3): Sigmoid()
            )
            (avg): AdaptiveAvgPool2d(output_size=1)
          )
        )
      )
      (13): CRB_Layer(
        (body): Sequential(
          (0): Conv2d(74, 74, kernel_size=(3, 3), stride=(1, 1), padding=(1, 1))
          (1): LeakyReLU(negative_slope=0.2, inplace=True)
          (2): Conv2d(74, 64, kernel_size=(3, 3), stride=(1, 1), padding=(1, 1))
          (3): CALayer(
            (body): Sequential(
              (0): Conv2d(64, 4, kernel_size=(1, 1), stride=(1, 1))
              (1): LeakyReLU(negative_slope=0.2)
              (2): Conv2d(4, 64, kernel_size=(1, 1), stride=(1, 1))
              (3): Sigmoid()
            )
            (avg): AdaptiveAvgPool2d(output_size=1)
          )
        )
      )
      (14): CRB_Layer(
        (body): Sequential(
          (0): Conv2d(74, 74, kernel_size=(3, 3), stride=(1, 1), padding=(1, 1))
          (1): LeakyReLU(negative_slope=0.2, inplace=True)
          (2): Conv2d(74, 64, kernel_size=(3, 3), stride=(1, 1), padding=(1, 1))
          (3): CALayer(
            (body): Sequential(
              (0): Conv2d(64, 4, kernel_size=(1, 1), stride=(1, 1))
              (1): LeakyReLU(negative_slope=0.2)
              (2): Conv2d(4, 64, kernel_size=(1, 1), stride=(1, 1))
              (3): Sigmoid()
            )
            (avg): AdaptiveAvgPool2d(output_size=1)
          )
        )
      )
      (15): CRB_Layer(
        (body): Sequential(
          (0): Conv2d(74, 74, kernel_size=(3, 3), stride=(1, 1), padding=(1, 1))
          (1): LeakyReLU(negative_slope=0.2, inplace=True)
          (2): Conv2d(74, 64, kernel_size=(3, 3), stride=(1, 1), padding=(1, 1))
          (3): CALayer(
            (body): Sequential(
              (0): Conv2d(64, 4, kernel_size=(1, 1), stride=(1, 1))
              (1): LeakyReLU(negative_slope=0.2)
              (2): Conv2d(4, 64, kernel_size=(1, 1), stride=(1, 1))
              (3): Sigmoid()
            )
            (avg): AdaptiveAvgPool2d(output_size=1)
          )
        )
      )
      (16): CRB_Layer(
        (body): Sequential(
          (0): Conv2d(74, 74, kernel_size=(3, 3), stride=(1, 1), padding=(1, 1))
          (1): LeakyReLU(negative_slope=0.2, inplace=True)
          (2): Conv2d(74, 64, kernel_size=(3, 3), stride=(1, 1), padding=(1, 1))
          (3): CALayer(
            (body): Sequential(
              (0): Conv2d(64, 4, kernel_size=(1, 1), stride=(1, 1))
              (1): LeakyReLU(negative_slope=0.2)
              (2): Conv2d(4, 64, kernel_size=(1, 1), stride=(1, 1))
              (3): Sigmoid()
            )
            (avg): AdaptiveAvgPool2d(output_size=1)
          )
        )
      )
      (17): CRB_Layer(
        (body): Sequential(
          (0): Conv2d(74, 74, kernel_size=(3, 3), stride=(1, 1), padding=(1, 1))
          (1): LeakyReLU(negative_slope=0.2, inplace=True)
          (2): Conv2d(74, 64, kernel_size=(3, 3), stride=(1, 1), padding=(1, 1))
          (3): CALayer(
            (body): Sequential(
              (0): Conv2d(64, 4, kernel_size=(1, 1), stride=(1, 1))
              (1): LeakyReLU(negative_slope=0.2)
              (2): Conv2d(4, 64, kernel_size=(1, 1), stride=(1, 1))
              (3): Sigmoid()
            )
            (avg): AdaptiveAvgPool2d(output_size=1)
          )
        )
      )
      (18): CRB_Layer(
        (body): Sequential(
          (0): Conv2d(74, 74, kernel_size=(3, 3), stride=(1, 1), padding=(1, 1))
          (1): LeakyReLU(negative_slope=0.2, inplace=True)
          (2): Conv2d(74, 64, kernel_size=(3, 3), stride=(1, 1), padding=(1, 1))
          (3): CALayer(
            (body): Sequential(
              (0): Conv2d(64, 4, kernel_size=(1, 1), stride=(1, 1))
              (1): LeakyReLU(negative_slope=0.2)
              (2): Conv2d(4, 64, kernel_size=(1, 1), stride=(1, 1))
              (3): Sigmoid()
            )
            (avg): AdaptiveAvgPool2d(output_size=1)
          )
        )
      )
      (19): CRB_Layer(
        (body): Sequential(
          (0): Conv2d(74, 74, kernel_size=(3, 3), stride=(1, 1), padding=(1, 1))
          (1): LeakyReLU(negative_slope=0.2, inplace=True)
          (2): Conv2d(74, 64, kernel_size=(3, 3), stride=(1, 1), padding=(1, 1))
          (3): CALayer(
            (body): Sequential(
              (0): Conv2d(64, 4, kernel_size=(1, 1), stride=(1, 1))
              (1): LeakyReLU(negative_slope=0.2)
              (2): Conv2d(4, 64, kernel_size=(1, 1), stride=(1, 1))
              (3): Sigmoid()
            )
            (avg): AdaptiveAvgPool2d(output_size=1)
          )
        )
      )
      (20): CRB_Layer(
        (body): Sequential(
          (0): Conv2d(74, 74, kernel_size=(3, 3), stride=(1, 1), padding=(1, 1))
          (1): LeakyReLU(negative_slope=0.2, inplace=True)
          (2): Conv2d(74, 64, kernel_size=(3, 3), stride=(1, 1), padding=(1, 1))
          (3): CALayer(
            (body): Sequential(
              (0): Conv2d(64, 4, kernel_size=(1, 1), stride=(1, 1))
              (1): LeakyReLU(negative_slope=0.2)
              (2): Conv2d(4, 64, kernel_size=(1, 1), stride=(1, 1))
              (3): Sigmoid()
            )
            (avg): AdaptiveAvgPool2d(output_size=1)
          )
        )
      )
      (21): CRB_Layer(
        (body): Sequential(
          (0): Conv2d(74, 74, kernel_size=(3, 3), stride=(1, 1), padding=(1, 1))
          (1): LeakyReLU(negative_slope=0.2, inplace=True)
          (2): Conv2d(74, 64, kernel_size=(3, 3), stride=(1, 1), padding=(1, 1))
          (3): CALayer(
            (body): Sequential(
              (0): Conv2d(64, 4, kernel_size=(1, 1), stride=(1, 1))
              (1): LeakyReLU(negative_slope=0.2)
              (2): Conv2d(4, 64, kernel_size=(1, 1), stride=(1, 1))
              (3): Sigmoid()
            )
            (avg): AdaptiveAvgPool2d(output_size=1)
          )
        )
      )
      (22): CRB_Layer(
        (body): Sequential(
          (0): Conv2d(74, 74, kernel_size=(3, 3), stride=(1, 1), padding=(1, 1))
          (1): LeakyReLU(negative_slope=0.2, inplace=True)
          (2): Conv2d(74, 64, kernel_size=(3, 3), stride=(1, 1), padding=(1, 1))
          (3): CALayer(
            (body): Sequential(
              (0): Conv2d(64, 4, kernel_size=(1, 1), stride=(1, 1))
              (1): LeakyReLU(negative_slope=0.2)
              (2): Conv2d(4, 64, kernel_size=(1, 1), stride=(1, 1))
              (3): Sigmoid()
            )
            (avg): AdaptiveAvgPool2d(output_size=1)
          )
        )
      )
      (23): CRB_Layer(
        (body): Sequential(
          (0): Conv2d(74, 74, kernel_size=(3, 3), stride=(1, 1), padding=(1, 1))
          (1): LeakyReLU(negative_slope=0.2, inplace=True)
          (2): Conv2d(74, 64, kernel_size=(3, 3), stride=(1, 1), padding=(1, 1))
          (3): CALayer(
            (body): Sequential(
              (0): Conv2d(64, 4, kernel_size=(1, 1), stride=(1, 1))
              (1): LeakyReLU(negative_slope=0.2)
              (2): Conv2d(4, 64, kernel_size=(1, 1), stride=(1, 1))
              (3): Sigmoid()
            )
            (avg): AdaptiveAvgPool2d(output_size=1)
          )
        )
      )
      (24): CRB_Layer(
        (body): Sequential(
          (0): Conv2d(74, 74, kernel_size=(3, 3), stride=(1, 1), padding=(1, 1))
          (1): LeakyReLU(negative_slope=0.2, inplace=True)
          (2): Conv2d(74, 64, kernel_size=(3, 3), stride=(1, 1), padding=(1, 1))
          (3): CALayer(
            (body): Sequential(
              (0): Conv2d(64, 4, kernel_size=(1, 1), stride=(1, 1))
              (1): LeakyReLU(negative_slope=0.2)
              (2): Conv2d(4, 64, kernel_size=(1, 1), stride=(1, 1))
              (3): Sigmoid()
            )
            (avg): AdaptiveAvgPool2d(output_size=1)
          )
        )
      )
      (25): CRB_Layer(
        (body): Sequential(
          (0): Conv2d(74, 74, kernel_size=(3, 3), stride=(1, 1), padding=(1, 1))
          (1): LeakyReLU(negative_slope=0.2, inplace=True)
          (2): Conv2d(74, 64, kernel_size=(3, 3), stride=(1, 1), padding=(1, 1))
          (3): CALayer(
            (body): Sequential(
              (0): Conv2d(64, 4, kernel_size=(1, 1), stride=(1, 1))
              (1): LeakyReLU(negative_slope=0.2)
              (2): Conv2d(4, 64, kernel_size=(1, 1), stride=(1, 1))
              (3): Sigmoid()
            )
            (avg): AdaptiveAvgPool2d(output_size=1)
          )
        )
      )
      (26): CRB_Layer(
        (body): Sequential(
          (0): Conv2d(74, 74, kernel_size=(3, 3), stride=(1, 1), padding=(1, 1))
          (1): LeakyReLU(negative_slope=0.2, inplace=True)
          (2): Conv2d(74, 64, kernel_size=(3, 3), stride=(1, 1), padding=(1, 1))
          (3): CALayer(
            (body): Sequential(
              (0): Conv2d(64, 4, kernel_size=(1, 1), stride=(1, 1))
              (1): LeakyReLU(negative_slope=0.2)
              (2): Conv2d(4, 64, kernel_size=(1, 1), stride=(1, 1))
              (3): Sigmoid()
            )
            (avg): AdaptiveAvgPool2d(output_size=1)
          )
        )
      )
      (27): CRB_Layer(
        (body): Sequential(
          (0): Conv2d(74, 74, kernel_size=(3, 3), stride=(1, 1), padding=(1, 1))
          (1): LeakyReLU(negative_slope=0.2, inplace=True)
          (2): Conv2d(74, 64, kernel_size=(3, 3), stride=(1, 1), padding=(1, 1))
          (3): CALayer(
            (body): Sequential(
              (0): Conv2d(64, 4, kernel_size=(1, 1), stride=(1, 1))
              (1): LeakyReLU(negative_slope=0.2)
              (2): Conv2d(4, 64, kernel_size=(1, 1), stride=(1, 1))
              (3): Sigmoid()
            )
            (avg): AdaptiveAvgPool2d(output_size=1)
          )
        )
      )
      (28): CRB_Layer(
        (body): Sequential(
          (0): Conv2d(74, 74, kernel_size=(3, 3), stride=(1, 1), padding=(1, 1))
          (1): LeakyReLU(negative_slope=0.2, inplace=True)
          (2): Conv2d(74, 64, kernel_size=(3, 3), stride=(1, 1), padding=(1, 1))
          (3): CALayer(
            (body): Sequential(
              (0): Conv2d(64, 4, kernel_size=(1, 1), stride=(1, 1))
              (1): LeakyReLU(negative_slope=0.2)
              (2): Conv2d(4, 64, kernel_size=(1, 1), stride=(1, 1))
              (3): Sigmoid()
            )
            (avg): AdaptiveAvgPool2d(output_size=1)
          )
        )
      )
      (29): CRB_Layer(
        (body): Sequential(
          (0): Conv2d(74, 74, kernel_size=(3, 3), stride=(1, 1), padding=(1, 1))
          (1): LeakyReLU(negative_slope=0.2, inplace=True)
          (2): Conv2d(74, 64, kernel_size=(3, 3), stride=(1, 1), padding=(1, 1))
          (3): CALayer(
            (body): Sequential(
              (0): Conv2d(64, 4, kernel_size=(1, 1), stride=(1, 1))
              (1): LeakyReLU(negative_slope=0.2)
              (2): Conv2d(4, 64, kernel_size=(1, 1), stride=(1, 1))
              (3): Sigmoid()
            )
            (avg): AdaptiveAvgPool2d(output_size=1)
          )
        )
      )
      (30): CRB_Layer(
        (body): Sequential(
          (0): Conv2d(74, 74, kernel_size=(3, 3), stride=(1, 1), padding=(1, 1))
          (1): LeakyReLU(negative_slope=0.2, inplace=True)
          (2): Conv2d(74, 64, kernel_size=(3, 3), stride=(1, 1), padding=(1, 1))
          (3): CALayer(
            (body): Sequential(
              (0): Conv2d(64, 4, kernel_size=(1, 1), stride=(1, 1))
              (1): LeakyReLU(negative_slope=0.2)
              (2): Conv2d(4, 64, kernel_size=(1, 1), stride=(1, 1))
              (3): Sigmoid()
            )
            (avg): AdaptiveAvgPool2d(output_size=1)
          )
        )
      )
      (31): CRB_Layer(
        (body): Sequential(
          (0): Conv2d(74, 74, kernel_size=(3, 3), stride=(1, 1), padding=(1, 1))
          (1): LeakyReLU(negative_slope=0.2, inplace=True)
          (2): Conv2d(74, 64, kernel_size=(3, 3), stride=(1, 1), padding=(1, 1))
          (3): CALayer(
            (body): Sequential(
              (0): Conv2d(64, 4, kernel_size=(1, 1), stride=(1, 1))
              (1): LeakyReLU(negative_slope=0.2)
              (2): Conv2d(4, 64, kernel_size=(1, 1), stride=(1, 1))
              (3): Sigmoid()
            )
            (avg): AdaptiveAvgPool2d(output_size=1)
          )
        )
      )
      (32): CRB_Layer(
        (body): Sequential(
          (0): Conv2d(74, 74, kernel_size=(3, 3), stride=(1, 1), padding=(1, 1))
          (1): LeakyReLU(negative_slope=0.2, inplace=True)
          (2): Conv2d(74, 64, kernel_size=(3, 3), stride=(1, 1), padding=(1, 1))
          (3): CALayer(
            (body): Sequential(
              (0): Conv2d(64, 4, kernel_size=(1, 1), stride=(1, 1))
              (1): LeakyReLU(negative_slope=0.2)
              (2): Conv2d(4, 64, kernel_size=(1, 1), stride=(1, 1))
              (3): Sigmoid()
            )
            (avg): AdaptiveAvgPool2d(output_size=1)
          )
        )
      )
      (33): CRB_Layer(
        (body): Sequential(
          (0): Conv2d(74, 74, kernel_size=(3, 3), stride=(1, 1), padding=(1, 1))
          (1): LeakyReLU(negative_slope=0.2, inplace=True)
          (2): Conv2d(74, 64, kernel_size=(3, 3), stride=(1, 1), padding=(1, 1))
          (3): CALayer(
            (body): Sequential(
              (0): Conv2d(64, 4, kernel_size=(1, 1), stride=(1, 1))
              (1): LeakyReLU(negative_slope=0.2)
              (2): Conv2d(4, 64, kernel_size=(1, 1), stride=(1, 1))
              (3): Sigmoid()
            )
            (avg): AdaptiveAvgPool2d(output_size=1)
          )
        )
      )
      (34): CRB_Layer(
        (body): Sequential(
          (0): Conv2d(74, 74, kernel_size=(3, 3), stride=(1, 1), padding=(1, 1))
          (1): LeakyReLU(negative_slope=0.2, inplace=True)
          (2): Conv2d(74, 64, kernel_size=(3, 3), stride=(1, 1), padding=(1, 1))
          (3): CALayer(
            (body): Sequential(
              (0): Conv2d(64, 4, kernel_size=(1, 1), stride=(1, 1))
              (1): LeakyReLU(negative_slope=0.2)
              (2): Conv2d(4, 64, kernel_size=(1, 1), stride=(1, 1))
              (3): Sigmoid()
            )
            (avg): AdaptiveAvgPool2d(output_size=1)
          )
        )
      )
      (35): CRB_Layer(
        (body): Sequential(
          (0): Conv2d(74, 74, kernel_size=(3, 3), stride=(1, 1), padding=(1, 1))
          (1): LeakyReLU(negative_slope=0.2, inplace=True)
          (2): Conv2d(74, 64, kernel_size=(3, 3), stride=(1, 1), padding=(1, 1))
          (3): CALayer(
            (body): Sequential(
              (0): Conv2d(64, 4, kernel_size=(1, 1), stride=(1, 1))
              (1): LeakyReLU(negative_slope=0.2)
              (2): Conv2d(4, 64, kernel_size=(1, 1), stride=(1, 1))
              (3): Sigmoid()
            )
            (avg): AdaptiveAvgPool2d(output_size=1)
          )
        )
      )
      (36): CRB_Layer(
        (body): Sequential(
          (0): Conv2d(74, 74, kernel_size=(3, 3), stride=(1, 1), padding=(1, 1))
          (1): LeakyReLU(negative_slope=0.2, inplace=True)
          (2): Conv2d(74, 64, kernel_size=(3, 3), stride=(1, 1), padding=(1, 1))
          (3): CALayer(
            (body): Sequential(
              (0): Conv2d(64, 4, kernel_size=(1, 1), stride=(1, 1))
              (1): LeakyReLU(negative_slope=0.2)
              (2): Conv2d(4, 64, kernel_size=(1, 1), stride=(1, 1))
              (3): Sigmoid()
            )
            (avg): AdaptiveAvgPool2d(output_size=1)
          )
        )
      )
      (37): CRB_Layer(
        (body): Sequential(
          (0): Conv2d(74, 74, kernel_size=(3, 3), stride=(1, 1), padding=(1, 1))
          (1): LeakyReLU(negative_slope=0.2, inplace=True)
          (2): Conv2d(74, 64, kernel_size=(3, 3), stride=(1, 1), padding=(1, 1))
          (3): CALayer(
            (body): Sequential(
              (0): Conv2d(64, 4, kernel_size=(1, 1), stride=(1, 1))
              (1): LeakyReLU(negative_slope=0.2)
              (2): Conv2d(4, 64, kernel_size=(1, 1), stride=(1, 1))
              (3): Sigmoid()
            )
            (avg): AdaptiveAvgPool2d(output_size=1)
          )
        )
      )
      (38): CRB_Layer(
        (body): Sequential(
          (0): Conv2d(74, 74, kernel_size=(3, 3), stride=(1, 1), padding=(1, 1))
          (1): LeakyReLU(negative_slope=0.2, inplace=True)
          (2): Conv2d(74, 64, kernel_size=(3, 3), stride=(1, 1), padding=(1, 1))
          (3): CALayer(
            (body): Sequential(
              (0): Conv2d(64, 4, kernel_size=(1, 1), stride=(1, 1))
              (1): LeakyReLU(negative_slope=0.2)
              (2): Conv2d(4, 64, kernel_size=(1, 1), stride=(1, 1))
              (3): Sigmoid()
            )
            (avg): AdaptiveAvgPool2d(output_size=1)
          )
        )
      )
      (39): CRB_Layer(
        (body): Sequential(
          (0): Conv2d(74, 74, kernel_size=(3, 3), stride=(1, 1), padding=(1, 1))
          (1): LeakyReLU(negative_slope=0.2, inplace=True)
          (2): Conv2d(74, 64, kernel_size=(3, 3), stride=(1, 1), padding=(1, 1))
          (3): CALayer(
            (body): Sequential(
              (0): Conv2d(64, 4, kernel_size=(1, 1), stride=(1, 1))
              (1): LeakyReLU(negative_slope=0.2)
              (2): Conv2d(4, 64, kernel_size=(1, 1), stride=(1, 1))
              (3): Sigmoid()
            )
            (avg): AdaptiveAvgPool2d(output_size=1)
          )
        )
      )
    )
    (fusion): Conv2d(64, 64, kernel_size=(3, 3), stride=(1, 1), padding=(1, 1))
    (upscale): Sequential(
      (0): Conv2d(64, 256, kernel_size=(3, 3), stride=(1, 1), padding=(1, 1))
      (1): PixelShuffle(upscale_factor=2)
      (2): Conv2d(64, 3, kernel_size=(3, 3), stride=(1, 1), padding=(1, 1))
    )
  )
  (Estimator): Estimator(
    (head_LR): Conv2d(3, 32, kernel_size=(1, 1), stride=(1, 1))
    (head_HR): Conv2d(3, 32, kernel_size=(9, 9), stride=(2, 2), padding=(4, 4))
    (body): Sequential(
      (0): CRB_Layer(
        (body): Sequential(
          (0): Conv2d(64, 64, kernel_size=(3, 3), stride=(1, 1), padding=(1, 1))
          (1): LeakyReLU(negative_slope=0.2, inplace=True)
          (2): Conv2d(64, 32, kernel_size=(3, 3), stride=(1, 1), padding=(1, 1))
          (3): CALayer(
            (body): Sequential(
              (0): Conv2d(32, 2, kernel_size=(1, 1), stride=(1, 1))
              (1): LeakyReLU(negative_slope=0.2)
              (2): Conv2d(2, 32, kernel_size=(1, 1), stride=(1, 1))
              (3): Sigmoid()
            )
            (avg): AdaptiveAvgPool2d(output_size=1)
          )
        )
      )
      (1): CRB_Layer(
        (body): Sequential(
          (0): Conv2d(64, 64, kernel_size=(3, 3), stride=(1, 1), padding=(1, 1))
          (1): LeakyReLU(negative_slope=0.2, inplace=True)
          (2): Conv2d(64, 32, kernel_size=(3, 3), stride=(1, 1), padding=(1, 1))
          (3): CALayer(
            (body): Sequential(
              (0): Conv2d(32, 2, kernel_size=(1, 1), stride=(1, 1))
              (1): LeakyReLU(negative_slope=0.2)
              (2): Conv2d(2, 32, kernel_size=(1, 1), stride=(1, 1))
              (3): Sigmoid()
            )
            (avg): AdaptiveAvgPool2d(output_size=1)
          )
        )
      )
      (2): CRB_Layer(
        (body): Sequential(
          (0): Conv2d(64, 64, kernel_size=(3, 3), stride=(1, 1), padding=(1, 1))
          (1): LeakyReLU(negative_slope=0.2, inplace=True)
          (2): Conv2d(64, 32, kernel_size=(3, 3), stride=(1, 1), padding=(1, 1))
          (3): CALayer(
            (body): Sequential(
              (0): Conv2d(32, 2, kernel_size=(1, 1), stride=(1, 1))
              (1): LeakyReLU(negative_slope=0.2)
              (2): Conv2d(2, 32, kernel_size=(1, 1), stride=(1, 1))
              (3): Sigmoid()
            )
            (avg): AdaptiveAvgPool2d(output_size=1)
          )
        )
      )
      (3): CRB_Layer(
        (body): Sequential(
          (0): Conv2d(64, 64, kernel_size=(3, 3), stride=(1, 1), padding=(1, 1))
          (1): LeakyReLU(negative_slope=0.2, inplace=True)
          (2): Conv2d(64, 32, kernel_size=(3, 3), stride=(1, 1), padding=(1, 1))
          (3): CALayer(
            (body): Sequential(
              (0): Conv2d(32, 2, kernel_size=(1, 1), stride=(1, 1))
              (1): LeakyReLU(negative_slope=0.2)
              (2): Conv2d(2, 32, kernel_size=(1, 1), stride=(1, 1))
              (3): Sigmoid()
            )
            (avg): AdaptiveAvgPool2d(output_size=1)
          )
        )
      )
      (4): CRB_Layer(
        (body): Sequential(
          (0): Conv2d(64, 64, kernel_size=(3, 3), stride=(1, 1), padding=(1, 1))
          (1): LeakyReLU(negative_slope=0.2, inplace=True)
          (2): Conv2d(64, 32, kernel_size=(3, 3), stride=(1, 1), padding=(1, 1))
          (3): CALayer(
            (body): Sequential(
              (0): Conv2d(32, 2, kernel_size=(1, 1), stride=(1, 1))
              (1): LeakyReLU(negative_slope=0.2)
              (2): Conv2d(2, 32, kernel_size=(1, 1), stride=(1, 1))
              (3): Sigmoid()
            )
            (avg): AdaptiveAvgPool2d(output_size=1)
          )
        )
      )
    )
    (out): Conv2d(32, 10, kernel_size=(3, 3), stride=(1, 1), padding=(1, 1))
    (globalPooling): AdaptiveAvgPool2d(output_size=(1, 1))
  )
)
21-07-21 13:44:05.125 - INFO: Model [B_Model] is created.
21-07-21 13:44:46.509 - INFO: Path already exists. Rename it to [/content/DAN/experiments/DANv1/DANx2_setting1_archived_210721-134446]
21-07-21 13:44:46.583 - INFO: Dataset [GTDataset - DIV2K] is created.
21-07-21 13:44:46.585 - INFO: Dataset [LQGTDataset - DIV2KRK] is created.
21-07-21 13:44:46.703 - INFO: Network G structure: DataParallel - DAN, with parameters: 4,181,799
21-07-21 13:44:46.704 - INFO: DAN(
  (Restorer): Restorer(
    (head): Conv2d(3, 64, kernel_size=(3, 3), stride=(1, 1), padding=(1, 1))
    (body): Sequential(
      (0): CRB_Layer(
        (body): Sequential(
          (0): Conv2d(74, 74, kernel_size=(3, 3), stride=(1, 1), padding=(1, 1))
          (1): LeakyReLU(negative_slope=0.2, inplace=True)
          (2): Conv2d(74, 64, kernel_size=(3, 3), stride=(1, 1), padding=(1, 1))
          (3): CALayer(
            (body): Sequential(
              (0): Conv2d(64, 4, kernel_size=(1, 1), stride=(1, 1))
              (1): LeakyReLU(negative_slope=0.2)
              (2): Conv2d(4, 64, kernel_size=(1, 1), stride=(1, 1))
              (3): Sigmoid()
            )
            (avg): AdaptiveAvgPool2d(output_size=1)
          )
        )
      )
      (1): CRB_Layer(
        (body): Sequential(
          (0): Conv2d(74, 74, kernel_size=(3, 3), stride=(1, 1), padding=(1, 1))
          (1): LeakyReLU(negative_slope=0.2, inplace=True)
          (2): Conv2d(74, 64, kernel_size=(3, 3), stride=(1, 1), padding=(1, 1))
          (3): CALayer(
            (body): Sequential(
              (0): Conv2d(64, 4, kernel_size=(1, 1), stride=(1, 1))
              (1): LeakyReLU(negative_slope=0.2)
              (2): Conv2d(4, 64, kernel_size=(1, 1), stride=(1, 1))
              (3): Sigmoid()
            )
            (avg): AdaptiveAvgPool2d(output_size=1)
          )
        )
      )
      (2): CRB_Layer(
        (body): Sequential(
          (0): Conv2d(74, 74, kernel_size=(3, 3), stride=(1, 1), padding=(1, 1))
          (1): LeakyReLU(negative_slope=0.2, inplace=True)
          (2): Conv2d(74, 64, kernel_size=(3, 3), stride=(1, 1), padding=(1, 1))
          (3): CALayer(
            (body): Sequential(
              (0): Conv2d(64, 4, kernel_size=(1, 1), stride=(1, 1))
              (1): LeakyReLU(negative_slope=0.2)
              (2): Conv2d(4, 64, kernel_size=(1, 1), stride=(1, 1))
              (3): Sigmoid()
            )
            (avg): AdaptiveAvgPool2d(output_size=1)
          )
        )
      )
      (3): CRB_Layer(
        (body): Sequential(
          (0): Conv2d(74, 74, kernel_size=(3, 3), stride=(1, 1), padding=(1, 1))
          (1): LeakyReLU(negative_slope=0.2, inplace=True)
          (2): Conv2d(74, 64, kernel_size=(3, 3), stride=(1, 1), padding=(1, 1))
          (3): CALayer(
            (body): Sequential(
              (0): Conv2d(64, 4, kernel_size=(1, 1), stride=(1, 1))
              (1): LeakyReLU(negative_slope=0.2)
              (2): Conv2d(4, 64, kernel_size=(1, 1), stride=(1, 1))
              (3): Sigmoid()
            )
            (avg): AdaptiveAvgPool2d(output_size=1)
          )
        )
      )
      (4): CRB_Layer(
        (body): Sequential(
          (0): Conv2d(74, 74, kernel_size=(3, 3), stride=(1, 1), padding=(1, 1))
          (1): LeakyReLU(negative_slope=0.2, inplace=True)
          (2): Conv2d(74, 64, kernel_size=(3, 3), stride=(1, 1), padding=(1, 1))
          (3): CALayer(
            (body): Sequential(
              (0): Conv2d(64, 4, kernel_size=(1, 1), stride=(1, 1))
              (1): LeakyReLU(negative_slope=0.2)
              (2): Conv2d(4, 64, kernel_size=(1, 1), stride=(1, 1))
              (3): Sigmoid()
            )
            (avg): AdaptiveAvgPool2d(output_size=1)
          )
        )
      )
      (5): CRB_Layer(
        (body): Sequential(
          (0): Conv2d(74, 74, kernel_size=(3, 3), stride=(1, 1), padding=(1, 1))
          (1): LeakyReLU(negative_slope=0.2, inplace=True)
          (2): Conv2d(74, 64, kernel_size=(3, 3), stride=(1, 1), padding=(1, 1))
          (3): CALayer(
            (body): Sequential(
              (0): Conv2d(64, 4, kernel_size=(1, 1), stride=(1, 1))
              (1): LeakyReLU(negative_slope=0.2)
              (2): Conv2d(4, 64, kernel_size=(1, 1), stride=(1, 1))
              (3): Sigmoid()
            )
            (avg): AdaptiveAvgPool2d(output_size=1)
          )
        )
      )
      (6): CRB_Layer(
        (body): Sequential(
          (0): Conv2d(74, 74, kernel_size=(3, 3), stride=(1, 1), padding=(1, 1))
          (1): LeakyReLU(negative_slope=0.2, inplace=True)
          (2): Conv2d(74, 64, kernel_size=(3, 3), stride=(1, 1), padding=(1, 1))
          (3): CALayer(
            (body): Sequential(
              (0): Conv2d(64, 4, kernel_size=(1, 1), stride=(1, 1))
              (1): LeakyReLU(negative_slope=0.2)
              (2): Conv2d(4, 64, kernel_size=(1, 1), stride=(1, 1))
              (3): Sigmoid()
            )
            (avg): AdaptiveAvgPool2d(output_size=1)
          )
        )
      )
      (7): CRB_Layer(
        (body): Sequential(
          (0): Conv2d(74, 74, kernel_size=(3, 3), stride=(1, 1), padding=(1, 1))
          (1): LeakyReLU(negative_slope=0.2, inplace=True)
          (2): Conv2d(74, 64, kernel_size=(3, 3), stride=(1, 1), padding=(1, 1))
          (3): CALayer(
            (body): Sequential(
              (0): Conv2d(64, 4, kernel_size=(1, 1), stride=(1, 1))
              (1): LeakyReLU(negative_slope=0.2)
              (2): Conv2d(4, 64, kernel_size=(1, 1), stride=(1, 1))
              (3): Sigmoid()
            )
            (avg): AdaptiveAvgPool2d(output_size=1)
          )
        )
      )
      (8): CRB_Layer(
        (body): Sequential(
          (0): Conv2d(74, 74, kernel_size=(3, 3), stride=(1, 1), padding=(1, 1))
          (1): LeakyReLU(negative_slope=0.2, inplace=True)
          (2): Conv2d(74, 64, kernel_size=(3, 3), stride=(1, 1), padding=(1, 1))
          (3): CALayer(
            (body): Sequential(
              (0): Conv2d(64, 4, kernel_size=(1, 1), stride=(1, 1))
              (1): LeakyReLU(negative_slope=0.2)
              (2): Conv2d(4, 64, kernel_size=(1, 1), stride=(1, 1))
              (3): Sigmoid()
            )
            (avg): AdaptiveAvgPool2d(output_size=1)
          )
        )
      )
      (9): CRB_Layer(
        (body): Sequential(
          (0): Conv2d(74, 74, kernel_size=(3, 3), stride=(1, 1), padding=(1, 1))
          (1): LeakyReLU(negative_slope=0.2, inplace=True)
          (2): Conv2d(74, 64, kernel_size=(3, 3), stride=(1, 1), padding=(1, 1))
          (3): CALayer(
            (body): Sequential(
              (0): Conv2d(64, 4, kernel_size=(1, 1), stride=(1, 1))
              (1): LeakyReLU(negative_slope=0.2)
              (2): Conv2d(4, 64, kernel_size=(1, 1), stride=(1, 1))
              (3): Sigmoid()
            )
            (avg): AdaptiveAvgPool2d(output_size=1)
          )
        )
      )
      (10): CRB_Layer(
        (body): Sequential(
          (0): Conv2d(74, 74, kernel_size=(3, 3), stride=(1, 1), padding=(1, 1))
          (1): LeakyReLU(negative_slope=0.2, inplace=True)
          (2): Conv2d(74, 64, kernel_size=(3, 3), stride=(1, 1), padding=(1, 1))
          (3): CALayer(
            (body): Sequential(
              (0): Conv2d(64, 4, kernel_size=(1, 1), stride=(1, 1))
              (1): LeakyReLU(negative_slope=0.2)
              (2): Conv2d(4, 64, kernel_size=(1, 1), stride=(1, 1))
              (3): Sigmoid()
            )
            (avg): AdaptiveAvgPool2d(output_size=1)
          )
        )
      )
      (11): CRB_Layer(
        (body): Sequential(
          (0): Conv2d(74, 74, kernel_size=(3, 3), stride=(1, 1), padding=(1, 1))
          (1): LeakyReLU(negative_slope=0.2, inplace=True)
          (2): Conv2d(74, 64, kernel_size=(3, 3), stride=(1, 1), padding=(1, 1))
          (3): CALayer(
            (body): Sequential(
              (0): Conv2d(64, 4, kernel_size=(1, 1), stride=(1, 1))
              (1): LeakyReLU(negative_slope=0.2)
              (2): Conv2d(4, 64, kernel_size=(1, 1), stride=(1, 1))
              (3): Sigmoid()
            )
            (avg): AdaptiveAvgPool2d(output_size=1)
          )
        )
      )
      (12): CRB_Layer(
        (body): Sequential(
          (0): Conv2d(74, 74, kernel_size=(3, 3), stride=(1, 1), padding=(1, 1))
          (1): LeakyReLU(negative_slope=0.2, inplace=True)
          (2): Conv2d(74, 64, kernel_size=(3, 3), stride=(1, 1), padding=(1, 1))
          (3): CALayer(
            (body): Sequential(
              (0): Conv2d(64, 4, kernel_size=(1, 1), stride=(1, 1))
              (1): LeakyReLU(negative_slope=0.2)
              (2): Conv2d(4, 64, kernel_size=(1, 1), stride=(1, 1))
              (3): Sigmoid()
            )
            (avg): AdaptiveAvgPool2d(output_size=1)
          )
        )
      )
      (13): CRB_Layer(
        (body): Sequential(
          (0): Conv2d(74, 74, kernel_size=(3, 3), stride=(1, 1), padding=(1, 1))
          (1): LeakyReLU(negative_slope=0.2, inplace=True)
          (2): Conv2d(74, 64, kernel_size=(3, 3), stride=(1, 1), padding=(1, 1))
          (3): CALayer(
            (body): Sequential(
              (0): Conv2d(64, 4, kernel_size=(1, 1), stride=(1, 1))
              (1): LeakyReLU(negative_slope=0.2)
              (2): Conv2d(4, 64, kernel_size=(1, 1), stride=(1, 1))
              (3): Sigmoid()
            )
            (avg): AdaptiveAvgPool2d(output_size=1)
          )
        )
      )
      (14): CRB_Layer(
        (body): Sequential(
          (0): Conv2d(74, 74, kernel_size=(3, 3), stride=(1, 1), padding=(1, 1))
          (1): LeakyReLU(negative_slope=0.2, inplace=True)
          (2): Conv2d(74, 64, kernel_size=(3, 3), stride=(1, 1), padding=(1, 1))
          (3): CALayer(
            (body): Sequential(
              (0): Conv2d(64, 4, kernel_size=(1, 1), stride=(1, 1))
              (1): LeakyReLU(negative_slope=0.2)
              (2): Conv2d(4, 64, kernel_size=(1, 1), stride=(1, 1))
              (3): Sigmoid()
            )
            (avg): AdaptiveAvgPool2d(output_size=1)
          )
        )
      )
      (15): CRB_Layer(
        (body): Sequential(
          (0): Conv2d(74, 74, kernel_size=(3, 3), stride=(1, 1), padding=(1, 1))
          (1): LeakyReLU(negative_slope=0.2, inplace=True)
          (2): Conv2d(74, 64, kernel_size=(3, 3), stride=(1, 1), padding=(1, 1))
          (3): CALayer(
            (body): Sequential(
              (0): Conv2d(64, 4, kernel_size=(1, 1), stride=(1, 1))
              (1): LeakyReLU(negative_slope=0.2)
              (2): Conv2d(4, 64, kernel_size=(1, 1), stride=(1, 1))
              (3): Sigmoid()
            )
            (avg): AdaptiveAvgPool2d(output_size=1)
          )
        )
      )
      (16): CRB_Layer(
        (body): Sequential(
          (0): Conv2d(74, 74, kernel_size=(3, 3), stride=(1, 1), padding=(1, 1))
          (1): LeakyReLU(negative_slope=0.2, inplace=True)
          (2): Conv2d(74, 64, kernel_size=(3, 3), stride=(1, 1), padding=(1, 1))
          (3): CALayer(
            (body): Sequential(
              (0): Conv2d(64, 4, kernel_size=(1, 1), stride=(1, 1))
              (1): LeakyReLU(negative_slope=0.2)
              (2): Conv2d(4, 64, kernel_size=(1, 1), stride=(1, 1))
              (3): Sigmoid()
            )
            (avg): AdaptiveAvgPool2d(output_size=1)
          )
        )
      )
      (17): CRB_Layer(
        (body): Sequential(
          (0): Conv2d(74, 74, kernel_size=(3, 3), stride=(1, 1), padding=(1, 1))
          (1): LeakyReLU(negative_slope=0.2, inplace=True)
          (2): Conv2d(74, 64, kernel_size=(3, 3), stride=(1, 1), padding=(1, 1))
          (3): CALayer(
            (body): Sequential(
              (0): Conv2d(64, 4, kernel_size=(1, 1), stride=(1, 1))
              (1): LeakyReLU(negative_slope=0.2)
              (2): Conv2d(4, 64, kernel_size=(1, 1), stride=(1, 1))
              (3): Sigmoid()
            )
            (avg): AdaptiveAvgPool2d(output_size=1)
          )
        )
      )
      (18): CRB_Layer(
        (body): Sequential(
          (0): Conv2d(74, 74, kernel_size=(3, 3), stride=(1, 1), padding=(1, 1))
          (1): LeakyReLU(negative_slope=0.2, inplace=True)
          (2): Conv2d(74, 64, kernel_size=(3, 3), stride=(1, 1), padding=(1, 1))
          (3): CALayer(
            (body): Sequential(
              (0): Conv2d(64, 4, kernel_size=(1, 1), stride=(1, 1))
              (1): LeakyReLU(negative_slope=0.2)
              (2): Conv2d(4, 64, kernel_size=(1, 1), stride=(1, 1))
              (3): Sigmoid()
            )
            (avg): AdaptiveAvgPool2d(output_size=1)
          )
        )
      )
      (19): CRB_Layer(
        (body): Sequential(
          (0): Conv2d(74, 74, kernel_size=(3, 3), stride=(1, 1), padding=(1, 1))
          (1): LeakyReLU(negative_slope=0.2, inplace=True)
          (2): Conv2d(74, 64, kernel_size=(3, 3), stride=(1, 1), padding=(1, 1))
          (3): CALayer(
            (body): Sequential(
              (0): Conv2d(64, 4, kernel_size=(1, 1), stride=(1, 1))
              (1): LeakyReLU(negative_slope=0.2)
              (2): Conv2d(4, 64, kernel_size=(1, 1), stride=(1, 1))
              (3): Sigmoid()
            )
            (avg): AdaptiveAvgPool2d(output_size=1)
          )
        )
      )
      (20): CRB_Layer(
        (body): Sequential(
          (0): Conv2d(74, 74, kernel_size=(3, 3), stride=(1, 1), padding=(1, 1))
          (1): LeakyReLU(negative_slope=0.2, inplace=True)
          (2): Conv2d(74, 64, kernel_size=(3, 3), stride=(1, 1), padding=(1, 1))
          (3): CALayer(
            (body): Sequential(
              (0): Conv2d(64, 4, kernel_size=(1, 1), stride=(1, 1))
              (1): LeakyReLU(negative_slope=0.2)
              (2): Conv2d(4, 64, kernel_size=(1, 1), stride=(1, 1))
              (3): Sigmoid()
            )
            (avg): AdaptiveAvgPool2d(output_size=1)
          )
        )
      )
      (21): CRB_Layer(
        (body): Sequential(
          (0): Conv2d(74, 74, kernel_size=(3, 3), stride=(1, 1), padding=(1, 1))
          (1): LeakyReLU(negative_slope=0.2, inplace=True)
          (2): Conv2d(74, 64, kernel_size=(3, 3), stride=(1, 1), padding=(1, 1))
          (3): CALayer(
            (body): Sequential(
              (0): Conv2d(64, 4, kernel_size=(1, 1), stride=(1, 1))
              (1): LeakyReLU(negative_slope=0.2)
              (2): Conv2d(4, 64, kernel_size=(1, 1), stride=(1, 1))
              (3): Sigmoid()
            )
            (avg): AdaptiveAvgPool2d(output_size=1)
          )
        )
      )
      (22): CRB_Layer(
        (body): Sequential(
          (0): Conv2d(74, 74, kernel_size=(3, 3), stride=(1, 1), padding=(1, 1))
          (1): LeakyReLU(negative_slope=0.2, inplace=True)
          (2): Conv2d(74, 64, kernel_size=(3, 3), stride=(1, 1), padding=(1, 1))
          (3): CALayer(
            (body): Sequential(
              (0): Conv2d(64, 4, kernel_size=(1, 1), stride=(1, 1))
              (1): LeakyReLU(negative_slope=0.2)
              (2): Conv2d(4, 64, kernel_size=(1, 1), stride=(1, 1))
              (3): Sigmoid()
            )
            (avg): AdaptiveAvgPool2d(output_size=1)
          )
        )
      )
      (23): CRB_Layer(
        (body): Sequential(
          (0): Conv2d(74, 74, kernel_size=(3, 3), stride=(1, 1), padding=(1, 1))
          (1): LeakyReLU(negative_slope=0.2, inplace=True)
          (2): Conv2d(74, 64, kernel_size=(3, 3), stride=(1, 1), padding=(1, 1))
          (3): CALayer(
            (body): Sequential(
              (0): Conv2d(64, 4, kernel_size=(1, 1), stride=(1, 1))
              (1): LeakyReLU(negative_slope=0.2)
              (2): Conv2d(4, 64, kernel_size=(1, 1), stride=(1, 1))
              (3): Sigmoid()
            )
            (avg): AdaptiveAvgPool2d(output_size=1)
          )
        )
      )
      (24): CRB_Layer(
        (body): Sequential(
          (0): Conv2d(74, 74, kernel_size=(3, 3), stride=(1, 1), padding=(1, 1))
          (1): LeakyReLU(negative_slope=0.2, inplace=True)
          (2): Conv2d(74, 64, kernel_size=(3, 3), stride=(1, 1), padding=(1, 1))
          (3): CALayer(
            (body): Sequential(
              (0): Conv2d(64, 4, kernel_size=(1, 1), stride=(1, 1))
              (1): LeakyReLU(negative_slope=0.2)
              (2): Conv2d(4, 64, kernel_size=(1, 1), stride=(1, 1))
              (3): Sigmoid()
            )
            (avg): AdaptiveAvgPool2d(output_size=1)
          )
        )
      )
      (25): CRB_Layer(
        (body): Sequential(
          (0): Conv2d(74, 74, kernel_size=(3, 3), stride=(1, 1), padding=(1, 1))
          (1): LeakyReLU(negative_slope=0.2, inplace=True)
          (2): Conv2d(74, 64, kernel_size=(3, 3), stride=(1, 1), padding=(1, 1))
          (3): CALayer(
            (body): Sequential(
              (0): Conv2d(64, 4, kernel_size=(1, 1), stride=(1, 1))
              (1): LeakyReLU(negative_slope=0.2)
              (2): Conv2d(4, 64, kernel_size=(1, 1), stride=(1, 1))
              (3): Sigmoid()
            )
            (avg): AdaptiveAvgPool2d(output_size=1)
          )
        )
      )
      (26): CRB_Layer(
        (body): Sequential(
          (0): Conv2d(74, 74, kernel_size=(3, 3), stride=(1, 1), padding=(1, 1))
          (1): LeakyReLU(negative_slope=0.2, inplace=True)
          (2): Conv2d(74, 64, kernel_size=(3, 3), stride=(1, 1), padding=(1, 1))
          (3): CALayer(
            (body): Sequential(
              (0): Conv2d(64, 4, kernel_size=(1, 1), stride=(1, 1))
              (1): LeakyReLU(negative_slope=0.2)
              (2): Conv2d(4, 64, kernel_size=(1, 1), stride=(1, 1))
              (3): Sigmoid()
            )
            (avg): AdaptiveAvgPool2d(output_size=1)
          )
        )
      )
      (27): CRB_Layer(
        (body): Sequential(
          (0): Conv2d(74, 74, kernel_size=(3, 3), stride=(1, 1), padding=(1, 1))
          (1): LeakyReLU(negative_slope=0.2, inplace=True)
          (2): Conv2d(74, 64, kernel_size=(3, 3), stride=(1, 1), padding=(1, 1))
          (3): CALayer(
            (body): Sequential(
              (0): Conv2d(64, 4, kernel_size=(1, 1), stride=(1, 1))
              (1): LeakyReLU(negative_slope=0.2)
              (2): Conv2d(4, 64, kernel_size=(1, 1), stride=(1, 1))
              (3): Sigmoid()
            )
            (avg): AdaptiveAvgPool2d(output_size=1)
          )
        )
      )
      (28): CRB_Layer(
        (body): Sequential(
          (0): Conv2d(74, 74, kernel_size=(3, 3), stride=(1, 1), padding=(1, 1))
          (1): LeakyReLU(negative_slope=0.2, inplace=True)
          (2): Conv2d(74, 64, kernel_size=(3, 3), stride=(1, 1), padding=(1, 1))
          (3): CALayer(
            (body): Sequential(
              (0): Conv2d(64, 4, kernel_size=(1, 1), stride=(1, 1))
              (1): LeakyReLU(negative_slope=0.2)
              (2): Conv2d(4, 64, kernel_size=(1, 1), stride=(1, 1))
              (3): Sigmoid()
            )
            (avg): AdaptiveAvgPool2d(output_size=1)
          )
        )
      )
      (29): CRB_Layer(
        (body): Sequential(
          (0): Conv2d(74, 74, kernel_size=(3, 3), stride=(1, 1), padding=(1, 1))
          (1): LeakyReLU(negative_slope=0.2, inplace=True)
          (2): Conv2d(74, 64, kernel_size=(3, 3), stride=(1, 1), padding=(1, 1))
          (3): CALayer(
            (body): Sequential(
              (0): Conv2d(64, 4, kernel_size=(1, 1), stride=(1, 1))
              (1): LeakyReLU(negative_slope=0.2)
              (2): Conv2d(4, 64, kernel_size=(1, 1), stride=(1, 1))
              (3): Sigmoid()
            )
            (avg): AdaptiveAvgPool2d(output_size=1)
          )
        )
      )
      (30): CRB_Layer(
        (body): Sequential(
          (0): Conv2d(74, 74, kernel_size=(3, 3), stride=(1, 1), padding=(1, 1))
          (1): LeakyReLU(negative_slope=0.2, inplace=True)
          (2): Conv2d(74, 64, kernel_size=(3, 3), stride=(1, 1), padding=(1, 1))
          (3): CALayer(
            (body): Sequential(
              (0): Conv2d(64, 4, kernel_size=(1, 1), stride=(1, 1))
              (1): LeakyReLU(negative_slope=0.2)
              (2): Conv2d(4, 64, kernel_size=(1, 1), stride=(1, 1))
              (3): Sigmoid()
            )
            (avg): AdaptiveAvgPool2d(output_size=1)
          )
        )
      )
      (31): CRB_Layer(
        (body): Sequential(
          (0): Conv2d(74, 74, kernel_size=(3, 3), stride=(1, 1), padding=(1, 1))
          (1): LeakyReLU(negative_slope=0.2, inplace=True)
          (2): Conv2d(74, 64, kernel_size=(3, 3), stride=(1, 1), padding=(1, 1))
          (3): CALayer(
            (body): Sequential(
              (0): Conv2d(64, 4, kernel_size=(1, 1), stride=(1, 1))
              (1): LeakyReLU(negative_slope=0.2)
              (2): Conv2d(4, 64, kernel_size=(1, 1), stride=(1, 1))
              (3): Sigmoid()
            )
            (avg): AdaptiveAvgPool2d(output_size=1)
          )
        )
      )
      (32): CRB_Layer(
        (body): Sequential(
          (0): Conv2d(74, 74, kernel_size=(3, 3), stride=(1, 1), padding=(1, 1))
          (1): LeakyReLU(negative_slope=0.2, inplace=True)
          (2): Conv2d(74, 64, kernel_size=(3, 3), stride=(1, 1), padding=(1, 1))
          (3): CALayer(
            (body): Sequential(
              (0): Conv2d(64, 4, kernel_size=(1, 1), stride=(1, 1))
              (1): LeakyReLU(negative_slope=0.2)
              (2): Conv2d(4, 64, kernel_size=(1, 1), stride=(1, 1))
              (3): Sigmoid()
            )
            (avg): AdaptiveAvgPool2d(output_size=1)
          )
        )
      )
      (33): CRB_Layer(
        (body): Sequential(
          (0): Conv2d(74, 74, kernel_size=(3, 3), stride=(1, 1), padding=(1, 1))
          (1): LeakyReLU(negative_slope=0.2, inplace=True)
          (2): Conv2d(74, 64, kernel_size=(3, 3), stride=(1, 1), padding=(1, 1))
          (3): CALayer(
            (body): Sequential(
              (0): Conv2d(64, 4, kernel_size=(1, 1), stride=(1, 1))
              (1): LeakyReLU(negative_slope=0.2)
              (2): Conv2d(4, 64, kernel_size=(1, 1), stride=(1, 1))
              (3): Sigmoid()
            )
            (avg): AdaptiveAvgPool2d(output_size=1)
          )
        )
      )
      (34): CRB_Layer(
        (body): Sequential(
          (0): Conv2d(74, 74, kernel_size=(3, 3), stride=(1, 1), padding=(1, 1))
          (1): LeakyReLU(negative_slope=0.2, inplace=True)
          (2): Conv2d(74, 64, kernel_size=(3, 3), stride=(1, 1), padding=(1, 1))
          (3): CALayer(
            (body): Sequential(
              (0): Conv2d(64, 4, kernel_size=(1, 1), stride=(1, 1))
              (1): LeakyReLU(negative_slope=0.2)
              (2): Conv2d(4, 64, kernel_size=(1, 1), stride=(1, 1))
              (3): Sigmoid()
            )
            (avg): AdaptiveAvgPool2d(output_size=1)
          )
        )
      )
      (35): CRB_Layer(
        (body): Sequential(
          (0): Conv2d(74, 74, kernel_size=(3, 3), stride=(1, 1), padding=(1, 1))
          (1): LeakyReLU(negative_slope=0.2, inplace=True)
          (2): Conv2d(74, 64, kernel_size=(3, 3), stride=(1, 1), padding=(1, 1))
          (3): CALayer(
            (body): Sequential(
              (0): Conv2d(64, 4, kernel_size=(1, 1), stride=(1, 1))
              (1): LeakyReLU(negative_slope=0.2)
              (2): Conv2d(4, 64, kernel_size=(1, 1), stride=(1, 1))
              (3): Sigmoid()
            )
            (avg): AdaptiveAvgPool2d(output_size=1)
          )
        )
      )
      (36): CRB_Layer(
        (body): Sequential(
          (0): Conv2d(74, 74, kernel_size=(3, 3), stride=(1, 1), padding=(1, 1))
          (1): LeakyReLU(negative_slope=0.2, inplace=True)
          (2): Conv2d(74, 64, kernel_size=(3, 3), stride=(1, 1), padding=(1, 1))
          (3): CALayer(
            (body): Sequential(
              (0): Conv2d(64, 4, kernel_size=(1, 1), stride=(1, 1))
              (1): LeakyReLU(negative_slope=0.2)
              (2): Conv2d(4, 64, kernel_size=(1, 1), stride=(1, 1))
              (3): Sigmoid()
            )
            (avg): AdaptiveAvgPool2d(output_size=1)
          )
        )
      )
      (37): CRB_Layer(
        (body): Sequential(
          (0): Conv2d(74, 74, kernel_size=(3, 3), stride=(1, 1), padding=(1, 1))
          (1): LeakyReLU(negative_slope=0.2, inplace=True)
          (2): Conv2d(74, 64, kernel_size=(3, 3), stride=(1, 1), padding=(1, 1))
          (3): CALayer(
            (body): Sequential(
              (0): Conv2d(64, 4, kernel_size=(1, 1), stride=(1, 1))
              (1): LeakyReLU(negative_slope=0.2)
              (2): Conv2d(4, 64, kernel_size=(1, 1), stride=(1, 1))
              (3): Sigmoid()
            )
            (avg): AdaptiveAvgPool2d(output_size=1)
          )
        )
      )
      (38): CRB_Layer(
        (body): Sequential(
          (0): Conv2d(74, 74, kernel_size=(3, 3), stride=(1, 1), padding=(1, 1))
          (1): LeakyReLU(negative_slope=0.2, inplace=True)
          (2): Conv2d(74, 64, kernel_size=(3, 3), stride=(1, 1), padding=(1, 1))
          (3): CALayer(
            (body): Sequential(
              (0): Conv2d(64, 4, kernel_size=(1, 1), stride=(1, 1))
              (1): LeakyReLU(negative_slope=0.2)
              (2): Conv2d(4, 64, kernel_size=(1, 1), stride=(1, 1))
              (3): Sigmoid()
            )
            (avg): AdaptiveAvgPool2d(output_size=1)
          )
        )
      )
      (39): CRB_Layer(
        (body): Sequential(
          (0): Conv2d(74, 74, kernel_size=(3, 3), stride=(1, 1), padding=(1, 1))
          (1): LeakyReLU(negative_slope=0.2, inplace=True)
          (2): Conv2d(74, 64, kernel_size=(3, 3), stride=(1, 1), padding=(1, 1))
          (3): CALayer(
            (body): Sequential(
              (0): Conv2d(64, 4, kernel_size=(1, 1), stride=(1, 1))
              (1): LeakyReLU(negative_slope=0.2)
              (2): Conv2d(4, 64, kernel_size=(1, 1), stride=(1, 1))
              (3): Sigmoid()
            )
            (avg): AdaptiveAvgPool2d(output_size=1)
          )
        )
      )
    )
    (fusion): Conv2d(64, 64, kernel_size=(3, 3), stride=(1, 1), padding=(1, 1))
    (upscale): Sequential(
      (0): Conv2d(64, 256, kernel_size=(3, 3), stride=(1, 1), padding=(1, 1))
      (1): PixelShuffle(upscale_factor=2)
      (2): Conv2d(64, 3, kernel_size=(3, 3), stride=(1, 1), padding=(1, 1))
    )
  )
  (Estimator): Estimator(
    (head_LR): Conv2d(3, 32, kernel_size=(1, 1), stride=(1, 1))
    (head_HR): Conv2d(3, 32, kernel_size=(9, 9), stride=(2, 2), padding=(4, 4))
    (body): Sequential(
      (0): CRB_Layer(
        (body): Sequential(
          (0): Conv2d(64, 64, kernel_size=(3, 3), stride=(1, 1), padding=(1, 1))
          (1): LeakyReLU(negative_slope=0.2, inplace=True)
          (2): Conv2d(64, 32, kernel_size=(3, 3), stride=(1, 1), padding=(1, 1))
          (3): CALayer(
            (body): Sequential(
              (0): Conv2d(32, 2, kernel_size=(1, 1), stride=(1, 1))
              (1): LeakyReLU(negative_slope=0.2)
              (2): Conv2d(2, 32, kernel_size=(1, 1), stride=(1, 1))
              (3): Sigmoid()
            )
            (avg): AdaptiveAvgPool2d(output_size=1)
          )
        )
      )
      (1): CRB_Layer(
        (body): Sequential(
          (0): Conv2d(64, 64, kernel_size=(3, 3), stride=(1, 1), padding=(1, 1))
          (1): LeakyReLU(negative_slope=0.2, inplace=True)
          (2): Conv2d(64, 32, kernel_size=(3, 3), stride=(1, 1), padding=(1, 1))
          (3): CALayer(
            (body): Sequential(
              (0): Conv2d(32, 2, kernel_size=(1, 1), stride=(1, 1))
              (1): LeakyReLU(negative_slope=0.2)
              (2): Conv2d(2, 32, kernel_size=(1, 1), stride=(1, 1))
              (3): Sigmoid()
            )
            (avg): AdaptiveAvgPool2d(output_size=1)
          )
        )
      )
      (2): CRB_Layer(
        (body): Sequential(
          (0): Conv2d(64, 64, kernel_size=(3, 3), stride=(1, 1), padding=(1, 1))
          (1): LeakyReLU(negative_slope=0.2, inplace=True)
          (2): Conv2d(64, 32, kernel_size=(3, 3), stride=(1, 1), padding=(1, 1))
          (3): CALayer(
            (body): Sequential(
              (0): Conv2d(32, 2, kernel_size=(1, 1), stride=(1, 1))
              (1): LeakyReLU(negative_slope=0.2)
              (2): Conv2d(2, 32, kernel_size=(1, 1), stride=(1, 1))
              (3): Sigmoid()
            )
            (avg): AdaptiveAvgPool2d(output_size=1)
          )
        )
      )
      (3): CRB_Layer(
        (body): Sequential(
          (0): Conv2d(64, 64, kernel_size=(3, 3), stride=(1, 1), padding=(1, 1))
          (1): LeakyReLU(negative_slope=0.2, inplace=True)
          (2): Conv2d(64, 32, kernel_size=(3, 3), stride=(1, 1), padding=(1, 1))
          (3): CALayer(
            (body): Sequential(
              (0): Conv2d(32, 2, kernel_size=(1, 1), stride=(1, 1))
              (1): LeakyReLU(negative_slope=0.2)
              (2): Conv2d(2, 32, kernel_size=(1, 1), stride=(1, 1))
              (3): Sigmoid()
            )
            (avg): AdaptiveAvgPool2d(output_size=1)
          )
        )
      )
      (4): CRB_Layer(
        (body): Sequential(
          (0): Conv2d(64, 64, kernel_size=(3, 3), stride=(1, 1), padding=(1, 1))
          (1): LeakyReLU(negative_slope=0.2, inplace=True)
          (2): Conv2d(64, 32, kernel_size=(3, 3), stride=(1, 1), padding=(1, 1))
          (3): CALayer(
            (body): Sequential(
              (0): Conv2d(32, 2, kernel_size=(1, 1), stride=(1, 1))
              (1): LeakyReLU(negative_slope=0.2)
              (2): Conv2d(2, 32, kernel_size=(1, 1), stride=(1, 1))
              (3): Sigmoid()
            )
            (avg): AdaptiveAvgPool2d(output_size=1)
          )
        )
      )
    )
    (out): Conv2d(32, 10, kernel_size=(3, 3), stride=(1, 1), padding=(1, 1))
    (globalPooling): AdaptiveAvgPool2d(output_size=(1, 1))
  )
)
21-07-21 13:44:46.712 - INFO: Model [B_Model] is created.
21-07-21 13:45:48.941 - INFO: Path already exists. Rename it to [/content/DAN/experiments/DANv1/DANx2_setting1_archived_210721-134548]
21-07-21 13:45:49.007 - INFO: Dataset [GTDataset - DIV2K] is created.
21-07-21 13:45:49.010 - INFO: Dataset [LQGTDataset - DIV2KRK] is created.
21-07-21 13:45:49.150 - INFO: Network G structure: DataParallel - DAN, with parameters: 4,181,799
21-07-21 13:45:49.150 - INFO: DAN(
  (Restorer): Restorer(
    (head): Conv2d(3, 64, kernel_size=(3, 3), stride=(1, 1), padding=(1, 1))
    (body): Sequential(
      (0): CRB_Layer(
        (body): Sequential(
          (0): Conv2d(74, 74, kernel_size=(3, 3), stride=(1, 1), padding=(1, 1))
          (1): LeakyReLU(negative_slope=0.2, inplace=True)
          (2): Conv2d(74, 64, kernel_size=(3, 3), stride=(1, 1), padding=(1, 1))
          (3): CALayer(
            (body): Sequential(
              (0): Conv2d(64, 4, kernel_size=(1, 1), stride=(1, 1))
              (1): LeakyReLU(negative_slope=0.2)
              (2): Conv2d(4, 64, kernel_size=(1, 1), stride=(1, 1))
              (3): Sigmoid()
            )
            (avg): AdaptiveAvgPool2d(output_size=1)
          )
        )
      )
      (1): CRB_Layer(
        (body): Sequential(
          (0): Conv2d(74, 74, kernel_size=(3, 3), stride=(1, 1), padding=(1, 1))
          (1): LeakyReLU(negative_slope=0.2, inplace=True)
          (2): Conv2d(74, 64, kernel_size=(3, 3), stride=(1, 1), padding=(1, 1))
          (3): CALayer(
            (body): Sequential(
              (0): Conv2d(64, 4, kernel_size=(1, 1), stride=(1, 1))
              (1): LeakyReLU(negative_slope=0.2)
              (2): Conv2d(4, 64, kernel_size=(1, 1), stride=(1, 1))
              (3): Sigmoid()
            )
            (avg): AdaptiveAvgPool2d(output_size=1)
          )
        )
      )
      (2): CRB_Layer(
        (body): Sequential(
          (0): Conv2d(74, 74, kernel_size=(3, 3), stride=(1, 1), padding=(1, 1))
          (1): LeakyReLU(negative_slope=0.2, inplace=True)
          (2): Conv2d(74, 64, kernel_size=(3, 3), stride=(1, 1), padding=(1, 1))
          (3): CALayer(
            (body): Sequential(
              (0): Conv2d(64, 4, kernel_size=(1, 1), stride=(1, 1))
              (1): LeakyReLU(negative_slope=0.2)
              (2): Conv2d(4, 64, kernel_size=(1, 1), stride=(1, 1))
              (3): Sigmoid()
            )
            (avg): AdaptiveAvgPool2d(output_size=1)
          )
        )
      )
      (3): CRB_Layer(
        (body): Sequential(
          (0): Conv2d(74, 74, kernel_size=(3, 3), stride=(1, 1), padding=(1, 1))
          (1): LeakyReLU(negative_slope=0.2, inplace=True)
          (2): Conv2d(74, 64, kernel_size=(3, 3), stride=(1, 1), padding=(1, 1))
          (3): CALayer(
            (body): Sequential(
              (0): Conv2d(64, 4, kernel_size=(1, 1), stride=(1, 1))
              (1): LeakyReLU(negative_slope=0.2)
              (2): Conv2d(4, 64, kernel_size=(1, 1), stride=(1, 1))
              (3): Sigmoid()
            )
            (avg): AdaptiveAvgPool2d(output_size=1)
          )
        )
      )
      (4): CRB_Layer(
        (body): Sequential(
          (0): Conv2d(74, 74, kernel_size=(3, 3), stride=(1, 1), padding=(1, 1))
          (1): LeakyReLU(negative_slope=0.2, inplace=True)
          (2): Conv2d(74, 64, kernel_size=(3, 3), stride=(1, 1), padding=(1, 1))
          (3): CALayer(
            (body): Sequential(
              (0): Conv2d(64, 4, kernel_size=(1, 1), stride=(1, 1))
              (1): LeakyReLU(negative_slope=0.2)
              (2): Conv2d(4, 64, kernel_size=(1, 1), stride=(1, 1))
              (3): Sigmoid()
            )
            (avg): AdaptiveAvgPool2d(output_size=1)
          )
        )
      )
      (5): CRB_Layer(
        (body): Sequential(
          (0): Conv2d(74, 74, kernel_size=(3, 3), stride=(1, 1), padding=(1, 1))
          (1): LeakyReLU(negative_slope=0.2, inplace=True)
          (2): Conv2d(74, 64, kernel_size=(3, 3), stride=(1, 1), padding=(1, 1))
          (3): CALayer(
            (body): Sequential(
              (0): Conv2d(64, 4, kernel_size=(1, 1), stride=(1, 1))
              (1): LeakyReLU(negative_slope=0.2)
              (2): Conv2d(4, 64, kernel_size=(1, 1), stride=(1, 1))
              (3): Sigmoid()
            )
            (avg): AdaptiveAvgPool2d(output_size=1)
          )
        )
      )
      (6): CRB_Layer(
        (body): Sequential(
          (0): Conv2d(74, 74, kernel_size=(3, 3), stride=(1, 1), padding=(1, 1))
          (1): LeakyReLU(negative_slope=0.2, inplace=True)
          (2): Conv2d(74, 64, kernel_size=(3, 3), stride=(1, 1), padding=(1, 1))
          (3): CALayer(
            (body): Sequential(
              (0): Conv2d(64, 4, kernel_size=(1, 1), stride=(1, 1))
              (1): LeakyReLU(negative_slope=0.2)
              (2): Conv2d(4, 64, kernel_size=(1, 1), stride=(1, 1))
              (3): Sigmoid()
            )
            (avg): AdaptiveAvgPool2d(output_size=1)
          )
        )
      )
      (7): CRB_Layer(
        (body): Sequential(
          (0): Conv2d(74, 74, kernel_size=(3, 3), stride=(1, 1), padding=(1, 1))
          (1): LeakyReLU(negative_slope=0.2, inplace=True)
          (2): Conv2d(74, 64, kernel_size=(3, 3), stride=(1, 1), padding=(1, 1))
          (3): CALayer(
            (body): Sequential(
              (0): Conv2d(64, 4, kernel_size=(1, 1), stride=(1, 1))
              (1): LeakyReLU(negative_slope=0.2)
              (2): Conv2d(4, 64, kernel_size=(1, 1), stride=(1, 1))
              (3): Sigmoid()
            )
            (avg): AdaptiveAvgPool2d(output_size=1)
          )
        )
      )
      (8): CRB_Layer(
        (body): Sequential(
          (0): Conv2d(74, 74, kernel_size=(3, 3), stride=(1, 1), padding=(1, 1))
          (1): LeakyReLU(negative_slope=0.2, inplace=True)
          (2): Conv2d(74, 64, kernel_size=(3, 3), stride=(1, 1), padding=(1, 1))
          (3): CALayer(
            (body): Sequential(
              (0): Conv2d(64, 4, kernel_size=(1, 1), stride=(1, 1))
              (1): LeakyReLU(negative_slope=0.2)
              (2): Conv2d(4, 64, kernel_size=(1, 1), stride=(1, 1))
              (3): Sigmoid()
            )
            (avg): AdaptiveAvgPool2d(output_size=1)
          )
        )
      )
      (9): CRB_Layer(
        (body): Sequential(
          (0): Conv2d(74, 74, kernel_size=(3, 3), stride=(1, 1), padding=(1, 1))
          (1): LeakyReLU(negative_slope=0.2, inplace=True)
          (2): Conv2d(74, 64, kernel_size=(3, 3), stride=(1, 1), padding=(1, 1))
          (3): CALayer(
            (body): Sequential(
              (0): Conv2d(64, 4, kernel_size=(1, 1), stride=(1, 1))
              (1): LeakyReLU(negative_slope=0.2)
              (2): Conv2d(4, 64, kernel_size=(1, 1), stride=(1, 1))
              (3): Sigmoid()
            )
            (avg): AdaptiveAvgPool2d(output_size=1)
          )
        )
      )
      (10): CRB_Layer(
        (body): Sequential(
          (0): Conv2d(74, 74, kernel_size=(3, 3), stride=(1, 1), padding=(1, 1))
          (1): LeakyReLU(negative_slope=0.2, inplace=True)
          (2): Conv2d(74, 64, kernel_size=(3, 3), stride=(1, 1), padding=(1, 1))
          (3): CALayer(
            (body): Sequential(
              (0): Conv2d(64, 4, kernel_size=(1, 1), stride=(1, 1))
              (1): LeakyReLU(negative_slope=0.2)
              (2): Conv2d(4, 64, kernel_size=(1, 1), stride=(1, 1))
              (3): Sigmoid()
            )
            (avg): AdaptiveAvgPool2d(output_size=1)
          )
        )
      )
      (11): CRB_Layer(
        (body): Sequential(
          (0): Conv2d(74, 74, kernel_size=(3, 3), stride=(1, 1), padding=(1, 1))
          (1): LeakyReLU(negative_slope=0.2, inplace=True)
          (2): Conv2d(74, 64, kernel_size=(3, 3), stride=(1, 1), padding=(1, 1))
          (3): CALayer(
            (body): Sequential(
              (0): Conv2d(64, 4, kernel_size=(1, 1), stride=(1, 1))
              (1): LeakyReLU(negative_slope=0.2)
              (2): Conv2d(4, 64, kernel_size=(1, 1), stride=(1, 1))
              (3): Sigmoid()
            )
            (avg): AdaptiveAvgPool2d(output_size=1)
          )
        )
      )
      (12): CRB_Layer(
        (body): Sequential(
          (0): Conv2d(74, 74, kernel_size=(3, 3), stride=(1, 1), padding=(1, 1))
          (1): LeakyReLU(negative_slope=0.2, inplace=True)
          (2): Conv2d(74, 64, kernel_size=(3, 3), stride=(1, 1), padding=(1, 1))
          (3): CALayer(
            (body): Sequential(
              (0): Conv2d(64, 4, kernel_size=(1, 1), stride=(1, 1))
              (1): LeakyReLU(negative_slope=0.2)
              (2): Conv2d(4, 64, kernel_size=(1, 1), stride=(1, 1))
              (3): Sigmoid()
            )
            (avg): AdaptiveAvgPool2d(output_size=1)
          )
        )
      )
      (13): CRB_Layer(
        (body): Sequential(
          (0): Conv2d(74, 74, kernel_size=(3, 3), stride=(1, 1), padding=(1, 1))
          (1): LeakyReLU(negative_slope=0.2, inplace=True)
          (2): Conv2d(74, 64, kernel_size=(3, 3), stride=(1, 1), padding=(1, 1))
          (3): CALayer(
            (body): Sequential(
              (0): Conv2d(64, 4, kernel_size=(1, 1), stride=(1, 1))
              (1): LeakyReLU(negative_slope=0.2)
              (2): Conv2d(4, 64, kernel_size=(1, 1), stride=(1, 1))
              (3): Sigmoid()
            )
            (avg): AdaptiveAvgPool2d(output_size=1)
          )
        )
      )
      (14): CRB_Layer(
        (body): Sequential(
          (0): Conv2d(74, 74, kernel_size=(3, 3), stride=(1, 1), padding=(1, 1))
          (1): LeakyReLU(negative_slope=0.2, inplace=True)
          (2): Conv2d(74, 64, kernel_size=(3, 3), stride=(1, 1), padding=(1, 1))
          (3): CALayer(
            (body): Sequential(
              (0): Conv2d(64, 4, kernel_size=(1, 1), stride=(1, 1))
              (1): LeakyReLU(negative_slope=0.2)
              (2): Conv2d(4, 64, kernel_size=(1, 1), stride=(1, 1))
              (3): Sigmoid()
            )
            (avg): AdaptiveAvgPool2d(output_size=1)
          )
        )
      )
      (15): CRB_Layer(
        (body): Sequential(
          (0): Conv2d(74, 74, kernel_size=(3, 3), stride=(1, 1), padding=(1, 1))
          (1): LeakyReLU(negative_slope=0.2, inplace=True)
          (2): Conv2d(74, 64, kernel_size=(3, 3), stride=(1, 1), padding=(1, 1))
          (3): CALayer(
            (body): Sequential(
              (0): Conv2d(64, 4, kernel_size=(1, 1), stride=(1, 1))
              (1): LeakyReLU(negative_slope=0.2)
              (2): Conv2d(4, 64, kernel_size=(1, 1), stride=(1, 1))
              (3): Sigmoid()
            )
            (avg): AdaptiveAvgPool2d(output_size=1)
          )
        )
      )
      (16): CRB_Layer(
        (body): Sequential(
          (0): Conv2d(74, 74, kernel_size=(3, 3), stride=(1, 1), padding=(1, 1))
          (1): LeakyReLU(negative_slope=0.2, inplace=True)
          (2): Conv2d(74, 64, kernel_size=(3, 3), stride=(1, 1), padding=(1, 1))
          (3): CALayer(
            (body): Sequential(
              (0): Conv2d(64, 4, kernel_size=(1, 1), stride=(1, 1))
              (1): LeakyReLU(negative_slope=0.2)
              (2): Conv2d(4, 64, kernel_size=(1, 1), stride=(1, 1))
              (3): Sigmoid()
            )
            (avg): AdaptiveAvgPool2d(output_size=1)
          )
        )
      )
      (17): CRB_Layer(
        (body): Sequential(
          (0): Conv2d(74, 74, kernel_size=(3, 3), stride=(1, 1), padding=(1, 1))
          (1): LeakyReLU(negative_slope=0.2, inplace=True)
          (2): Conv2d(74, 64, kernel_size=(3, 3), stride=(1, 1), padding=(1, 1))
          (3): CALayer(
            (body): Sequential(
              (0): Conv2d(64, 4, kernel_size=(1, 1), stride=(1, 1))
              (1): LeakyReLU(negative_slope=0.2)
              (2): Conv2d(4, 64, kernel_size=(1, 1), stride=(1, 1))
              (3): Sigmoid()
            )
            (avg): AdaptiveAvgPool2d(output_size=1)
          )
        )
      )
      (18): CRB_Layer(
        (body): Sequential(
          (0): Conv2d(74, 74, kernel_size=(3, 3), stride=(1, 1), padding=(1, 1))
          (1): LeakyReLU(negative_slope=0.2, inplace=True)
          (2): Conv2d(74, 64, kernel_size=(3, 3), stride=(1, 1), padding=(1, 1))
          (3): CALayer(
            (body): Sequential(
              (0): Conv2d(64, 4, kernel_size=(1, 1), stride=(1, 1))
              (1): LeakyReLU(negative_slope=0.2)
              (2): Conv2d(4, 64, kernel_size=(1, 1), stride=(1, 1))
              (3): Sigmoid()
            )
            (avg): AdaptiveAvgPool2d(output_size=1)
          )
        )
      )
      (19): CRB_Layer(
        (body): Sequential(
          (0): Conv2d(74, 74, kernel_size=(3, 3), stride=(1, 1), padding=(1, 1))
          (1): LeakyReLU(negative_slope=0.2, inplace=True)
          (2): Conv2d(74, 64, kernel_size=(3, 3), stride=(1, 1), padding=(1, 1))
          (3): CALayer(
            (body): Sequential(
              (0): Conv2d(64, 4, kernel_size=(1, 1), stride=(1, 1))
              (1): LeakyReLU(negative_slope=0.2)
              (2): Conv2d(4, 64, kernel_size=(1, 1), stride=(1, 1))
              (3): Sigmoid()
            )
            (avg): AdaptiveAvgPool2d(output_size=1)
          )
        )
      )
      (20): CRB_Layer(
        (body): Sequential(
          (0): Conv2d(74, 74, kernel_size=(3, 3), stride=(1, 1), padding=(1, 1))
          (1): LeakyReLU(negative_slope=0.2, inplace=True)
          (2): Conv2d(74, 64, kernel_size=(3, 3), stride=(1, 1), padding=(1, 1))
          (3): CALayer(
            (body): Sequential(
              (0): Conv2d(64, 4, kernel_size=(1, 1), stride=(1, 1))
              (1): LeakyReLU(negative_slope=0.2)
              (2): Conv2d(4, 64, kernel_size=(1, 1), stride=(1, 1))
              (3): Sigmoid()
            )
            (avg): AdaptiveAvgPool2d(output_size=1)
          )
        )
      )
      (21): CRB_Layer(
        (body): Sequential(
          (0): Conv2d(74, 74, kernel_size=(3, 3), stride=(1, 1), padding=(1, 1))
          (1): LeakyReLU(negative_slope=0.2, inplace=True)
          (2): Conv2d(74, 64, kernel_size=(3, 3), stride=(1, 1), padding=(1, 1))
          (3): CALayer(
            (body): Sequential(
              (0): Conv2d(64, 4, kernel_size=(1, 1), stride=(1, 1))
              (1): LeakyReLU(negative_slope=0.2)
              (2): Conv2d(4, 64, kernel_size=(1, 1), stride=(1, 1))
              (3): Sigmoid()
            )
            (avg): AdaptiveAvgPool2d(output_size=1)
          )
        )
      )
      (22): CRB_Layer(
        (body): Sequential(
          (0): Conv2d(74, 74, kernel_size=(3, 3), stride=(1, 1), padding=(1, 1))
          (1): LeakyReLU(negative_slope=0.2, inplace=True)
          (2): Conv2d(74, 64, kernel_size=(3, 3), stride=(1, 1), padding=(1, 1))
          (3): CALayer(
            (body): Sequential(
              (0): Conv2d(64, 4, kernel_size=(1, 1), stride=(1, 1))
              (1): LeakyReLU(negative_slope=0.2)
              (2): Conv2d(4, 64, kernel_size=(1, 1), stride=(1, 1))
              (3): Sigmoid()
            )
            (avg): AdaptiveAvgPool2d(output_size=1)
          )
        )
      )
      (23): CRB_Layer(
        (body): Sequential(
          (0): Conv2d(74, 74, kernel_size=(3, 3), stride=(1, 1), padding=(1, 1))
          (1): LeakyReLU(negative_slope=0.2, inplace=True)
          (2): Conv2d(74, 64, kernel_size=(3, 3), stride=(1, 1), padding=(1, 1))
          (3): CALayer(
            (body): Sequential(
              (0): Conv2d(64, 4, kernel_size=(1, 1), stride=(1, 1))
              (1): LeakyReLU(negative_slope=0.2)
              (2): Conv2d(4, 64, kernel_size=(1, 1), stride=(1, 1))
              (3): Sigmoid()
            )
            (avg): AdaptiveAvgPool2d(output_size=1)
          )
        )
      )
      (24): CRB_Layer(
        (body): Sequential(
          (0): Conv2d(74, 74, kernel_size=(3, 3), stride=(1, 1), padding=(1, 1))
          (1): LeakyReLU(negative_slope=0.2, inplace=True)
          (2): Conv2d(74, 64, kernel_size=(3, 3), stride=(1, 1), padding=(1, 1))
          (3): CALayer(
            (body): Sequential(
              (0): Conv2d(64, 4, kernel_size=(1, 1), stride=(1, 1))
              (1): LeakyReLU(negative_slope=0.2)
              (2): Conv2d(4, 64, kernel_size=(1, 1), stride=(1, 1))
              (3): Sigmoid()
            )
            (avg): AdaptiveAvgPool2d(output_size=1)
          )
        )
      )
      (25): CRB_Layer(
        (body): Sequential(
          (0): Conv2d(74, 74, kernel_size=(3, 3), stride=(1, 1), padding=(1, 1))
          (1): LeakyReLU(negative_slope=0.2, inplace=True)
          (2): Conv2d(74, 64, kernel_size=(3, 3), stride=(1, 1), padding=(1, 1))
          (3): CALayer(
            (body): Sequential(
              (0): Conv2d(64, 4, kernel_size=(1, 1), stride=(1, 1))
              (1): LeakyReLU(negative_slope=0.2)
              (2): Conv2d(4, 64, kernel_size=(1, 1), stride=(1, 1))
              (3): Sigmoid()
            )
            (avg): AdaptiveAvgPool2d(output_size=1)
          )
        )
      )
      (26): CRB_Layer(
        (body): Sequential(
          (0): Conv2d(74, 74, kernel_size=(3, 3), stride=(1, 1), padding=(1, 1))
          (1): LeakyReLU(negative_slope=0.2, inplace=True)
          (2): Conv2d(74, 64, kernel_size=(3, 3), stride=(1, 1), padding=(1, 1))
          (3): CALayer(
            (body): Sequential(
              (0): Conv2d(64, 4, kernel_size=(1, 1), stride=(1, 1))
              (1): LeakyReLU(negative_slope=0.2)
              (2): Conv2d(4, 64, kernel_size=(1, 1), stride=(1, 1))
              (3): Sigmoid()
            )
            (avg): AdaptiveAvgPool2d(output_size=1)
          )
        )
      )
      (27): CRB_Layer(
        (body): Sequential(
          (0): Conv2d(74, 74, kernel_size=(3, 3), stride=(1, 1), padding=(1, 1))
          (1): LeakyReLU(negative_slope=0.2, inplace=True)
          (2): Conv2d(74, 64, kernel_size=(3, 3), stride=(1, 1), padding=(1, 1))
          (3): CALayer(
            (body): Sequential(
              (0): Conv2d(64, 4, kernel_size=(1, 1), stride=(1, 1))
              (1): LeakyReLU(negative_slope=0.2)
              (2): Conv2d(4, 64, kernel_size=(1, 1), stride=(1, 1))
              (3): Sigmoid()
            )
            (avg): AdaptiveAvgPool2d(output_size=1)
          )
        )
      )
      (28): CRB_Layer(
        (body): Sequential(
          (0): Conv2d(74, 74, kernel_size=(3, 3), stride=(1, 1), padding=(1, 1))
          (1): LeakyReLU(negative_slope=0.2, inplace=True)
          (2): Conv2d(74, 64, kernel_size=(3, 3), stride=(1, 1), padding=(1, 1))
          (3): CALayer(
            (body): Sequential(
              (0): Conv2d(64, 4, kernel_size=(1, 1), stride=(1, 1))
              (1): LeakyReLU(negative_slope=0.2)
              (2): Conv2d(4, 64, kernel_size=(1, 1), stride=(1, 1))
              (3): Sigmoid()
            )
            (avg): AdaptiveAvgPool2d(output_size=1)
          )
        )
      )
      (29): CRB_Layer(
        (body): Sequential(
          (0): Conv2d(74, 74, kernel_size=(3, 3), stride=(1, 1), padding=(1, 1))
          (1): LeakyReLU(negative_slope=0.2, inplace=True)
          (2): Conv2d(74, 64, kernel_size=(3, 3), stride=(1, 1), padding=(1, 1))
          (3): CALayer(
            (body): Sequential(
              (0): Conv2d(64, 4, kernel_size=(1, 1), stride=(1, 1))
              (1): LeakyReLU(negative_slope=0.2)
              (2): Conv2d(4, 64, kernel_size=(1, 1), stride=(1, 1))
              (3): Sigmoid()
            )
            (avg): AdaptiveAvgPool2d(output_size=1)
          )
        )
      )
      (30): CRB_Layer(
        (body): Sequential(
          (0): Conv2d(74, 74, kernel_size=(3, 3), stride=(1, 1), padding=(1, 1))
          (1): LeakyReLU(negative_slope=0.2, inplace=True)
          (2): Conv2d(74, 64, kernel_size=(3, 3), stride=(1, 1), padding=(1, 1))
          (3): CALayer(
            (body): Sequential(
              (0): Conv2d(64, 4, kernel_size=(1, 1), stride=(1, 1))
              (1): LeakyReLU(negative_slope=0.2)
              (2): Conv2d(4, 64, kernel_size=(1, 1), stride=(1, 1))
              (3): Sigmoid()
            )
            (avg): AdaptiveAvgPool2d(output_size=1)
          )
        )
      )
      (31): CRB_Layer(
        (body): Sequential(
          (0): Conv2d(74, 74, kernel_size=(3, 3), stride=(1, 1), padding=(1, 1))
          (1): LeakyReLU(negative_slope=0.2, inplace=True)
          (2): Conv2d(74, 64, kernel_size=(3, 3), stride=(1, 1), padding=(1, 1))
          (3): CALayer(
            (body): Sequential(
              (0): Conv2d(64, 4, kernel_size=(1, 1), stride=(1, 1))
              (1): LeakyReLU(negative_slope=0.2)
              (2): Conv2d(4, 64, kernel_size=(1, 1), stride=(1, 1))
              (3): Sigmoid()
            )
            (avg): AdaptiveAvgPool2d(output_size=1)
          )
        )
      )
      (32): CRB_Layer(
        (body): Sequential(
          (0): Conv2d(74, 74, kernel_size=(3, 3), stride=(1, 1), padding=(1, 1))
          (1): LeakyReLU(negative_slope=0.2, inplace=True)
          (2): Conv2d(74, 64, kernel_size=(3, 3), stride=(1, 1), padding=(1, 1))
          (3): CALayer(
            (body): Sequential(
              (0): Conv2d(64, 4, kernel_size=(1, 1), stride=(1, 1))
              (1): LeakyReLU(negative_slope=0.2)
              (2): Conv2d(4, 64, kernel_size=(1, 1), stride=(1, 1))
              (3): Sigmoid()
            )
            (avg): AdaptiveAvgPool2d(output_size=1)
          )
        )
      )
      (33): CRB_Layer(
        (body): Sequential(
          (0): Conv2d(74, 74, kernel_size=(3, 3), stride=(1, 1), padding=(1, 1))
          (1): LeakyReLU(negative_slope=0.2, inplace=True)
          (2): Conv2d(74, 64, kernel_size=(3, 3), stride=(1, 1), padding=(1, 1))
          (3): CALayer(
            (body): Sequential(
              (0): Conv2d(64, 4, kernel_size=(1, 1), stride=(1, 1))
              (1): LeakyReLU(negative_slope=0.2)
              (2): Conv2d(4, 64, kernel_size=(1, 1), stride=(1, 1))
              (3): Sigmoid()
            )
            (avg): AdaptiveAvgPool2d(output_size=1)
          )
        )
      )
      (34): CRB_Layer(
        (body): Sequential(
          (0): Conv2d(74, 74, kernel_size=(3, 3), stride=(1, 1), padding=(1, 1))
          (1): LeakyReLU(negative_slope=0.2, inplace=True)
          (2): Conv2d(74, 64, kernel_size=(3, 3), stride=(1, 1), padding=(1, 1))
          (3): CALayer(
            (body): Sequential(
              (0): Conv2d(64, 4, kernel_size=(1, 1), stride=(1, 1))
              (1): LeakyReLU(negative_slope=0.2)
              (2): Conv2d(4, 64, kernel_size=(1, 1), stride=(1, 1))
              (3): Sigmoid()
            )
            (avg): AdaptiveAvgPool2d(output_size=1)
          )
        )
      )
      (35): CRB_Layer(
        (body): Sequential(
          (0): Conv2d(74, 74, kernel_size=(3, 3), stride=(1, 1), padding=(1, 1))
          (1): LeakyReLU(negative_slope=0.2, inplace=True)
          (2): Conv2d(74, 64, kernel_size=(3, 3), stride=(1, 1), padding=(1, 1))
          (3): CALayer(
            (body): Sequential(
              (0): Conv2d(64, 4, kernel_size=(1, 1), stride=(1, 1))
              (1): LeakyReLU(negative_slope=0.2)
              (2): Conv2d(4, 64, kernel_size=(1, 1), stride=(1, 1))
              (3): Sigmoid()
            )
            (avg): AdaptiveAvgPool2d(output_size=1)
          )
        )
      )
      (36): CRB_Layer(
        (body): Sequential(
          (0): Conv2d(74, 74, kernel_size=(3, 3), stride=(1, 1), padding=(1, 1))
          (1): LeakyReLU(negative_slope=0.2, inplace=True)
          (2): Conv2d(74, 64, kernel_size=(3, 3), stride=(1, 1), padding=(1, 1))
          (3): CALayer(
            (body): Sequential(
              (0): Conv2d(64, 4, kernel_size=(1, 1), stride=(1, 1))
              (1): LeakyReLU(negative_slope=0.2)
              (2): Conv2d(4, 64, kernel_size=(1, 1), stride=(1, 1))
              (3): Sigmoid()
            )
            (avg): AdaptiveAvgPool2d(output_size=1)
          )
        )
      )
      (37): CRB_Layer(
        (body): Sequential(
          (0): Conv2d(74, 74, kernel_size=(3, 3), stride=(1, 1), padding=(1, 1))
          (1): LeakyReLU(negative_slope=0.2, inplace=True)
          (2): Conv2d(74, 64, kernel_size=(3, 3), stride=(1, 1), padding=(1, 1))
          (3): CALayer(
            (body): Sequential(
              (0): Conv2d(64, 4, kernel_size=(1, 1), stride=(1, 1))
              (1): LeakyReLU(negative_slope=0.2)
              (2): Conv2d(4, 64, kernel_size=(1, 1), stride=(1, 1))
              (3): Sigmoid()
            )
            (avg): AdaptiveAvgPool2d(output_size=1)
          )
        )
      )
      (38): CRB_Layer(
        (body): Sequential(
          (0): Conv2d(74, 74, kernel_size=(3, 3), stride=(1, 1), padding=(1, 1))
          (1): LeakyReLU(negative_slope=0.2, inplace=True)
          (2): Conv2d(74, 64, kernel_size=(3, 3), stride=(1, 1), padding=(1, 1))
          (3): CALayer(
            (body): Sequential(
              (0): Conv2d(64, 4, kernel_size=(1, 1), stride=(1, 1))
              (1): LeakyReLU(negative_slope=0.2)
              (2): Conv2d(4, 64, kernel_size=(1, 1), stride=(1, 1))
              (3): Sigmoid()
            )
            (avg): AdaptiveAvgPool2d(output_size=1)
          )
        )
      )
      (39): CRB_Layer(
        (body): Sequential(
          (0): Conv2d(74, 74, kernel_size=(3, 3), stride=(1, 1), padding=(1, 1))
          (1): LeakyReLU(negative_slope=0.2, inplace=True)
          (2): Conv2d(74, 64, kernel_size=(3, 3), stride=(1, 1), padding=(1, 1))
          (3): CALayer(
            (body): Sequential(
              (0): Conv2d(64, 4, kernel_size=(1, 1), stride=(1, 1))
              (1): LeakyReLU(negative_slope=0.2)
              (2): Conv2d(4, 64, kernel_size=(1, 1), stride=(1, 1))
              (3): Sigmoid()
            )
            (avg): AdaptiveAvgPool2d(output_size=1)
          )
        )
      )
    )
    (fusion): Conv2d(64, 64, kernel_size=(3, 3), stride=(1, 1), padding=(1, 1))
    (upscale): Sequential(
      (0): Conv2d(64, 256, kernel_size=(3, 3), stride=(1, 1), padding=(1, 1))
      (1): PixelShuffle(upscale_factor=2)
      (2): Conv2d(64, 3, kernel_size=(3, 3), stride=(1, 1), padding=(1, 1))
    )
  )
  (Estimator): Estimator(
    (head_LR): Conv2d(3, 32, kernel_size=(1, 1), stride=(1, 1))
    (head_HR): Conv2d(3, 32, kernel_size=(9, 9), stride=(2, 2), padding=(4, 4))
    (body): Sequential(
      (0): CRB_Layer(
        (body): Sequential(
          (0): Conv2d(64, 64, kernel_size=(3, 3), stride=(1, 1), padding=(1, 1))
          (1): LeakyReLU(negative_slope=0.2, inplace=True)
          (2): Conv2d(64, 32, kernel_size=(3, 3), stride=(1, 1), padding=(1, 1))
          (3): CALayer(
            (body): Sequential(
              (0): Conv2d(32, 2, kernel_size=(1, 1), stride=(1, 1))
              (1): LeakyReLU(negative_slope=0.2)
              (2): Conv2d(2, 32, kernel_size=(1, 1), stride=(1, 1))
              (3): Sigmoid()
            )
            (avg): AdaptiveAvgPool2d(output_size=1)
          )
        )
      )
      (1): CRB_Layer(
        (body): Sequential(
          (0): Conv2d(64, 64, kernel_size=(3, 3), stride=(1, 1), padding=(1, 1))
          (1): LeakyReLU(negative_slope=0.2, inplace=True)
          (2): Conv2d(64, 32, kernel_size=(3, 3), stride=(1, 1), padding=(1, 1))
          (3): CALayer(
            (body): Sequential(
              (0): Conv2d(32, 2, kernel_size=(1, 1), stride=(1, 1))
              (1): LeakyReLU(negative_slope=0.2)
              (2): Conv2d(2, 32, kernel_size=(1, 1), stride=(1, 1))
              (3): Sigmoid()
            )
            (avg): AdaptiveAvgPool2d(output_size=1)
          )
        )
      )
      (2): CRB_Layer(
        (body): Sequential(
          (0): Conv2d(64, 64, kernel_size=(3, 3), stride=(1, 1), padding=(1, 1))
          (1): LeakyReLU(negative_slope=0.2, inplace=True)
          (2): Conv2d(64, 32, kernel_size=(3, 3), stride=(1, 1), padding=(1, 1))
          (3): CALayer(
            (body): Sequential(
              (0): Conv2d(32, 2, kernel_size=(1, 1), stride=(1, 1))
              (1): LeakyReLU(negative_slope=0.2)
              (2): Conv2d(2, 32, kernel_size=(1, 1), stride=(1, 1))
              (3): Sigmoid()
            )
            (avg): AdaptiveAvgPool2d(output_size=1)
          )
        )
      )
      (3): CRB_Layer(
        (body): Sequential(
          (0): Conv2d(64, 64, kernel_size=(3, 3), stride=(1, 1), padding=(1, 1))
          (1): LeakyReLU(negative_slope=0.2, inplace=True)
          (2): Conv2d(64, 32, kernel_size=(3, 3), stride=(1, 1), padding=(1, 1))
          (3): CALayer(
            (body): Sequential(
              (0): Conv2d(32, 2, kernel_size=(1, 1), stride=(1, 1))
              (1): LeakyReLU(negative_slope=0.2)
              (2): Conv2d(2, 32, kernel_size=(1, 1), stride=(1, 1))
              (3): Sigmoid()
            )
            (avg): AdaptiveAvgPool2d(output_size=1)
          )
        )
      )
      (4): CRB_Layer(
        (body): Sequential(
          (0): Conv2d(64, 64, kernel_size=(3, 3), stride=(1, 1), padding=(1, 1))
          (1): LeakyReLU(negative_slope=0.2, inplace=True)
          (2): Conv2d(64, 32, kernel_size=(3, 3), stride=(1, 1), padding=(1, 1))
          (3): CALayer(
            (body): Sequential(
              (0): Conv2d(32, 2, kernel_size=(1, 1), stride=(1, 1))
              (1): LeakyReLU(negative_slope=0.2)
              (2): Conv2d(2, 32, kernel_size=(1, 1), stride=(1, 1))
              (3): Sigmoid()
            )
            (avg): AdaptiveAvgPool2d(output_size=1)
          )
        )
      )
    )
    (out): Conv2d(32, 10, kernel_size=(3, 3), stride=(1, 1), padding=(1, 1))
    (globalPooling): AdaptiveAvgPool2d(output_size=(1, 1))
  )
)
21-07-21 13:45:49.155 - INFO: Model [B_Model] is created.
21-07-21 13:46:21.618 - INFO: Path already exists. Rename it to [/content/DAN/experiments/DANv1/DANx2_setting1_archived_210721-134621]
21-07-21 13:46:21.685 - INFO: Dataset [GTDataset - DIV2K] is created.
21-07-21 13:46:21.688 - INFO: Dataset [LQGTDataset - DIV2KRK] is created.
21-07-21 13:46:21.819 - INFO: Network G structure: DataParallel - DAN, with parameters: 4,181,799
21-07-21 13:46:21.820 - INFO: DAN(
  (Restorer): Restorer(
    (head): Conv2d(3, 64, kernel_size=(3, 3), stride=(1, 1), padding=(1, 1))
    (body): Sequential(
      (0): CRB_Layer(
        (body): Sequential(
          (0): Conv2d(74, 74, kernel_size=(3, 3), stride=(1, 1), padding=(1, 1))
          (1): LeakyReLU(negative_slope=0.2, inplace=True)
          (2): Conv2d(74, 64, kernel_size=(3, 3), stride=(1, 1), padding=(1, 1))
          (3): CALayer(
            (body): Sequential(
              (0): Conv2d(64, 4, kernel_size=(1, 1), stride=(1, 1))
              (1): LeakyReLU(negative_slope=0.2)
              (2): Conv2d(4, 64, kernel_size=(1, 1), stride=(1, 1))
              (3): Sigmoid()
            )
            (avg): AdaptiveAvgPool2d(output_size=1)
          )
        )
      )
      (1): CRB_Layer(
        (body): Sequential(
          (0): Conv2d(74, 74, kernel_size=(3, 3), stride=(1, 1), padding=(1, 1))
          (1): LeakyReLU(negative_slope=0.2, inplace=True)
          (2): Conv2d(74, 64, kernel_size=(3, 3), stride=(1, 1), padding=(1, 1))
          (3): CALayer(
            (body): Sequential(
              (0): Conv2d(64, 4, kernel_size=(1, 1), stride=(1, 1))
              (1): LeakyReLU(negative_slope=0.2)
              (2): Conv2d(4, 64, kernel_size=(1, 1), stride=(1, 1))
              (3): Sigmoid()
            )
            (avg): AdaptiveAvgPool2d(output_size=1)
          )
        )
      )
      (2): CRB_Layer(
        (body): Sequential(
          (0): Conv2d(74, 74, kernel_size=(3, 3), stride=(1, 1), padding=(1, 1))
          (1): LeakyReLU(negative_slope=0.2, inplace=True)
          (2): Conv2d(74, 64, kernel_size=(3, 3), stride=(1, 1), padding=(1, 1))
          (3): CALayer(
            (body): Sequential(
              (0): Conv2d(64, 4, kernel_size=(1, 1), stride=(1, 1))
              (1): LeakyReLU(negative_slope=0.2)
              (2): Conv2d(4, 64, kernel_size=(1, 1), stride=(1, 1))
              (3): Sigmoid()
            )
            (avg): AdaptiveAvgPool2d(output_size=1)
          )
        )
      )
      (3): CRB_Layer(
        (body): Sequential(
          (0): Conv2d(74, 74, kernel_size=(3, 3), stride=(1, 1), padding=(1, 1))
          (1): LeakyReLU(negative_slope=0.2, inplace=True)
          (2): Conv2d(74, 64, kernel_size=(3, 3), stride=(1, 1), padding=(1, 1))
          (3): CALayer(
            (body): Sequential(
              (0): Conv2d(64, 4, kernel_size=(1, 1), stride=(1, 1))
              (1): LeakyReLU(negative_slope=0.2)
              (2): Conv2d(4, 64, kernel_size=(1, 1), stride=(1, 1))
              (3): Sigmoid()
            )
            (avg): AdaptiveAvgPool2d(output_size=1)
          )
        )
      )
      (4): CRB_Layer(
        (body): Sequential(
          (0): Conv2d(74, 74, kernel_size=(3, 3), stride=(1, 1), padding=(1, 1))
          (1): LeakyReLU(negative_slope=0.2, inplace=True)
          (2): Conv2d(74, 64, kernel_size=(3, 3), stride=(1, 1), padding=(1, 1))
          (3): CALayer(
            (body): Sequential(
              (0): Conv2d(64, 4, kernel_size=(1, 1), stride=(1, 1))
              (1): LeakyReLU(negative_slope=0.2)
              (2): Conv2d(4, 64, kernel_size=(1, 1), stride=(1, 1))
              (3): Sigmoid()
            )
            (avg): AdaptiveAvgPool2d(output_size=1)
          )
        )
      )
      (5): CRB_Layer(
        (body): Sequential(
          (0): Conv2d(74, 74, kernel_size=(3, 3), stride=(1, 1), padding=(1, 1))
          (1): LeakyReLU(negative_slope=0.2, inplace=True)
          (2): Conv2d(74, 64, kernel_size=(3, 3), stride=(1, 1), padding=(1, 1))
          (3): CALayer(
            (body): Sequential(
              (0): Conv2d(64, 4, kernel_size=(1, 1), stride=(1, 1))
              (1): LeakyReLU(negative_slope=0.2)
              (2): Conv2d(4, 64, kernel_size=(1, 1), stride=(1, 1))
              (3): Sigmoid()
            )
            (avg): AdaptiveAvgPool2d(output_size=1)
          )
        )
      )
      (6): CRB_Layer(
        (body): Sequential(
          (0): Conv2d(74, 74, kernel_size=(3, 3), stride=(1, 1), padding=(1, 1))
          (1): LeakyReLU(negative_slope=0.2, inplace=True)
          (2): Conv2d(74, 64, kernel_size=(3, 3), stride=(1, 1), padding=(1, 1))
          (3): CALayer(
            (body): Sequential(
              (0): Conv2d(64, 4, kernel_size=(1, 1), stride=(1, 1))
              (1): LeakyReLU(negative_slope=0.2)
              (2): Conv2d(4, 64, kernel_size=(1, 1), stride=(1, 1))
              (3): Sigmoid()
            )
            (avg): AdaptiveAvgPool2d(output_size=1)
          )
        )
      )
      (7): CRB_Layer(
        (body): Sequential(
          (0): Conv2d(74, 74, kernel_size=(3, 3), stride=(1, 1), padding=(1, 1))
          (1): LeakyReLU(negative_slope=0.2, inplace=True)
          (2): Conv2d(74, 64, kernel_size=(3, 3), stride=(1, 1), padding=(1, 1))
          (3): CALayer(
            (body): Sequential(
              (0): Conv2d(64, 4, kernel_size=(1, 1), stride=(1, 1))
              (1): LeakyReLU(negative_slope=0.2)
              (2): Conv2d(4, 64, kernel_size=(1, 1), stride=(1, 1))
              (3): Sigmoid()
            )
            (avg): AdaptiveAvgPool2d(output_size=1)
          )
        )
      )
      (8): CRB_Layer(
        (body): Sequential(
          (0): Conv2d(74, 74, kernel_size=(3, 3), stride=(1, 1), padding=(1, 1))
          (1): LeakyReLU(negative_slope=0.2, inplace=True)
          (2): Conv2d(74, 64, kernel_size=(3, 3), stride=(1, 1), padding=(1, 1))
          (3): CALayer(
            (body): Sequential(
              (0): Conv2d(64, 4, kernel_size=(1, 1), stride=(1, 1))
              (1): LeakyReLU(negative_slope=0.2)
              (2): Conv2d(4, 64, kernel_size=(1, 1), stride=(1, 1))
              (3): Sigmoid()
            )
            (avg): AdaptiveAvgPool2d(output_size=1)
          )
        )
      )
      (9): CRB_Layer(
        (body): Sequential(
          (0): Conv2d(74, 74, kernel_size=(3, 3), stride=(1, 1), padding=(1, 1))
          (1): LeakyReLU(negative_slope=0.2, inplace=True)
          (2): Conv2d(74, 64, kernel_size=(3, 3), stride=(1, 1), padding=(1, 1))
          (3): CALayer(
            (body): Sequential(
              (0): Conv2d(64, 4, kernel_size=(1, 1), stride=(1, 1))
              (1): LeakyReLU(negative_slope=0.2)
              (2): Conv2d(4, 64, kernel_size=(1, 1), stride=(1, 1))
              (3): Sigmoid()
            )
            (avg): AdaptiveAvgPool2d(output_size=1)
          )
        )
      )
      (10): CRB_Layer(
        (body): Sequential(
          (0): Conv2d(74, 74, kernel_size=(3, 3), stride=(1, 1), padding=(1, 1))
          (1): LeakyReLU(negative_slope=0.2, inplace=True)
          (2): Conv2d(74, 64, kernel_size=(3, 3), stride=(1, 1), padding=(1, 1))
          (3): CALayer(
            (body): Sequential(
              (0): Conv2d(64, 4, kernel_size=(1, 1), stride=(1, 1))
              (1): LeakyReLU(negative_slope=0.2)
              (2): Conv2d(4, 64, kernel_size=(1, 1), stride=(1, 1))
              (3): Sigmoid()
            )
            (avg): AdaptiveAvgPool2d(output_size=1)
          )
        )
      )
      (11): CRB_Layer(
        (body): Sequential(
          (0): Conv2d(74, 74, kernel_size=(3, 3), stride=(1, 1), padding=(1, 1))
          (1): LeakyReLU(negative_slope=0.2, inplace=True)
          (2): Conv2d(74, 64, kernel_size=(3, 3), stride=(1, 1), padding=(1, 1))
          (3): CALayer(
            (body): Sequential(
              (0): Conv2d(64, 4, kernel_size=(1, 1), stride=(1, 1))
              (1): LeakyReLU(negative_slope=0.2)
              (2): Conv2d(4, 64, kernel_size=(1, 1), stride=(1, 1))
              (3): Sigmoid()
            )
            (avg): AdaptiveAvgPool2d(output_size=1)
          )
        )
      )
      (12): CRB_Layer(
        (body): Sequential(
          (0): Conv2d(74, 74, kernel_size=(3, 3), stride=(1, 1), padding=(1, 1))
          (1): LeakyReLU(negative_slope=0.2, inplace=True)
          (2): Conv2d(74, 64, kernel_size=(3, 3), stride=(1, 1), padding=(1, 1))
          (3): CALayer(
            (body): Sequential(
              (0): Conv2d(64, 4, kernel_size=(1, 1), stride=(1, 1))
              (1): LeakyReLU(negative_slope=0.2)
              (2): Conv2d(4, 64, kernel_size=(1, 1), stride=(1, 1))
              (3): Sigmoid()
            )
            (avg): AdaptiveAvgPool2d(output_size=1)
          )
        )
      )
      (13): CRB_Layer(
        (body): Sequential(
          (0): Conv2d(74, 74, kernel_size=(3, 3), stride=(1, 1), padding=(1, 1))
          (1): LeakyReLU(negative_slope=0.2, inplace=True)
          (2): Conv2d(74, 64, kernel_size=(3, 3), stride=(1, 1), padding=(1, 1))
          (3): CALayer(
            (body): Sequential(
              (0): Conv2d(64, 4, kernel_size=(1, 1), stride=(1, 1))
              (1): LeakyReLU(negative_slope=0.2)
              (2): Conv2d(4, 64, kernel_size=(1, 1), stride=(1, 1))
              (3): Sigmoid()
            )
            (avg): AdaptiveAvgPool2d(output_size=1)
          )
        )
      )
      (14): CRB_Layer(
        (body): Sequential(
          (0): Conv2d(74, 74, kernel_size=(3, 3), stride=(1, 1), padding=(1, 1))
          (1): LeakyReLU(negative_slope=0.2, inplace=True)
          (2): Conv2d(74, 64, kernel_size=(3, 3), stride=(1, 1), padding=(1, 1))
          (3): CALayer(
            (body): Sequential(
              (0): Conv2d(64, 4, kernel_size=(1, 1), stride=(1, 1))
              (1): LeakyReLU(negative_slope=0.2)
              (2): Conv2d(4, 64, kernel_size=(1, 1), stride=(1, 1))
              (3): Sigmoid()
            )
            (avg): AdaptiveAvgPool2d(output_size=1)
          )
        )
      )
      (15): CRB_Layer(
        (body): Sequential(
          (0): Conv2d(74, 74, kernel_size=(3, 3), stride=(1, 1), padding=(1, 1))
          (1): LeakyReLU(negative_slope=0.2, inplace=True)
          (2): Conv2d(74, 64, kernel_size=(3, 3), stride=(1, 1), padding=(1, 1))
          (3): CALayer(
            (body): Sequential(
              (0): Conv2d(64, 4, kernel_size=(1, 1), stride=(1, 1))
              (1): LeakyReLU(negative_slope=0.2)
              (2): Conv2d(4, 64, kernel_size=(1, 1), stride=(1, 1))
              (3): Sigmoid()
            )
            (avg): AdaptiveAvgPool2d(output_size=1)
          )
        )
      )
      (16): CRB_Layer(
        (body): Sequential(
          (0): Conv2d(74, 74, kernel_size=(3, 3), stride=(1, 1), padding=(1, 1))
          (1): LeakyReLU(negative_slope=0.2, inplace=True)
          (2): Conv2d(74, 64, kernel_size=(3, 3), stride=(1, 1), padding=(1, 1))
          (3): CALayer(
            (body): Sequential(
              (0): Conv2d(64, 4, kernel_size=(1, 1), stride=(1, 1))
              (1): LeakyReLU(negative_slope=0.2)
              (2): Conv2d(4, 64, kernel_size=(1, 1), stride=(1, 1))
              (3): Sigmoid()
            )
            (avg): AdaptiveAvgPool2d(output_size=1)
          )
        )
      )
      (17): CRB_Layer(
        (body): Sequential(
          (0): Conv2d(74, 74, kernel_size=(3, 3), stride=(1, 1), padding=(1, 1))
          (1): LeakyReLU(negative_slope=0.2, inplace=True)
          (2): Conv2d(74, 64, kernel_size=(3, 3), stride=(1, 1), padding=(1, 1))
          (3): CALayer(
            (body): Sequential(
              (0): Conv2d(64, 4, kernel_size=(1, 1), stride=(1, 1))
              (1): LeakyReLU(negative_slope=0.2)
              (2): Conv2d(4, 64, kernel_size=(1, 1), stride=(1, 1))
              (3): Sigmoid()
            )
            (avg): AdaptiveAvgPool2d(output_size=1)
          )
        )
      )
      (18): CRB_Layer(
        (body): Sequential(
          (0): Conv2d(74, 74, kernel_size=(3, 3), stride=(1, 1), padding=(1, 1))
          (1): LeakyReLU(negative_slope=0.2, inplace=True)
          (2): Conv2d(74, 64, kernel_size=(3, 3), stride=(1, 1), padding=(1, 1))
          (3): CALayer(
            (body): Sequential(
              (0): Conv2d(64, 4, kernel_size=(1, 1), stride=(1, 1))
              (1): LeakyReLU(negative_slope=0.2)
              (2): Conv2d(4, 64, kernel_size=(1, 1), stride=(1, 1))
              (3): Sigmoid()
            )
            (avg): AdaptiveAvgPool2d(output_size=1)
          )
        )
      )
      (19): CRB_Layer(
        (body): Sequential(
          (0): Conv2d(74, 74, kernel_size=(3, 3), stride=(1, 1), padding=(1, 1))
          (1): LeakyReLU(negative_slope=0.2, inplace=True)
          (2): Conv2d(74, 64, kernel_size=(3, 3), stride=(1, 1), padding=(1, 1))
          (3): CALayer(
            (body): Sequential(
              (0): Conv2d(64, 4, kernel_size=(1, 1), stride=(1, 1))
              (1): LeakyReLU(negative_slope=0.2)
              (2): Conv2d(4, 64, kernel_size=(1, 1), stride=(1, 1))
              (3): Sigmoid()
            )
            (avg): AdaptiveAvgPool2d(output_size=1)
          )
        )
      )
      (20): CRB_Layer(
        (body): Sequential(
          (0): Conv2d(74, 74, kernel_size=(3, 3), stride=(1, 1), padding=(1, 1))
          (1): LeakyReLU(negative_slope=0.2, inplace=True)
          (2): Conv2d(74, 64, kernel_size=(3, 3), stride=(1, 1), padding=(1, 1))
          (3): CALayer(
            (body): Sequential(
              (0): Conv2d(64, 4, kernel_size=(1, 1), stride=(1, 1))
              (1): LeakyReLU(negative_slope=0.2)
              (2): Conv2d(4, 64, kernel_size=(1, 1), stride=(1, 1))
              (3): Sigmoid()
            )
            (avg): AdaptiveAvgPool2d(output_size=1)
          )
        )
      )
      (21): CRB_Layer(
        (body): Sequential(
          (0): Conv2d(74, 74, kernel_size=(3, 3), stride=(1, 1), padding=(1, 1))
          (1): LeakyReLU(negative_slope=0.2, inplace=True)
          (2): Conv2d(74, 64, kernel_size=(3, 3), stride=(1, 1), padding=(1, 1))
          (3): CALayer(
            (body): Sequential(
              (0): Conv2d(64, 4, kernel_size=(1, 1), stride=(1, 1))
              (1): LeakyReLU(negative_slope=0.2)
              (2): Conv2d(4, 64, kernel_size=(1, 1), stride=(1, 1))
              (3): Sigmoid()
            )
            (avg): AdaptiveAvgPool2d(output_size=1)
          )
        )
      )
      (22): CRB_Layer(
        (body): Sequential(
          (0): Conv2d(74, 74, kernel_size=(3, 3), stride=(1, 1), padding=(1, 1))
          (1): LeakyReLU(negative_slope=0.2, inplace=True)
          (2): Conv2d(74, 64, kernel_size=(3, 3), stride=(1, 1), padding=(1, 1))
          (3): CALayer(
            (body): Sequential(
              (0): Conv2d(64, 4, kernel_size=(1, 1), stride=(1, 1))
              (1): LeakyReLU(negative_slope=0.2)
              (2): Conv2d(4, 64, kernel_size=(1, 1), stride=(1, 1))
              (3): Sigmoid()
            )
            (avg): AdaptiveAvgPool2d(output_size=1)
          )
        )
      )
      (23): CRB_Layer(
        (body): Sequential(
          (0): Conv2d(74, 74, kernel_size=(3, 3), stride=(1, 1), padding=(1, 1))
          (1): LeakyReLU(negative_slope=0.2, inplace=True)
          (2): Conv2d(74, 64, kernel_size=(3, 3), stride=(1, 1), padding=(1, 1))
          (3): CALayer(
            (body): Sequential(
              (0): Conv2d(64, 4, kernel_size=(1, 1), stride=(1, 1))
              (1): LeakyReLU(negative_slope=0.2)
              (2): Conv2d(4, 64, kernel_size=(1, 1), stride=(1, 1))
              (3): Sigmoid()
            )
            (avg): AdaptiveAvgPool2d(output_size=1)
          )
        )
      )
      (24): CRB_Layer(
        (body): Sequential(
          (0): Conv2d(74, 74, kernel_size=(3, 3), stride=(1, 1), padding=(1, 1))
          (1): LeakyReLU(negative_slope=0.2, inplace=True)
          (2): Conv2d(74, 64, kernel_size=(3, 3), stride=(1, 1), padding=(1, 1))
          (3): CALayer(
            (body): Sequential(
              (0): Conv2d(64, 4, kernel_size=(1, 1), stride=(1, 1))
              (1): LeakyReLU(negative_slope=0.2)
              (2): Conv2d(4, 64, kernel_size=(1, 1), stride=(1, 1))
              (3): Sigmoid()
            )
            (avg): AdaptiveAvgPool2d(output_size=1)
          )
        )
      )
      (25): CRB_Layer(
        (body): Sequential(
          (0): Conv2d(74, 74, kernel_size=(3, 3), stride=(1, 1), padding=(1, 1))
          (1): LeakyReLU(negative_slope=0.2, inplace=True)
          (2): Conv2d(74, 64, kernel_size=(3, 3), stride=(1, 1), padding=(1, 1))
          (3): CALayer(
            (body): Sequential(
              (0): Conv2d(64, 4, kernel_size=(1, 1), stride=(1, 1))
              (1): LeakyReLU(negative_slope=0.2)
              (2): Conv2d(4, 64, kernel_size=(1, 1), stride=(1, 1))
              (3): Sigmoid()
            )
            (avg): AdaptiveAvgPool2d(output_size=1)
          )
        )
      )
      (26): CRB_Layer(
        (body): Sequential(
          (0): Conv2d(74, 74, kernel_size=(3, 3), stride=(1, 1), padding=(1, 1))
          (1): LeakyReLU(negative_slope=0.2, inplace=True)
          (2): Conv2d(74, 64, kernel_size=(3, 3), stride=(1, 1), padding=(1, 1))
          (3): CALayer(
            (body): Sequential(
              (0): Conv2d(64, 4, kernel_size=(1, 1), stride=(1, 1))
              (1): LeakyReLU(negative_slope=0.2)
              (2): Conv2d(4, 64, kernel_size=(1, 1), stride=(1, 1))
              (3): Sigmoid()
            )
            (avg): AdaptiveAvgPool2d(output_size=1)
          )
        )
      )
      (27): CRB_Layer(
        (body): Sequential(
          (0): Conv2d(74, 74, kernel_size=(3, 3), stride=(1, 1), padding=(1, 1))
          (1): LeakyReLU(negative_slope=0.2, inplace=True)
          (2): Conv2d(74, 64, kernel_size=(3, 3), stride=(1, 1), padding=(1, 1))
          (3): CALayer(
            (body): Sequential(
              (0): Conv2d(64, 4, kernel_size=(1, 1), stride=(1, 1))
              (1): LeakyReLU(negative_slope=0.2)
              (2): Conv2d(4, 64, kernel_size=(1, 1), stride=(1, 1))
              (3): Sigmoid()
            )
            (avg): AdaptiveAvgPool2d(output_size=1)
          )
        )
      )
      (28): CRB_Layer(
        (body): Sequential(
          (0): Conv2d(74, 74, kernel_size=(3, 3), stride=(1, 1), padding=(1, 1))
          (1): LeakyReLU(negative_slope=0.2, inplace=True)
          (2): Conv2d(74, 64, kernel_size=(3, 3), stride=(1, 1), padding=(1, 1))
          (3): CALayer(
            (body): Sequential(
              (0): Conv2d(64, 4, kernel_size=(1, 1), stride=(1, 1))
              (1): LeakyReLU(negative_slope=0.2)
              (2): Conv2d(4, 64, kernel_size=(1, 1), stride=(1, 1))
              (3): Sigmoid()
            )
            (avg): AdaptiveAvgPool2d(output_size=1)
          )
        )
      )
      (29): CRB_Layer(
        (body): Sequential(
          (0): Conv2d(74, 74, kernel_size=(3, 3), stride=(1, 1), padding=(1, 1))
          (1): LeakyReLU(negative_slope=0.2, inplace=True)
          (2): Conv2d(74, 64, kernel_size=(3, 3), stride=(1, 1), padding=(1, 1))
          (3): CALayer(
            (body): Sequential(
              (0): Conv2d(64, 4, kernel_size=(1, 1), stride=(1, 1))
              (1): LeakyReLU(negative_slope=0.2)
              (2): Conv2d(4, 64, kernel_size=(1, 1), stride=(1, 1))
              (3): Sigmoid()
            )
            (avg): AdaptiveAvgPool2d(output_size=1)
          )
        )
      )
      (30): CRB_Layer(
        (body): Sequential(
          (0): Conv2d(74, 74, kernel_size=(3, 3), stride=(1, 1), padding=(1, 1))
          (1): LeakyReLU(negative_slope=0.2, inplace=True)
          (2): Conv2d(74, 64, kernel_size=(3, 3), stride=(1, 1), padding=(1, 1))
          (3): CALayer(
            (body): Sequential(
              (0): Conv2d(64, 4, kernel_size=(1, 1), stride=(1, 1))
              (1): LeakyReLU(negative_slope=0.2)
              (2): Conv2d(4, 64, kernel_size=(1, 1), stride=(1, 1))
              (3): Sigmoid()
            )
            (avg): AdaptiveAvgPool2d(output_size=1)
          )
        )
      )
      (31): CRB_Layer(
        (body): Sequential(
          (0): Conv2d(74, 74, kernel_size=(3, 3), stride=(1, 1), padding=(1, 1))
          (1): LeakyReLU(negative_slope=0.2, inplace=True)
          (2): Conv2d(74, 64, kernel_size=(3, 3), stride=(1, 1), padding=(1, 1))
          (3): CALayer(
            (body): Sequential(
              (0): Conv2d(64, 4, kernel_size=(1, 1), stride=(1, 1))
              (1): LeakyReLU(negative_slope=0.2)
              (2): Conv2d(4, 64, kernel_size=(1, 1), stride=(1, 1))
              (3): Sigmoid()
            )
            (avg): AdaptiveAvgPool2d(output_size=1)
          )
        )
      )
      (32): CRB_Layer(
        (body): Sequential(
          (0): Conv2d(74, 74, kernel_size=(3, 3), stride=(1, 1), padding=(1, 1))
          (1): LeakyReLU(negative_slope=0.2, inplace=True)
          (2): Conv2d(74, 64, kernel_size=(3, 3), stride=(1, 1), padding=(1, 1))
          (3): CALayer(
            (body): Sequential(
              (0): Conv2d(64, 4, kernel_size=(1, 1), stride=(1, 1))
              (1): LeakyReLU(negative_slope=0.2)
              (2): Conv2d(4, 64, kernel_size=(1, 1), stride=(1, 1))
              (3): Sigmoid()
            )
            (avg): AdaptiveAvgPool2d(output_size=1)
          )
        )
      )
      (33): CRB_Layer(
        (body): Sequential(
          (0): Conv2d(74, 74, kernel_size=(3, 3), stride=(1, 1), padding=(1, 1))
          (1): LeakyReLU(negative_slope=0.2, inplace=True)
          (2): Conv2d(74, 64, kernel_size=(3, 3), stride=(1, 1), padding=(1, 1))
          (3): CALayer(
            (body): Sequential(
              (0): Conv2d(64, 4, kernel_size=(1, 1), stride=(1, 1))
              (1): LeakyReLU(negative_slope=0.2)
              (2): Conv2d(4, 64, kernel_size=(1, 1), stride=(1, 1))
              (3): Sigmoid()
            )
            (avg): AdaptiveAvgPool2d(output_size=1)
          )
        )
      )
      (34): CRB_Layer(
        (body): Sequential(
          (0): Conv2d(74, 74, kernel_size=(3, 3), stride=(1, 1), padding=(1, 1))
          (1): LeakyReLU(negative_slope=0.2, inplace=True)
          (2): Conv2d(74, 64, kernel_size=(3, 3), stride=(1, 1), padding=(1, 1))
          (3): CALayer(
            (body): Sequential(
              (0): Conv2d(64, 4, kernel_size=(1, 1), stride=(1, 1))
              (1): LeakyReLU(negative_slope=0.2)
              (2): Conv2d(4, 64, kernel_size=(1, 1), stride=(1, 1))
              (3): Sigmoid()
            )
            (avg): AdaptiveAvgPool2d(output_size=1)
          )
        )
      )
      (35): CRB_Layer(
        (body): Sequential(
          (0): Conv2d(74, 74, kernel_size=(3, 3), stride=(1, 1), padding=(1, 1))
          (1): LeakyReLU(negative_slope=0.2, inplace=True)
          (2): Conv2d(74, 64, kernel_size=(3, 3), stride=(1, 1), padding=(1, 1))
          (3): CALayer(
            (body): Sequential(
              (0): Conv2d(64, 4, kernel_size=(1, 1), stride=(1, 1))
              (1): LeakyReLU(negative_slope=0.2)
              (2): Conv2d(4, 64, kernel_size=(1, 1), stride=(1, 1))
              (3): Sigmoid()
            )
            (avg): AdaptiveAvgPool2d(output_size=1)
          )
        )
      )
      (36): CRB_Layer(
        (body): Sequential(
          (0): Conv2d(74, 74, kernel_size=(3, 3), stride=(1, 1), padding=(1, 1))
          (1): LeakyReLU(negative_slope=0.2, inplace=True)
          (2): Conv2d(74, 64, kernel_size=(3, 3), stride=(1, 1), padding=(1, 1))
          (3): CALayer(
            (body): Sequential(
              (0): Conv2d(64, 4, kernel_size=(1, 1), stride=(1, 1))
              (1): LeakyReLU(negative_slope=0.2)
              (2): Conv2d(4, 64, kernel_size=(1, 1), stride=(1, 1))
              (3): Sigmoid()
            )
            (avg): AdaptiveAvgPool2d(output_size=1)
          )
        )
      )
      (37): CRB_Layer(
        (body): Sequential(
          (0): Conv2d(74, 74, kernel_size=(3, 3), stride=(1, 1), padding=(1, 1))
          (1): LeakyReLU(negative_slope=0.2, inplace=True)
          (2): Conv2d(74, 64, kernel_size=(3, 3), stride=(1, 1), padding=(1, 1))
          (3): CALayer(
            (body): Sequential(
              (0): Conv2d(64, 4, kernel_size=(1, 1), stride=(1, 1))
              (1): LeakyReLU(negative_slope=0.2)
              (2): Conv2d(4, 64, kernel_size=(1, 1), stride=(1, 1))
              (3): Sigmoid()
            )
            (avg): AdaptiveAvgPool2d(output_size=1)
          )
        )
      )
      (38): CRB_Layer(
        (body): Sequential(
          (0): Conv2d(74, 74, kernel_size=(3, 3), stride=(1, 1), padding=(1, 1))
          (1): LeakyReLU(negative_slope=0.2, inplace=True)
          (2): Conv2d(74, 64, kernel_size=(3, 3), stride=(1, 1), padding=(1, 1))
          (3): CALayer(
            (body): Sequential(
              (0): Conv2d(64, 4, kernel_size=(1, 1), stride=(1, 1))
              (1): LeakyReLU(negative_slope=0.2)
              (2): Conv2d(4, 64, kernel_size=(1, 1), stride=(1, 1))
              (3): Sigmoid()
            )
            (avg): AdaptiveAvgPool2d(output_size=1)
          )
        )
      )
      (39): CRB_Layer(
        (body): Sequential(
          (0): Conv2d(74, 74, kernel_size=(3, 3), stride=(1, 1), padding=(1, 1))
          (1): LeakyReLU(negative_slope=0.2, inplace=True)
          (2): Conv2d(74, 64, kernel_size=(3, 3), stride=(1, 1), padding=(1, 1))
          (3): CALayer(
            (body): Sequential(
              (0): Conv2d(64, 4, kernel_size=(1, 1), stride=(1, 1))
              (1): LeakyReLU(negative_slope=0.2)
              (2): Conv2d(4, 64, kernel_size=(1, 1), stride=(1, 1))
              (3): Sigmoid()
            )
            (avg): AdaptiveAvgPool2d(output_size=1)
          )
        )
      )
    )
    (fusion): Conv2d(64, 64, kernel_size=(3, 3), stride=(1, 1), padding=(1, 1))
    (upscale): Sequential(
      (0): Conv2d(64, 256, kernel_size=(3, 3), stride=(1, 1), padding=(1, 1))
      (1): PixelShuffle(upscale_factor=2)
      (2): Conv2d(64, 3, kernel_size=(3, 3), stride=(1, 1), padding=(1, 1))
    )
  )
  (Estimator): Estimator(
    (head_LR): Conv2d(3, 32, kernel_size=(1, 1), stride=(1, 1))
    (head_HR): Conv2d(3, 32, kernel_size=(9, 9), stride=(2, 2), padding=(4, 4))
    (body): Sequential(
      (0): CRB_Layer(
        (body): Sequential(
          (0): Conv2d(64, 64, kernel_size=(3, 3), stride=(1, 1), padding=(1, 1))
          (1): LeakyReLU(negative_slope=0.2, inplace=True)
          (2): Conv2d(64, 32, kernel_size=(3, 3), stride=(1, 1), padding=(1, 1))
          (3): CALayer(
            (body): Sequential(
              (0): Conv2d(32, 2, kernel_size=(1, 1), stride=(1, 1))
              (1): LeakyReLU(negative_slope=0.2)
              (2): Conv2d(2, 32, kernel_size=(1, 1), stride=(1, 1))
              (3): Sigmoid()
            )
            (avg): AdaptiveAvgPool2d(output_size=1)
          )
        )
      )
      (1): CRB_Layer(
        (body): Sequential(
          (0): Conv2d(64, 64, kernel_size=(3, 3), stride=(1, 1), padding=(1, 1))
          (1): LeakyReLU(negative_slope=0.2, inplace=True)
          (2): Conv2d(64, 32, kernel_size=(3, 3), stride=(1, 1), padding=(1, 1))
          (3): CALayer(
            (body): Sequential(
              (0): Conv2d(32, 2, kernel_size=(1, 1), stride=(1, 1))
              (1): LeakyReLU(negative_slope=0.2)
              (2): Conv2d(2, 32, kernel_size=(1, 1), stride=(1, 1))
              (3): Sigmoid()
            )
            (avg): AdaptiveAvgPool2d(output_size=1)
          )
        )
      )
      (2): CRB_Layer(
        (body): Sequential(
          (0): Conv2d(64, 64, kernel_size=(3, 3), stride=(1, 1), padding=(1, 1))
          (1): LeakyReLU(negative_slope=0.2, inplace=True)
          (2): Conv2d(64, 32, kernel_size=(3, 3), stride=(1, 1), padding=(1, 1))
          (3): CALayer(
            (body): Sequential(
              (0): Conv2d(32, 2, kernel_size=(1, 1), stride=(1, 1))
              (1): LeakyReLU(negative_slope=0.2)
              (2): Conv2d(2, 32, kernel_size=(1, 1), stride=(1, 1))
              (3): Sigmoid()
            )
            (avg): AdaptiveAvgPool2d(output_size=1)
          )
        )
      )
      (3): CRB_Layer(
        (body): Sequential(
          (0): Conv2d(64, 64, kernel_size=(3, 3), stride=(1, 1), padding=(1, 1))
          (1): LeakyReLU(negative_slope=0.2, inplace=True)
          (2): Conv2d(64, 32, kernel_size=(3, 3), stride=(1, 1), padding=(1, 1))
          (3): CALayer(
            (body): Sequential(
              (0): Conv2d(32, 2, kernel_size=(1, 1), stride=(1, 1))
              (1): LeakyReLU(negative_slope=0.2)
              (2): Conv2d(2, 32, kernel_size=(1, 1), stride=(1, 1))
              (3): Sigmoid()
            )
            (avg): AdaptiveAvgPool2d(output_size=1)
          )
        )
      )
      (4): CRB_Layer(
        (body): Sequential(
          (0): Conv2d(64, 64, kernel_size=(3, 3), stride=(1, 1), padding=(1, 1))
          (1): LeakyReLU(negative_slope=0.2, inplace=True)
          (2): Conv2d(64, 32, kernel_size=(3, 3), stride=(1, 1), padding=(1, 1))
          (3): CALayer(
            (body): Sequential(
              (0): Conv2d(32, 2, kernel_size=(1, 1), stride=(1, 1))
              (1): LeakyReLU(negative_slope=0.2)
              (2): Conv2d(2, 32, kernel_size=(1, 1), stride=(1, 1))
              (3): Sigmoid()
            )
            (avg): AdaptiveAvgPool2d(output_size=1)
          )
        )
      )
    )
    (out): Conv2d(32, 10, kernel_size=(3, 3), stride=(1, 1), padding=(1, 1))
    (globalPooling): AdaptiveAvgPool2d(output_size=(1, 1))
  )
)
21-07-21 13:46:21.824 - INFO: Model [B_Model] is created.
