21-07-21 17:52:34.861 - INFO: Dataset [GTDataset - DIV2K] is created.
21-07-21 17:52:34.864 - INFO: Dataset [LQGTDataset - DIV2KRK] is created.
21-07-21 17:52:37.199 - INFO: Network G structure: DataParallel - DAN, with parameters: 4,540,028
21-07-21 17:52:37.200 - INFO: DAN(
  (Restorer): Restorer(
    (head1): Conv2d(3, 64, kernel_size=(3, 3), stride=(1, 1), padding=(1, 1))
    (head2): Conv2d(10, 64, kernel_size=(1, 1), stride=(1, 1))
    (body): Sequential(
      (0): DPCG(
        (body): Sequential(
          (0): DPCB(
            (body1): Sequential(
              (0): Conv2d(64, 64, kernel_size=(3, 3), stride=(1, 1), padding=(1, 1))
              (1): LeakyReLU(negative_slope=0.2, inplace=True)
              (2): Conv2d(64, 64, kernel_size=(3, 3), stride=(1, 1), padding=(1, 1))
            )
            (body2): Sequential(
              (0): Conv2d(64, 64, kernel_size=(1, 1), stride=(1, 1))
              (1): LeakyReLU(negative_slope=0.2, inplace=True)
              (2): Conv2d(64, 64, kernel_size=(1, 1), stride=(1, 1))
            )
          )
          (1): DPCB(
            (body1): Sequential(
              (0): Conv2d(64, 64, kernel_size=(3, 3), stride=(1, 1), padding=(1, 1))
              (1): LeakyReLU(negative_slope=0.2, inplace=True)
              (2): Conv2d(64, 64, kernel_size=(3, 3), stride=(1, 1), padding=(1, 1))
            )
            (body2): Sequential(
              (0): Conv2d(64, 64, kernel_size=(1, 1), stride=(1, 1))
              (1): LeakyReLU(negative_slope=0.2, inplace=True)
              (2): Conv2d(64, 64, kernel_size=(1, 1), stride=(1, 1))
            )
          )
          (2): DPCB(
            (body1): Sequential(
              (0): Conv2d(64, 64, kernel_size=(3, 3), stride=(1, 1), padding=(1, 1))
              (1): LeakyReLU(negative_slope=0.2, inplace=True)
              (2): Conv2d(64, 64, kernel_size=(3, 3), stride=(1, 1), padding=(1, 1))
            )
            (body2): Sequential(
              (0): Conv2d(64, 64, kernel_size=(1, 1), stride=(1, 1))
              (1): LeakyReLU(negative_slope=0.2, inplace=True)
              (2): Conv2d(64, 64, kernel_size=(1, 1), stride=(1, 1))
            )
          )
          (3): DPCB(
            (body1): Sequential(
              (0): Conv2d(64, 64, kernel_size=(3, 3), stride=(1, 1), padding=(1, 1))
              (1): LeakyReLU(negative_slope=0.2, inplace=True)
              (2): Conv2d(64, 64, kernel_size=(3, 3), stride=(1, 1), padding=(1, 1))
            )
            (body2): Sequential(
              (0): Conv2d(64, 64, kernel_size=(1, 1), stride=(1, 1))
              (1): LeakyReLU(negative_slope=0.2, inplace=True)
              (2): Conv2d(64, 64, kernel_size=(1, 1), stride=(1, 1))
            )
          )
          (4): DPCB(
            (body1): Sequential(
              (0): Conv2d(64, 64, kernel_size=(3, 3), stride=(1, 1), padding=(1, 1))
              (1): LeakyReLU(negative_slope=0.2, inplace=True)
              (2): Conv2d(64, 64, kernel_size=(3, 3), stride=(1, 1), padding=(1, 1))
            )
            (body2): Sequential(
              (0): Conv2d(64, 64, kernel_size=(1, 1), stride=(1, 1))
              (1): LeakyReLU(negative_slope=0.2, inplace=True)
              (2): Conv2d(64, 64, kernel_size=(1, 1), stride=(1, 1))
            )
          )
          (5): DPCB(
            (body1): Sequential(
              (0): Conv2d(64, 64, kernel_size=(3, 3), stride=(1, 1), padding=(1, 1))
              (1): LeakyReLU(negative_slope=0.2, inplace=True)
              (2): Conv2d(64, 64, kernel_size=(3, 3), stride=(1, 1), padding=(1, 1))
            )
            (body2): Sequential(
              (0): Conv2d(64, 64, kernel_size=(1, 1), stride=(1, 1))
              (1): LeakyReLU(negative_slope=0.2, inplace=True)
              (2): Conv2d(64, 64, kernel_size=(1, 1), stride=(1, 1))
            )
          )
          (6): DPCB(
            (body1): Sequential(
              (0): Conv2d(64, 64, kernel_size=(3, 3), stride=(1, 1), padding=(1, 1))
              (1): LeakyReLU(negative_slope=0.2, inplace=True)
              (2): Conv2d(64, 64, kernel_size=(3, 3), stride=(1, 1), padding=(1, 1))
            )
            (body2): Sequential(
              (0): Conv2d(64, 64, kernel_size=(1, 1), stride=(1, 1))
              (1): LeakyReLU(negative_slope=0.2, inplace=True)
              (2): Conv2d(64, 64, kernel_size=(1, 1), stride=(1, 1))
            )
          )
          (7): DPCB(
            (body1): Sequential(
              (0): Conv2d(64, 64, kernel_size=(3, 3), stride=(1, 1), padding=(1, 1))
              (1): LeakyReLU(negative_slope=0.2, inplace=True)
              (2): Conv2d(64, 64, kernel_size=(3, 3), stride=(1, 1), padding=(1, 1))
            )
            (body2): Sequential(
              (0): Conv2d(64, 64, kernel_size=(1, 1), stride=(1, 1))
              (1): LeakyReLU(negative_slope=0.2, inplace=True)
              (2): Conv2d(64, 64, kernel_size=(1, 1), stride=(1, 1))
            )
          )
          (8): DPCB(
            (body1): Sequential(
              (0): Conv2d(64, 64, kernel_size=(3, 3), stride=(1, 1), padding=(1, 1))
              (1): LeakyReLU(negative_slope=0.2, inplace=True)
              (2): Conv2d(64, 64, kernel_size=(3, 3), stride=(1, 1), padding=(1, 1))
            )
            (body2): Sequential(
              (0): Conv2d(64, 64, kernel_size=(1, 1), stride=(1, 1))
              (1): LeakyReLU(negative_slope=0.2, inplace=True)
              (2): Conv2d(64, 64, kernel_size=(1, 1), stride=(1, 1))
            )
          )
          (9): DPCB(
            (body1): Sequential(
              (0): Conv2d(64, 64, kernel_size=(3, 3), stride=(1, 1), padding=(1, 1))
              (1): LeakyReLU(negative_slope=0.2, inplace=True)
              (2): Conv2d(64, 64, kernel_size=(3, 3), stride=(1, 1), padding=(1, 1))
            )
            (body2): Sequential(
              (0): Conv2d(64, 64, kernel_size=(1, 1), stride=(1, 1))
              (1): LeakyReLU(negative_slope=0.2, inplace=True)
              (2): Conv2d(64, 64, kernel_size=(1, 1), stride=(1, 1))
            )
          )
        )
      )
      (1): DPCG(
        (body): Sequential(
          (0): DPCB(
            (body1): Sequential(
              (0): Conv2d(64, 64, kernel_size=(3, 3), stride=(1, 1), padding=(1, 1))
              (1): LeakyReLU(negative_slope=0.2, inplace=True)
              (2): Conv2d(64, 64, kernel_size=(3, 3), stride=(1, 1), padding=(1, 1))
            )
            (body2): Sequential(
              (0): Conv2d(64, 64, kernel_size=(1, 1), stride=(1, 1))
              (1): LeakyReLU(negative_slope=0.2, inplace=True)
              (2): Conv2d(64, 64, kernel_size=(1, 1), stride=(1, 1))
            )
          )
          (1): DPCB(
            (body1): Sequential(
              (0): Conv2d(64, 64, kernel_size=(3, 3), stride=(1, 1), padding=(1, 1))
              (1): LeakyReLU(negative_slope=0.2, inplace=True)
              (2): Conv2d(64, 64, kernel_size=(3, 3), stride=(1, 1), padding=(1, 1))
            )
            (body2): Sequential(
              (0): Conv2d(64, 64, kernel_size=(1, 1), stride=(1, 1))
              (1): LeakyReLU(negative_slope=0.2, inplace=True)
              (2): Conv2d(64, 64, kernel_size=(1, 1), stride=(1, 1))
            )
          )
          (2): DPCB(
            (body1): Sequential(
              (0): Conv2d(64, 64, kernel_size=(3, 3), stride=(1, 1), padding=(1, 1))
              (1): LeakyReLU(negative_slope=0.2, inplace=True)
              (2): Conv2d(64, 64, kernel_size=(3, 3), stride=(1, 1), padding=(1, 1))
            )
            (body2): Sequential(
              (0): Conv2d(64, 64, kernel_size=(1, 1), stride=(1, 1))
              (1): LeakyReLU(negative_slope=0.2, inplace=True)
              (2): Conv2d(64, 64, kernel_size=(1, 1), stride=(1, 1))
            )
          )
          (3): DPCB(
            (body1): Sequential(
              (0): Conv2d(64, 64, kernel_size=(3, 3), stride=(1, 1), padding=(1, 1))
              (1): LeakyReLU(negative_slope=0.2, inplace=True)
              (2): Conv2d(64, 64, kernel_size=(3, 3), stride=(1, 1), padding=(1, 1))
            )
            (body2): Sequential(
              (0): Conv2d(64, 64, kernel_size=(1, 1), stride=(1, 1))
              (1): LeakyReLU(negative_slope=0.2, inplace=True)
              (2): Conv2d(64, 64, kernel_size=(1, 1), stride=(1, 1))
            )
          )
          (4): DPCB(
            (body1): Sequential(
              (0): Conv2d(64, 64, kernel_size=(3, 3), stride=(1, 1), padding=(1, 1))
              (1): LeakyReLU(negative_slope=0.2, inplace=True)
              (2): Conv2d(64, 64, kernel_size=(3, 3), stride=(1, 1), padding=(1, 1))
            )
            (body2): Sequential(
              (0): Conv2d(64, 64, kernel_size=(1, 1), stride=(1, 1))
              (1): LeakyReLU(negative_slope=0.2, inplace=True)
              (2): Conv2d(64, 64, kernel_size=(1, 1), stride=(1, 1))
            )
          )
          (5): DPCB(
            (body1): Sequential(
              (0): Conv2d(64, 64, kernel_size=(3, 3), stride=(1, 1), padding=(1, 1))
              (1): LeakyReLU(negative_slope=0.2, inplace=True)
              (2): Conv2d(64, 64, kernel_size=(3, 3), stride=(1, 1), padding=(1, 1))
            )
            (body2): Sequential(
              (0): Conv2d(64, 64, kernel_size=(1, 1), stride=(1, 1))
              (1): LeakyReLU(negative_slope=0.2, inplace=True)
              (2): Conv2d(64, 64, kernel_size=(1, 1), stride=(1, 1))
            )
          )
          (6): DPCB(
            (body1): Sequential(
              (0): Conv2d(64, 64, kernel_size=(3, 3), stride=(1, 1), padding=(1, 1))
              (1): LeakyReLU(negative_slope=0.2, inplace=True)
              (2): Conv2d(64, 64, kernel_size=(3, 3), stride=(1, 1), padding=(1, 1))
            )
            (body2): Sequential(
              (0): Conv2d(64, 64, kernel_size=(1, 1), stride=(1, 1))
              (1): LeakyReLU(negative_slope=0.2, inplace=True)
              (2): Conv2d(64, 64, kernel_size=(1, 1), stride=(1, 1))
            )
          )
          (7): DPCB(
            (body1): Sequential(
              (0): Conv2d(64, 64, kernel_size=(3, 3), stride=(1, 1), padding=(1, 1))
              (1): LeakyReLU(negative_slope=0.2, inplace=True)
              (2): Conv2d(64, 64, kernel_size=(3, 3), stride=(1, 1), padding=(1, 1))
            )
            (body2): Sequential(
              (0): Conv2d(64, 64, kernel_size=(1, 1), stride=(1, 1))
              (1): LeakyReLU(negative_slope=0.2, inplace=True)
              (2): Conv2d(64, 64, kernel_size=(1, 1), stride=(1, 1))
            )
          )
          (8): DPCB(
            (body1): Sequential(
              (0): Conv2d(64, 64, kernel_size=(3, 3), stride=(1, 1), padding=(1, 1))
              (1): LeakyReLU(negative_slope=0.2, inplace=True)
              (2): Conv2d(64, 64, kernel_size=(3, 3), stride=(1, 1), padding=(1, 1))
            )
            (body2): Sequential(
              (0): Conv2d(64, 64, kernel_size=(1, 1), stride=(1, 1))
              (1): LeakyReLU(negative_slope=0.2, inplace=True)
              (2): Conv2d(64, 64, kernel_size=(1, 1), stride=(1, 1))
            )
          )
          (9): DPCB(
            (body1): Sequential(
              (0): Conv2d(64, 64, kernel_size=(3, 3), stride=(1, 1), padding=(1, 1))
              (1): LeakyReLU(negative_slope=0.2, inplace=True)
              (2): Conv2d(64, 64, kernel_size=(3, 3), stride=(1, 1), padding=(1, 1))
            )
            (body2): Sequential(
              (0): Conv2d(64, 64, kernel_size=(1, 1), stride=(1, 1))
              (1): LeakyReLU(negative_slope=0.2, inplace=True)
              (2): Conv2d(64, 64, kernel_size=(1, 1), stride=(1, 1))
            )
          )
        )
      )
      (2): DPCG(
        (body): Sequential(
          (0): DPCB(
            (body1): Sequential(
              (0): Conv2d(64, 64, kernel_size=(3, 3), stride=(1, 1), padding=(1, 1))
              (1): LeakyReLU(negative_slope=0.2, inplace=True)
              (2): Conv2d(64, 64, kernel_size=(3, 3), stride=(1, 1), padding=(1, 1))
            )
            (body2): Sequential(
              (0): Conv2d(64, 64, kernel_size=(1, 1), stride=(1, 1))
              (1): LeakyReLU(negative_slope=0.2, inplace=True)
              (2): Conv2d(64, 64, kernel_size=(1, 1), stride=(1, 1))
            )
          )
          (1): DPCB(
            (body1): Sequential(
              (0): Conv2d(64, 64, kernel_size=(3, 3), stride=(1, 1), padding=(1, 1))
              (1): LeakyReLU(negative_slope=0.2, inplace=True)
              (2): Conv2d(64, 64, kernel_size=(3, 3), stride=(1, 1), padding=(1, 1))
            )
            (body2): Sequential(
              (0): Conv2d(64, 64, kernel_size=(1, 1), stride=(1, 1))
              (1): LeakyReLU(negative_slope=0.2, inplace=True)
              (2): Conv2d(64, 64, kernel_size=(1, 1), stride=(1, 1))
            )
          )
          (2): DPCB(
            (body1): Sequential(
              (0): Conv2d(64, 64, kernel_size=(3, 3), stride=(1, 1), padding=(1, 1))
              (1): LeakyReLU(negative_slope=0.2, inplace=True)
              (2): Conv2d(64, 64, kernel_size=(3, 3), stride=(1, 1), padding=(1, 1))
            )
            (body2): Sequential(
              (0): Conv2d(64, 64, kernel_size=(1, 1), stride=(1, 1))
              (1): LeakyReLU(negative_slope=0.2, inplace=True)
              (2): Conv2d(64, 64, kernel_size=(1, 1), stride=(1, 1))
            )
          )
          (3): DPCB(
            (body1): Sequential(
              (0): Conv2d(64, 64, kernel_size=(3, 3), stride=(1, 1), padding=(1, 1))
              (1): LeakyReLU(negative_slope=0.2, inplace=True)
              (2): Conv2d(64, 64, kernel_size=(3, 3), stride=(1, 1), padding=(1, 1))
            )
            (body2): Sequential(
              (0): Conv2d(64, 64, kernel_size=(1, 1), stride=(1, 1))
              (1): LeakyReLU(negative_slope=0.2, inplace=True)
              (2): Conv2d(64, 64, kernel_size=(1, 1), stride=(1, 1))
            )
          )
          (4): DPCB(
            (body1): Sequential(
              (0): Conv2d(64, 64, kernel_size=(3, 3), stride=(1, 1), padding=(1, 1))
              (1): LeakyReLU(negative_slope=0.2, inplace=True)
              (2): Conv2d(64, 64, kernel_size=(3, 3), stride=(1, 1), padding=(1, 1))
            )
            (body2): Sequential(
              (0): Conv2d(64, 64, kernel_size=(1, 1), stride=(1, 1))
              (1): LeakyReLU(negative_slope=0.2, inplace=True)
              (2): Conv2d(64, 64, kernel_size=(1, 1), stride=(1, 1))
            )
          )
          (5): DPCB(
            (body1): Sequential(
              (0): Conv2d(64, 64, kernel_size=(3, 3), stride=(1, 1), padding=(1, 1))
              (1): LeakyReLU(negative_slope=0.2, inplace=True)
              (2): Conv2d(64, 64, kernel_size=(3, 3), stride=(1, 1), padding=(1, 1))
            )
            (body2): Sequential(
              (0): Conv2d(64, 64, kernel_size=(1, 1), stride=(1, 1))
              (1): LeakyReLU(negative_slope=0.2, inplace=True)
              (2): Conv2d(64, 64, kernel_size=(1, 1), stride=(1, 1))
            )
          )
          (6): DPCB(
            (body1): Sequential(
              (0): Conv2d(64, 64, kernel_size=(3, 3), stride=(1, 1), padding=(1, 1))
              (1): LeakyReLU(negative_slope=0.2, inplace=True)
              (2): Conv2d(64, 64, kernel_size=(3, 3), stride=(1, 1), padding=(1, 1))
            )
            (body2): Sequential(
              (0): Conv2d(64, 64, kernel_size=(1, 1), stride=(1, 1))
              (1): LeakyReLU(negative_slope=0.2, inplace=True)
              (2): Conv2d(64, 64, kernel_size=(1, 1), stride=(1, 1))
            )
          )
          (7): DPCB(
            (body1): Sequential(
              (0): Conv2d(64, 64, kernel_size=(3, 3), stride=(1, 1), padding=(1, 1))
              (1): LeakyReLU(negative_slope=0.2, inplace=True)
              (2): Conv2d(64, 64, kernel_size=(3, 3), stride=(1, 1), padding=(1, 1))
            )
            (body2): Sequential(
              (0): Conv2d(64, 64, kernel_size=(1, 1), stride=(1, 1))
              (1): LeakyReLU(negative_slope=0.2, inplace=True)
              (2): Conv2d(64, 64, kernel_size=(1, 1), stride=(1, 1))
            )
          )
          (8): DPCB(
            (body1): Sequential(
              (0): Conv2d(64, 64, kernel_size=(3, 3), stride=(1, 1), padding=(1, 1))
              (1): LeakyReLU(negative_slope=0.2, inplace=True)
              (2): Conv2d(64, 64, kernel_size=(3, 3), stride=(1, 1), padding=(1, 1))
            )
            (body2): Sequential(
              (0): Conv2d(64, 64, kernel_size=(1, 1), stride=(1, 1))
              (1): LeakyReLU(negative_slope=0.2, inplace=True)
              (2): Conv2d(64, 64, kernel_size=(1, 1), stride=(1, 1))
            )
          )
          (9): DPCB(
            (body1): Sequential(
              (0): Conv2d(64, 64, kernel_size=(3, 3), stride=(1, 1), padding=(1, 1))
              (1): LeakyReLU(negative_slope=0.2, inplace=True)
              (2): Conv2d(64, 64, kernel_size=(3, 3), stride=(1, 1), padding=(1, 1))
            )
            (body2): Sequential(
              (0): Conv2d(64, 64, kernel_size=(1, 1), stride=(1, 1))
              (1): LeakyReLU(negative_slope=0.2, inplace=True)
              (2): Conv2d(64, 64, kernel_size=(1, 1), stride=(1, 1))
            )
          )
        )
      )
      (3): DPCG(
        (body): Sequential(
          (0): DPCB(
            (body1): Sequential(
              (0): Conv2d(64, 64, kernel_size=(3, 3), stride=(1, 1), padding=(1, 1))
              (1): LeakyReLU(negative_slope=0.2, inplace=True)
              (2): Conv2d(64, 64, kernel_size=(3, 3), stride=(1, 1), padding=(1, 1))
            )
            (body2): Sequential(
              (0): Conv2d(64, 64, kernel_size=(1, 1), stride=(1, 1))
              (1): LeakyReLU(negative_slope=0.2, inplace=True)
              (2): Conv2d(64, 64, kernel_size=(1, 1), stride=(1, 1))
            )
          )
          (1): DPCB(
            (body1): Sequential(
              (0): Conv2d(64, 64, kernel_size=(3, 3), stride=(1, 1), padding=(1, 1))
              (1): LeakyReLU(negative_slope=0.2, inplace=True)
              (2): Conv2d(64, 64, kernel_size=(3, 3), stride=(1, 1), padding=(1, 1))
            )
            (body2): Sequential(
              (0): Conv2d(64, 64, kernel_size=(1, 1), stride=(1, 1))
              (1): LeakyReLU(negative_slope=0.2, inplace=True)
              (2): Conv2d(64, 64, kernel_size=(1, 1), stride=(1, 1))
            )
          )
          (2): DPCB(
            (body1): Sequential(
              (0): Conv2d(64, 64, kernel_size=(3, 3), stride=(1, 1), padding=(1, 1))
              (1): LeakyReLU(negative_slope=0.2, inplace=True)
              (2): Conv2d(64, 64, kernel_size=(3, 3), stride=(1, 1), padding=(1, 1))
            )
            (body2): Sequential(
              (0): Conv2d(64, 64, kernel_size=(1, 1), stride=(1, 1))
              (1): LeakyReLU(negative_slope=0.2, inplace=True)
              (2): Conv2d(64, 64, kernel_size=(1, 1), stride=(1, 1))
            )
          )
          (3): DPCB(
            (body1): Sequential(
              (0): Conv2d(64, 64, kernel_size=(3, 3), stride=(1, 1), padding=(1, 1))
              (1): LeakyReLU(negative_slope=0.2, inplace=True)
              (2): Conv2d(64, 64, kernel_size=(3, 3), stride=(1, 1), padding=(1, 1))
            )
            (body2): Sequential(
              (0): Conv2d(64, 64, kernel_size=(1, 1), stride=(1, 1))
              (1): LeakyReLU(negative_slope=0.2, inplace=True)
              (2): Conv2d(64, 64, kernel_size=(1, 1), stride=(1, 1))
            )
          )
          (4): DPCB(
            (body1): Sequential(
              (0): Conv2d(64, 64, kernel_size=(3, 3), stride=(1, 1), padding=(1, 1))
              (1): LeakyReLU(negative_slope=0.2, inplace=True)
              (2): Conv2d(64, 64, kernel_size=(3, 3), stride=(1, 1), padding=(1, 1))
            )
            (body2): Sequential(
              (0): Conv2d(64, 64, kernel_size=(1, 1), stride=(1, 1))
              (1): LeakyReLU(negative_slope=0.2, inplace=True)
              (2): Conv2d(64, 64, kernel_size=(1, 1), stride=(1, 1))
            )
          )
          (5): DPCB(
            (body1): Sequential(
              (0): Conv2d(64, 64, kernel_size=(3, 3), stride=(1, 1), padding=(1, 1))
              (1): LeakyReLU(negative_slope=0.2, inplace=True)
              (2): Conv2d(64, 64, kernel_size=(3, 3), stride=(1, 1), padding=(1, 1))
            )
            (body2): Sequential(
              (0): Conv2d(64, 64, kernel_size=(1, 1), stride=(1, 1))
              (1): LeakyReLU(negative_slope=0.2, inplace=True)
              (2): Conv2d(64, 64, kernel_size=(1, 1), stride=(1, 1))
            )
          )
          (6): DPCB(
            (body1): Sequential(
              (0): Conv2d(64, 64, kernel_size=(3, 3), stride=(1, 1), padding=(1, 1))
              (1): LeakyReLU(negative_slope=0.2, inplace=True)
              (2): Conv2d(64, 64, kernel_size=(3, 3), stride=(1, 1), padding=(1, 1))
            )
            (body2): Sequential(
              (0): Conv2d(64, 64, kernel_size=(1, 1), stride=(1, 1))
              (1): LeakyReLU(negative_slope=0.2, inplace=True)
              (2): Conv2d(64, 64, kernel_size=(1, 1), stride=(1, 1))
            )
          )
          (7): DPCB(
            (body1): Sequential(
              (0): Conv2d(64, 64, kernel_size=(3, 3), stride=(1, 1), padding=(1, 1))
              (1): LeakyReLU(negative_slope=0.2, inplace=True)
              (2): Conv2d(64, 64, kernel_size=(3, 3), stride=(1, 1), padding=(1, 1))
            )
            (body2): Sequential(
              (0): Conv2d(64, 64, kernel_size=(1, 1), stride=(1, 1))
              (1): LeakyReLU(negative_slope=0.2, inplace=True)
              (2): Conv2d(64, 64, kernel_size=(1, 1), stride=(1, 1))
            )
          )
          (8): DPCB(
            (body1): Sequential(
              (0): Conv2d(64, 64, kernel_size=(3, 3), stride=(1, 1), padding=(1, 1))
              (1): LeakyReLU(negative_slope=0.2, inplace=True)
              (2): Conv2d(64, 64, kernel_size=(3, 3), stride=(1, 1), padding=(1, 1))
            )
            (body2): Sequential(
              (0): Conv2d(64, 64, kernel_size=(1, 1), stride=(1, 1))
              (1): LeakyReLU(negative_slope=0.2, inplace=True)
              (2): Conv2d(64, 64, kernel_size=(1, 1), stride=(1, 1))
            )
          )
          (9): DPCB(
            (body1): Sequential(
              (0): Conv2d(64, 64, kernel_size=(3, 3), stride=(1, 1), padding=(1, 1))
              (1): LeakyReLU(negative_slope=0.2, inplace=True)
              (2): Conv2d(64, 64, kernel_size=(3, 3), stride=(1, 1), padding=(1, 1))
            )
            (body2): Sequential(
              (0): Conv2d(64, 64, kernel_size=(1, 1), stride=(1, 1))
              (1): LeakyReLU(negative_slope=0.2, inplace=True)
              (2): Conv2d(64, 64, kernel_size=(1, 1), stride=(1, 1))
            )
          )
        )
      )
      (4): DPCG(
        (body): Sequential(
          (0): DPCB(
            (body1): Sequential(
              (0): Conv2d(64, 64, kernel_size=(3, 3), stride=(1, 1), padding=(1, 1))
              (1): LeakyReLU(negative_slope=0.2, inplace=True)
              (2): Conv2d(64, 64, kernel_size=(3, 3), stride=(1, 1), padding=(1, 1))
            )
            (body2): Sequential(
              (0): Conv2d(64, 64, kernel_size=(1, 1), stride=(1, 1))
              (1): LeakyReLU(negative_slope=0.2, inplace=True)
              (2): Conv2d(64, 64, kernel_size=(1, 1), stride=(1, 1))
            )
          )
          (1): DPCB(
            (body1): Sequential(
              (0): Conv2d(64, 64, kernel_size=(3, 3), stride=(1, 1), padding=(1, 1))
              (1): LeakyReLU(negative_slope=0.2, inplace=True)
              (2): Conv2d(64, 64, kernel_size=(3, 3), stride=(1, 1), padding=(1, 1))
            )
            (body2): Sequential(
              (0): Conv2d(64, 64, kernel_size=(1, 1), stride=(1, 1))
              (1): LeakyReLU(negative_slope=0.2, inplace=True)
              (2): Conv2d(64, 64, kernel_size=(1, 1), stride=(1, 1))
            )
          )
          (2): DPCB(
            (body1): Sequential(
              (0): Conv2d(64, 64, kernel_size=(3, 3), stride=(1, 1), padding=(1, 1))
              (1): LeakyReLU(negative_slope=0.2, inplace=True)
              (2): Conv2d(64, 64, kernel_size=(3, 3), stride=(1, 1), padding=(1, 1))
            )
            (body2): Sequential(
              (0): Conv2d(64, 64, kernel_size=(1, 1), stride=(1, 1))
              (1): LeakyReLU(negative_slope=0.2, inplace=True)
              (2): Conv2d(64, 64, kernel_size=(1, 1), stride=(1, 1))
            )
          )
          (3): DPCB(
            (body1): Sequential(
              (0): Conv2d(64, 64, kernel_size=(3, 3), stride=(1, 1), padding=(1, 1))
              (1): LeakyReLU(negative_slope=0.2, inplace=True)
              (2): Conv2d(64, 64, kernel_size=(3, 3), stride=(1, 1), padding=(1, 1))
            )
            (body2): Sequential(
              (0): Conv2d(64, 64, kernel_size=(1, 1), stride=(1, 1))
              (1): LeakyReLU(negative_slope=0.2, inplace=True)
              (2): Conv2d(64, 64, kernel_size=(1, 1), stride=(1, 1))
            )
          )
          (4): DPCB(
            (body1): Sequential(
              (0): Conv2d(64, 64, kernel_size=(3, 3), stride=(1, 1), padding=(1, 1))
              (1): LeakyReLU(negative_slope=0.2, inplace=True)
              (2): Conv2d(64, 64, kernel_size=(3, 3), stride=(1, 1), padding=(1, 1))
            )
            (body2): Sequential(
              (0): Conv2d(64, 64, kernel_size=(1, 1), stride=(1, 1))
              (1): LeakyReLU(negative_slope=0.2, inplace=True)
              (2): Conv2d(64, 64, kernel_size=(1, 1), stride=(1, 1))
            )
          )
          (5): DPCB(
            (body1): Sequential(
              (0): Conv2d(64, 64, kernel_size=(3, 3), stride=(1, 1), padding=(1, 1))
              (1): LeakyReLU(negative_slope=0.2, inplace=True)
              (2): Conv2d(64, 64, kernel_size=(3, 3), stride=(1, 1), padding=(1, 1))
            )
            (body2): Sequential(
              (0): Conv2d(64, 64, kernel_size=(1, 1), stride=(1, 1))
              (1): LeakyReLU(negative_slope=0.2, inplace=True)
              (2): Conv2d(64, 64, kernel_size=(1, 1), stride=(1, 1))
            )
          )
          (6): DPCB(
            (body1): Sequential(
              (0): Conv2d(64, 64, kernel_size=(3, 3), stride=(1, 1), padding=(1, 1))
              (1): LeakyReLU(negative_slope=0.2, inplace=True)
              (2): Conv2d(64, 64, kernel_size=(3, 3), stride=(1, 1), padding=(1, 1))
            )
            (body2): Sequential(
              (0): Conv2d(64, 64, kernel_size=(1, 1), stride=(1, 1))
              (1): LeakyReLU(negative_slope=0.2, inplace=True)
              (2): Conv2d(64, 64, kernel_size=(1, 1), stride=(1, 1))
            )
          )
          (7): DPCB(
            (body1): Sequential(
              (0): Conv2d(64, 64, kernel_size=(3, 3), stride=(1, 1), padding=(1, 1))
              (1): LeakyReLU(negative_slope=0.2, inplace=True)
              (2): Conv2d(64, 64, kernel_size=(3, 3), stride=(1, 1), padding=(1, 1))
            )
            (body2): Sequential(
              (0): Conv2d(64, 64, kernel_size=(1, 1), stride=(1, 1))
              (1): LeakyReLU(negative_slope=0.2, inplace=True)
              (2): Conv2d(64, 64, kernel_size=(1, 1), stride=(1, 1))
            )
          )
          (8): DPCB(
            (body1): Sequential(
              (0): Conv2d(64, 64, kernel_size=(3, 3), stride=(1, 1), padding=(1, 1))
              (1): LeakyReLU(negative_slope=0.2, inplace=True)
              (2): Conv2d(64, 64, kernel_size=(3, 3), stride=(1, 1), padding=(1, 1))
            )
            (body2): Sequential(
              (0): Conv2d(64, 64, kernel_size=(1, 1), stride=(1, 1))
              (1): LeakyReLU(negative_slope=0.2, inplace=True)
              (2): Conv2d(64, 64, kernel_size=(1, 1), stride=(1, 1))
            )
          )
          (9): DPCB(
            (body1): Sequential(
              (0): Conv2d(64, 64, kernel_size=(3, 3), stride=(1, 1), padding=(1, 1))
              (1): LeakyReLU(negative_slope=0.2, inplace=True)
              (2): Conv2d(64, 64, kernel_size=(3, 3), stride=(1, 1), padding=(1, 1))
            )
            (body2): Sequential(
              (0): Conv2d(64, 64, kernel_size=(1, 1), stride=(1, 1))
              (1): LeakyReLU(negative_slope=0.2, inplace=True)
              (2): Conv2d(64, 64, kernel_size=(1, 1), stride=(1, 1))
            )
          )
        )
      )
    )
    (fusion): Conv2d(64, 64, kernel_size=(3, 3), stride=(1, 1), padding=(1, 1))
    (upscale): Sequential(
      (0): Conv2d(64, 256, kernel_size=(3, 3), stride=(1, 1), padding=(1, 1))
      (1): PixelShuffle(upscale_factor=2)
      (2): Conv2d(64, 3, kernel_size=(3, 3), stride=(1, 1), padding=(1, 1))
    )
  )
  (Estimator): Estimator(
    (head_LR): Sequential(
      (0): Conv2d(3, 32, kernel_size=(5, 5), stride=(1, 1), padding=(2, 2))
    )
    (head_HR): Sequential(
      (0): Conv2d(3, 32, kernel_size=(9, 9), stride=(2, 2), padding=(4, 4))
    )
    (body): DPCG(
      (body): Sequential(
        (0): DPCB(
          (body1): Sequential(
            (0): Conv2d(32, 32, kernel_size=(3, 3), stride=(1, 1), padding=(1, 1))
            (1): LeakyReLU(negative_slope=0.2, inplace=True)
            (2): Conv2d(32, 32, kernel_size=(3, 3), stride=(1, 1), padding=(1, 1))
          )
          (body2): Sequential(
            (0): Conv2d(32, 32, kernel_size=(3, 3), stride=(1, 1), padding=(1, 1))
            (1): LeakyReLU(negative_slope=0.2, inplace=True)
            (2): Conv2d(32, 32, kernel_size=(3, 3), stride=(1, 1), padding=(1, 1))
          )
        )
        (1): DPCB(
          (body1): Sequential(
            (0): Conv2d(32, 32, kernel_size=(3, 3), stride=(1, 1), padding=(1, 1))
            (1): LeakyReLU(negative_slope=0.2, inplace=True)
            (2): Conv2d(32, 32, kernel_size=(3, 3), stride=(1, 1), padding=(1, 1))
          )
          (body2): Sequential(
            (0): Conv2d(32, 32, kernel_size=(3, 3), stride=(1, 1), padding=(1, 1))
            (1): LeakyReLU(negative_slope=0.2, inplace=True)
            (2): Conv2d(32, 32, kernel_size=(3, 3), stride=(1, 1), padding=(1, 1))
          )
        )
        (2): DPCB(
          (body1): Sequential(
            (0): Conv2d(32, 32, kernel_size=(3, 3), stride=(1, 1), padding=(1, 1))
            (1): LeakyReLU(negative_slope=0.2, inplace=True)
            (2): Conv2d(32, 32, kernel_size=(3, 3), stride=(1, 1), padding=(1, 1))
          )
          (body2): Sequential(
            (0): Conv2d(32, 32, kernel_size=(3, 3), stride=(1, 1), padding=(1, 1))
            (1): LeakyReLU(negative_slope=0.2, inplace=True)
            (2): Conv2d(32, 32, kernel_size=(3, 3), stride=(1, 1), padding=(1, 1))
          )
        )
        (3): DPCB(
          (body1): Sequential(
            (0): Conv2d(32, 32, kernel_size=(3, 3), stride=(1, 1), padding=(1, 1))
            (1): LeakyReLU(negative_slope=0.2, inplace=True)
            (2): Conv2d(32, 32, kernel_size=(3, 3), stride=(1, 1), padding=(1, 1))
          )
          (body2): Sequential(
            (0): Conv2d(32, 32, kernel_size=(3, 3), stride=(1, 1), padding=(1, 1))
            (1): LeakyReLU(negative_slope=0.2, inplace=True)
            (2): Conv2d(32, 32, kernel_size=(3, 3), stride=(1, 1), padding=(1, 1))
          )
        )
        (4): DPCB(
          (body1): Sequential(
            (0): Conv2d(32, 32, kernel_size=(3, 3), stride=(1, 1), padding=(1, 1))
            (1): LeakyReLU(negative_slope=0.2, inplace=True)
            (2): Conv2d(32, 32, kernel_size=(3, 3), stride=(1, 1), padding=(1, 1))
          )
          (body2): Sequential(
            (0): Conv2d(32, 32, kernel_size=(3, 3), stride=(1, 1), padding=(1, 1))
            (1): LeakyReLU(negative_slope=0.2, inplace=True)
            (2): Conv2d(32, 32, kernel_size=(3, 3), stride=(1, 1), padding=(1, 1))
          )
        )
      )
    )
    (tail): Sequential(
      (0): Conv2d(32, 64, kernel_size=(3, 3), stride=(1, 1), padding=(1, 1))
      (1): AdaptiveAvgPool2d(output_size=1)
      (2): Conv2d(64, 441, kernel_size=(1, 1), stride=(1, 1))
      (3): Softmax(dim=1)
    )
  )
)
21-07-21 17:53:21.327 - INFO: Path already exists. Rename it to [/content/DAN/experiments/DANv2/DANx2_setting1_archived_210721-175321]
21-07-21 17:53:21.380 - INFO: Dataset [GTDataset - DIV2K] is created.
21-07-21 17:53:21.382 - INFO: Dataset [LQGTDataset - DIV2KRK] is created.
21-07-21 17:53:21.526 - INFO: Network G structure: DataParallel - DAN, with parameters: 4,540,028
21-07-21 17:53:21.526 - INFO: DAN(
  (Restorer): Restorer(
    (head1): Conv2d(3, 64, kernel_size=(3, 3), stride=(1, 1), padding=(1, 1))
    (head2): Conv2d(10, 64, kernel_size=(1, 1), stride=(1, 1))
    (body): Sequential(
      (0): DPCG(
        (body): Sequential(
          (0): DPCB(
            (body1): Sequential(
              (0): Conv2d(64, 64, kernel_size=(3, 3), stride=(1, 1), padding=(1, 1))
              (1): LeakyReLU(negative_slope=0.2, inplace=True)
              (2): Conv2d(64, 64, kernel_size=(3, 3), stride=(1, 1), padding=(1, 1))
            )
            (body2): Sequential(
              (0): Conv2d(64, 64, kernel_size=(1, 1), stride=(1, 1))
              (1): LeakyReLU(negative_slope=0.2, inplace=True)
              (2): Conv2d(64, 64, kernel_size=(1, 1), stride=(1, 1))
            )
          )
          (1): DPCB(
            (body1): Sequential(
              (0): Conv2d(64, 64, kernel_size=(3, 3), stride=(1, 1), padding=(1, 1))
              (1): LeakyReLU(negative_slope=0.2, inplace=True)
              (2): Conv2d(64, 64, kernel_size=(3, 3), stride=(1, 1), padding=(1, 1))
            )
            (body2): Sequential(
              (0): Conv2d(64, 64, kernel_size=(1, 1), stride=(1, 1))
              (1): LeakyReLU(negative_slope=0.2, inplace=True)
              (2): Conv2d(64, 64, kernel_size=(1, 1), stride=(1, 1))
            )
          )
          (2): DPCB(
            (body1): Sequential(
              (0): Conv2d(64, 64, kernel_size=(3, 3), stride=(1, 1), padding=(1, 1))
              (1): LeakyReLU(negative_slope=0.2, inplace=True)
              (2): Conv2d(64, 64, kernel_size=(3, 3), stride=(1, 1), padding=(1, 1))
            )
            (body2): Sequential(
              (0): Conv2d(64, 64, kernel_size=(1, 1), stride=(1, 1))
              (1): LeakyReLU(negative_slope=0.2, inplace=True)
              (2): Conv2d(64, 64, kernel_size=(1, 1), stride=(1, 1))
            )
          )
          (3): DPCB(
            (body1): Sequential(
              (0): Conv2d(64, 64, kernel_size=(3, 3), stride=(1, 1), padding=(1, 1))
              (1): LeakyReLU(negative_slope=0.2, inplace=True)
              (2): Conv2d(64, 64, kernel_size=(3, 3), stride=(1, 1), padding=(1, 1))
            )
            (body2): Sequential(
              (0): Conv2d(64, 64, kernel_size=(1, 1), stride=(1, 1))
              (1): LeakyReLU(negative_slope=0.2, inplace=True)
              (2): Conv2d(64, 64, kernel_size=(1, 1), stride=(1, 1))
            )
          )
          (4): DPCB(
            (body1): Sequential(
              (0): Conv2d(64, 64, kernel_size=(3, 3), stride=(1, 1), padding=(1, 1))
              (1): LeakyReLU(negative_slope=0.2, inplace=True)
              (2): Conv2d(64, 64, kernel_size=(3, 3), stride=(1, 1), padding=(1, 1))
            )
            (body2): Sequential(
              (0): Conv2d(64, 64, kernel_size=(1, 1), stride=(1, 1))
              (1): LeakyReLU(negative_slope=0.2, inplace=True)
              (2): Conv2d(64, 64, kernel_size=(1, 1), stride=(1, 1))
            )
          )
          (5): DPCB(
            (body1): Sequential(
              (0): Conv2d(64, 64, kernel_size=(3, 3), stride=(1, 1), padding=(1, 1))
              (1): LeakyReLU(negative_slope=0.2, inplace=True)
              (2): Conv2d(64, 64, kernel_size=(3, 3), stride=(1, 1), padding=(1, 1))
            )
            (body2): Sequential(
              (0): Conv2d(64, 64, kernel_size=(1, 1), stride=(1, 1))
              (1): LeakyReLU(negative_slope=0.2, inplace=True)
              (2): Conv2d(64, 64, kernel_size=(1, 1), stride=(1, 1))
            )
          )
          (6): DPCB(
            (body1): Sequential(
              (0): Conv2d(64, 64, kernel_size=(3, 3), stride=(1, 1), padding=(1, 1))
              (1): LeakyReLU(negative_slope=0.2, inplace=True)
              (2): Conv2d(64, 64, kernel_size=(3, 3), stride=(1, 1), padding=(1, 1))
            )
            (body2): Sequential(
              (0): Conv2d(64, 64, kernel_size=(1, 1), stride=(1, 1))
              (1): LeakyReLU(negative_slope=0.2, inplace=True)
              (2): Conv2d(64, 64, kernel_size=(1, 1), stride=(1, 1))
            )
          )
          (7): DPCB(
            (body1): Sequential(
              (0): Conv2d(64, 64, kernel_size=(3, 3), stride=(1, 1), padding=(1, 1))
              (1): LeakyReLU(negative_slope=0.2, inplace=True)
              (2): Conv2d(64, 64, kernel_size=(3, 3), stride=(1, 1), padding=(1, 1))
            )
            (body2): Sequential(
              (0): Conv2d(64, 64, kernel_size=(1, 1), stride=(1, 1))
              (1): LeakyReLU(negative_slope=0.2, inplace=True)
              (2): Conv2d(64, 64, kernel_size=(1, 1), stride=(1, 1))
            )
          )
          (8): DPCB(
            (body1): Sequential(
              (0): Conv2d(64, 64, kernel_size=(3, 3), stride=(1, 1), padding=(1, 1))
              (1): LeakyReLU(negative_slope=0.2, inplace=True)
              (2): Conv2d(64, 64, kernel_size=(3, 3), stride=(1, 1), padding=(1, 1))
            )
            (body2): Sequential(
              (0): Conv2d(64, 64, kernel_size=(1, 1), stride=(1, 1))
              (1): LeakyReLU(negative_slope=0.2, inplace=True)
              (2): Conv2d(64, 64, kernel_size=(1, 1), stride=(1, 1))
            )
          )
          (9): DPCB(
            (body1): Sequential(
              (0): Conv2d(64, 64, kernel_size=(3, 3), stride=(1, 1), padding=(1, 1))
              (1): LeakyReLU(negative_slope=0.2, inplace=True)
              (2): Conv2d(64, 64, kernel_size=(3, 3), stride=(1, 1), padding=(1, 1))
            )
            (body2): Sequential(
              (0): Conv2d(64, 64, kernel_size=(1, 1), stride=(1, 1))
              (1): LeakyReLU(negative_slope=0.2, inplace=True)
              (2): Conv2d(64, 64, kernel_size=(1, 1), stride=(1, 1))
            )
          )
        )
      )
      (1): DPCG(
        (body): Sequential(
          (0): DPCB(
            (body1): Sequential(
              (0): Conv2d(64, 64, kernel_size=(3, 3), stride=(1, 1), padding=(1, 1))
              (1): LeakyReLU(negative_slope=0.2, inplace=True)
              (2): Conv2d(64, 64, kernel_size=(3, 3), stride=(1, 1), padding=(1, 1))
            )
            (body2): Sequential(
              (0): Conv2d(64, 64, kernel_size=(1, 1), stride=(1, 1))
              (1): LeakyReLU(negative_slope=0.2, inplace=True)
              (2): Conv2d(64, 64, kernel_size=(1, 1), stride=(1, 1))
            )
          )
          (1): DPCB(
            (body1): Sequential(
              (0): Conv2d(64, 64, kernel_size=(3, 3), stride=(1, 1), padding=(1, 1))
              (1): LeakyReLU(negative_slope=0.2, inplace=True)
              (2): Conv2d(64, 64, kernel_size=(3, 3), stride=(1, 1), padding=(1, 1))
            )
            (body2): Sequential(
              (0): Conv2d(64, 64, kernel_size=(1, 1), stride=(1, 1))
              (1): LeakyReLU(negative_slope=0.2, inplace=True)
              (2): Conv2d(64, 64, kernel_size=(1, 1), stride=(1, 1))
            )
          )
          (2): DPCB(
            (body1): Sequential(
              (0): Conv2d(64, 64, kernel_size=(3, 3), stride=(1, 1), padding=(1, 1))
              (1): LeakyReLU(negative_slope=0.2, inplace=True)
              (2): Conv2d(64, 64, kernel_size=(3, 3), stride=(1, 1), padding=(1, 1))
            )
            (body2): Sequential(
              (0): Conv2d(64, 64, kernel_size=(1, 1), stride=(1, 1))
              (1): LeakyReLU(negative_slope=0.2, inplace=True)
              (2): Conv2d(64, 64, kernel_size=(1, 1), stride=(1, 1))
            )
          )
          (3): DPCB(
            (body1): Sequential(
              (0): Conv2d(64, 64, kernel_size=(3, 3), stride=(1, 1), padding=(1, 1))
              (1): LeakyReLU(negative_slope=0.2, inplace=True)
              (2): Conv2d(64, 64, kernel_size=(3, 3), stride=(1, 1), padding=(1, 1))
            )
            (body2): Sequential(
              (0): Conv2d(64, 64, kernel_size=(1, 1), stride=(1, 1))
              (1): LeakyReLU(negative_slope=0.2, inplace=True)
              (2): Conv2d(64, 64, kernel_size=(1, 1), stride=(1, 1))
            )
          )
          (4): DPCB(
            (body1): Sequential(
              (0): Conv2d(64, 64, kernel_size=(3, 3), stride=(1, 1), padding=(1, 1))
              (1): LeakyReLU(negative_slope=0.2, inplace=True)
              (2): Conv2d(64, 64, kernel_size=(3, 3), stride=(1, 1), padding=(1, 1))
            )
            (body2): Sequential(
              (0): Conv2d(64, 64, kernel_size=(1, 1), stride=(1, 1))
              (1): LeakyReLU(negative_slope=0.2, inplace=True)
              (2): Conv2d(64, 64, kernel_size=(1, 1), stride=(1, 1))
            )
          )
          (5): DPCB(
            (body1): Sequential(
              (0): Conv2d(64, 64, kernel_size=(3, 3), stride=(1, 1), padding=(1, 1))
              (1): LeakyReLU(negative_slope=0.2, inplace=True)
              (2): Conv2d(64, 64, kernel_size=(3, 3), stride=(1, 1), padding=(1, 1))
            )
            (body2): Sequential(
              (0): Conv2d(64, 64, kernel_size=(1, 1), stride=(1, 1))
              (1): LeakyReLU(negative_slope=0.2, inplace=True)
              (2): Conv2d(64, 64, kernel_size=(1, 1), stride=(1, 1))
            )
          )
          (6): DPCB(
            (body1): Sequential(
              (0): Conv2d(64, 64, kernel_size=(3, 3), stride=(1, 1), padding=(1, 1))
              (1): LeakyReLU(negative_slope=0.2, inplace=True)
              (2): Conv2d(64, 64, kernel_size=(3, 3), stride=(1, 1), padding=(1, 1))
            )
            (body2): Sequential(
              (0): Conv2d(64, 64, kernel_size=(1, 1), stride=(1, 1))
              (1): LeakyReLU(negative_slope=0.2, inplace=True)
              (2): Conv2d(64, 64, kernel_size=(1, 1), stride=(1, 1))
            )
          )
          (7): DPCB(
            (body1): Sequential(
              (0): Conv2d(64, 64, kernel_size=(3, 3), stride=(1, 1), padding=(1, 1))
              (1): LeakyReLU(negative_slope=0.2, inplace=True)
              (2): Conv2d(64, 64, kernel_size=(3, 3), stride=(1, 1), padding=(1, 1))
            )
            (body2): Sequential(
              (0): Conv2d(64, 64, kernel_size=(1, 1), stride=(1, 1))
              (1): LeakyReLU(negative_slope=0.2, inplace=True)
              (2): Conv2d(64, 64, kernel_size=(1, 1), stride=(1, 1))
            )
          )
          (8): DPCB(
            (body1): Sequential(
              (0): Conv2d(64, 64, kernel_size=(3, 3), stride=(1, 1), padding=(1, 1))
              (1): LeakyReLU(negative_slope=0.2, inplace=True)
              (2): Conv2d(64, 64, kernel_size=(3, 3), stride=(1, 1), padding=(1, 1))
            )
            (body2): Sequential(
              (0): Conv2d(64, 64, kernel_size=(1, 1), stride=(1, 1))
              (1): LeakyReLU(negative_slope=0.2, inplace=True)
              (2): Conv2d(64, 64, kernel_size=(1, 1), stride=(1, 1))
            )
          )
          (9): DPCB(
            (body1): Sequential(
              (0): Conv2d(64, 64, kernel_size=(3, 3), stride=(1, 1), padding=(1, 1))
              (1): LeakyReLU(negative_slope=0.2, inplace=True)
              (2): Conv2d(64, 64, kernel_size=(3, 3), stride=(1, 1), padding=(1, 1))
            )
            (body2): Sequential(
              (0): Conv2d(64, 64, kernel_size=(1, 1), stride=(1, 1))
              (1): LeakyReLU(negative_slope=0.2, inplace=True)
              (2): Conv2d(64, 64, kernel_size=(1, 1), stride=(1, 1))
            )
          )
        )
      )
      (2): DPCG(
        (body): Sequential(
          (0): DPCB(
            (body1): Sequential(
              (0): Conv2d(64, 64, kernel_size=(3, 3), stride=(1, 1), padding=(1, 1))
              (1): LeakyReLU(negative_slope=0.2, inplace=True)
              (2): Conv2d(64, 64, kernel_size=(3, 3), stride=(1, 1), padding=(1, 1))
            )
            (body2): Sequential(
              (0): Conv2d(64, 64, kernel_size=(1, 1), stride=(1, 1))
              (1): LeakyReLU(negative_slope=0.2, inplace=True)
              (2): Conv2d(64, 64, kernel_size=(1, 1), stride=(1, 1))
            )
          )
          (1): DPCB(
            (body1): Sequential(
              (0): Conv2d(64, 64, kernel_size=(3, 3), stride=(1, 1), padding=(1, 1))
              (1): LeakyReLU(negative_slope=0.2, inplace=True)
              (2): Conv2d(64, 64, kernel_size=(3, 3), stride=(1, 1), padding=(1, 1))
            )
            (body2): Sequential(
              (0): Conv2d(64, 64, kernel_size=(1, 1), stride=(1, 1))
              (1): LeakyReLU(negative_slope=0.2, inplace=True)
              (2): Conv2d(64, 64, kernel_size=(1, 1), stride=(1, 1))
            )
          )
          (2): DPCB(
            (body1): Sequential(
              (0): Conv2d(64, 64, kernel_size=(3, 3), stride=(1, 1), padding=(1, 1))
              (1): LeakyReLU(negative_slope=0.2, inplace=True)
              (2): Conv2d(64, 64, kernel_size=(3, 3), stride=(1, 1), padding=(1, 1))
            )
            (body2): Sequential(
              (0): Conv2d(64, 64, kernel_size=(1, 1), stride=(1, 1))
              (1): LeakyReLU(negative_slope=0.2, inplace=True)
              (2): Conv2d(64, 64, kernel_size=(1, 1), stride=(1, 1))
            )
          )
          (3): DPCB(
            (body1): Sequential(
              (0): Conv2d(64, 64, kernel_size=(3, 3), stride=(1, 1), padding=(1, 1))
              (1): LeakyReLU(negative_slope=0.2, inplace=True)
              (2): Conv2d(64, 64, kernel_size=(3, 3), stride=(1, 1), padding=(1, 1))
            )
            (body2): Sequential(
              (0): Conv2d(64, 64, kernel_size=(1, 1), stride=(1, 1))
              (1): LeakyReLU(negative_slope=0.2, inplace=True)
              (2): Conv2d(64, 64, kernel_size=(1, 1), stride=(1, 1))
            )
          )
          (4): DPCB(
            (body1): Sequential(
              (0): Conv2d(64, 64, kernel_size=(3, 3), stride=(1, 1), padding=(1, 1))
              (1): LeakyReLU(negative_slope=0.2, inplace=True)
              (2): Conv2d(64, 64, kernel_size=(3, 3), stride=(1, 1), padding=(1, 1))
            )
            (body2): Sequential(
              (0): Conv2d(64, 64, kernel_size=(1, 1), stride=(1, 1))
              (1): LeakyReLU(negative_slope=0.2, inplace=True)
              (2): Conv2d(64, 64, kernel_size=(1, 1), stride=(1, 1))
            )
          )
          (5): DPCB(
            (body1): Sequential(
              (0): Conv2d(64, 64, kernel_size=(3, 3), stride=(1, 1), padding=(1, 1))
              (1): LeakyReLU(negative_slope=0.2, inplace=True)
              (2): Conv2d(64, 64, kernel_size=(3, 3), stride=(1, 1), padding=(1, 1))
            )
            (body2): Sequential(
              (0): Conv2d(64, 64, kernel_size=(1, 1), stride=(1, 1))
              (1): LeakyReLU(negative_slope=0.2, inplace=True)
              (2): Conv2d(64, 64, kernel_size=(1, 1), stride=(1, 1))
            )
          )
          (6): DPCB(
            (body1): Sequential(
              (0): Conv2d(64, 64, kernel_size=(3, 3), stride=(1, 1), padding=(1, 1))
              (1): LeakyReLU(negative_slope=0.2, inplace=True)
              (2): Conv2d(64, 64, kernel_size=(3, 3), stride=(1, 1), padding=(1, 1))
            )
            (body2): Sequential(
              (0): Conv2d(64, 64, kernel_size=(1, 1), stride=(1, 1))
              (1): LeakyReLU(negative_slope=0.2, inplace=True)
              (2): Conv2d(64, 64, kernel_size=(1, 1), stride=(1, 1))
            )
          )
          (7): DPCB(
            (body1): Sequential(
              (0): Conv2d(64, 64, kernel_size=(3, 3), stride=(1, 1), padding=(1, 1))
              (1): LeakyReLU(negative_slope=0.2, inplace=True)
              (2): Conv2d(64, 64, kernel_size=(3, 3), stride=(1, 1), padding=(1, 1))
            )
            (body2): Sequential(
              (0): Conv2d(64, 64, kernel_size=(1, 1), stride=(1, 1))
              (1): LeakyReLU(negative_slope=0.2, inplace=True)
              (2): Conv2d(64, 64, kernel_size=(1, 1), stride=(1, 1))
            )
          )
          (8): DPCB(
            (body1): Sequential(
              (0): Conv2d(64, 64, kernel_size=(3, 3), stride=(1, 1), padding=(1, 1))
              (1): LeakyReLU(negative_slope=0.2, inplace=True)
              (2): Conv2d(64, 64, kernel_size=(3, 3), stride=(1, 1), padding=(1, 1))
            )
            (body2): Sequential(
              (0): Conv2d(64, 64, kernel_size=(1, 1), stride=(1, 1))
              (1): LeakyReLU(negative_slope=0.2, inplace=True)
              (2): Conv2d(64, 64, kernel_size=(1, 1), stride=(1, 1))
            )
          )
          (9): DPCB(
            (body1): Sequential(
              (0): Conv2d(64, 64, kernel_size=(3, 3), stride=(1, 1), padding=(1, 1))
              (1): LeakyReLU(negative_slope=0.2, inplace=True)
              (2): Conv2d(64, 64, kernel_size=(3, 3), stride=(1, 1), padding=(1, 1))
            )
            (body2): Sequential(
              (0): Conv2d(64, 64, kernel_size=(1, 1), stride=(1, 1))
              (1): LeakyReLU(negative_slope=0.2, inplace=True)
              (2): Conv2d(64, 64, kernel_size=(1, 1), stride=(1, 1))
            )
          )
        )
      )
      (3): DPCG(
        (body): Sequential(
          (0): DPCB(
            (body1): Sequential(
              (0): Conv2d(64, 64, kernel_size=(3, 3), stride=(1, 1), padding=(1, 1))
              (1): LeakyReLU(negative_slope=0.2, inplace=True)
              (2): Conv2d(64, 64, kernel_size=(3, 3), stride=(1, 1), padding=(1, 1))
            )
            (body2): Sequential(
              (0): Conv2d(64, 64, kernel_size=(1, 1), stride=(1, 1))
              (1): LeakyReLU(negative_slope=0.2, inplace=True)
              (2): Conv2d(64, 64, kernel_size=(1, 1), stride=(1, 1))
            )
          )
          (1): DPCB(
            (body1): Sequential(
              (0): Conv2d(64, 64, kernel_size=(3, 3), stride=(1, 1), padding=(1, 1))
              (1): LeakyReLU(negative_slope=0.2, inplace=True)
              (2): Conv2d(64, 64, kernel_size=(3, 3), stride=(1, 1), padding=(1, 1))
            )
            (body2): Sequential(
              (0): Conv2d(64, 64, kernel_size=(1, 1), stride=(1, 1))
              (1): LeakyReLU(negative_slope=0.2, inplace=True)
              (2): Conv2d(64, 64, kernel_size=(1, 1), stride=(1, 1))
            )
          )
          (2): DPCB(
            (body1): Sequential(
              (0): Conv2d(64, 64, kernel_size=(3, 3), stride=(1, 1), padding=(1, 1))
              (1): LeakyReLU(negative_slope=0.2, inplace=True)
              (2): Conv2d(64, 64, kernel_size=(3, 3), stride=(1, 1), padding=(1, 1))
            )
            (body2): Sequential(
              (0): Conv2d(64, 64, kernel_size=(1, 1), stride=(1, 1))
              (1): LeakyReLU(negative_slope=0.2, inplace=True)
              (2): Conv2d(64, 64, kernel_size=(1, 1), stride=(1, 1))
            )
          )
          (3): DPCB(
            (body1): Sequential(
              (0): Conv2d(64, 64, kernel_size=(3, 3), stride=(1, 1), padding=(1, 1))
              (1): LeakyReLU(negative_slope=0.2, inplace=True)
              (2): Conv2d(64, 64, kernel_size=(3, 3), stride=(1, 1), padding=(1, 1))
            )
            (body2): Sequential(
              (0): Conv2d(64, 64, kernel_size=(1, 1), stride=(1, 1))
              (1): LeakyReLU(negative_slope=0.2, inplace=True)
              (2): Conv2d(64, 64, kernel_size=(1, 1), stride=(1, 1))
            )
          )
          (4): DPCB(
            (body1): Sequential(
              (0): Conv2d(64, 64, kernel_size=(3, 3), stride=(1, 1), padding=(1, 1))
              (1): LeakyReLU(negative_slope=0.2, inplace=True)
              (2): Conv2d(64, 64, kernel_size=(3, 3), stride=(1, 1), padding=(1, 1))
            )
            (body2): Sequential(
              (0): Conv2d(64, 64, kernel_size=(1, 1), stride=(1, 1))
              (1): LeakyReLU(negative_slope=0.2, inplace=True)
              (2): Conv2d(64, 64, kernel_size=(1, 1), stride=(1, 1))
            )
          )
          (5): DPCB(
            (body1): Sequential(
              (0): Conv2d(64, 64, kernel_size=(3, 3), stride=(1, 1), padding=(1, 1))
              (1): LeakyReLU(negative_slope=0.2, inplace=True)
              (2): Conv2d(64, 64, kernel_size=(3, 3), stride=(1, 1), padding=(1, 1))
            )
            (body2): Sequential(
              (0): Conv2d(64, 64, kernel_size=(1, 1), stride=(1, 1))
              (1): LeakyReLU(negative_slope=0.2, inplace=True)
              (2): Conv2d(64, 64, kernel_size=(1, 1), stride=(1, 1))
            )
          )
          (6): DPCB(
            (body1): Sequential(
              (0): Conv2d(64, 64, kernel_size=(3, 3), stride=(1, 1), padding=(1, 1))
              (1): LeakyReLU(negative_slope=0.2, inplace=True)
              (2): Conv2d(64, 64, kernel_size=(3, 3), stride=(1, 1), padding=(1, 1))
            )
            (body2): Sequential(
              (0): Conv2d(64, 64, kernel_size=(1, 1), stride=(1, 1))
              (1): LeakyReLU(negative_slope=0.2, inplace=True)
              (2): Conv2d(64, 64, kernel_size=(1, 1), stride=(1, 1))
            )
          )
          (7): DPCB(
            (body1): Sequential(
              (0): Conv2d(64, 64, kernel_size=(3, 3), stride=(1, 1), padding=(1, 1))
              (1): LeakyReLU(negative_slope=0.2, inplace=True)
              (2): Conv2d(64, 64, kernel_size=(3, 3), stride=(1, 1), padding=(1, 1))
            )
            (body2): Sequential(
              (0): Conv2d(64, 64, kernel_size=(1, 1), stride=(1, 1))
              (1): LeakyReLU(negative_slope=0.2, inplace=True)
              (2): Conv2d(64, 64, kernel_size=(1, 1), stride=(1, 1))
            )
          )
          (8): DPCB(
            (body1): Sequential(
              (0): Conv2d(64, 64, kernel_size=(3, 3), stride=(1, 1), padding=(1, 1))
              (1): LeakyReLU(negative_slope=0.2, inplace=True)
              (2): Conv2d(64, 64, kernel_size=(3, 3), stride=(1, 1), padding=(1, 1))
            )
            (body2): Sequential(
              (0): Conv2d(64, 64, kernel_size=(1, 1), stride=(1, 1))
              (1): LeakyReLU(negative_slope=0.2, inplace=True)
              (2): Conv2d(64, 64, kernel_size=(1, 1), stride=(1, 1))
            )
          )
          (9): DPCB(
            (body1): Sequential(
              (0): Conv2d(64, 64, kernel_size=(3, 3), stride=(1, 1), padding=(1, 1))
              (1): LeakyReLU(negative_slope=0.2, inplace=True)
              (2): Conv2d(64, 64, kernel_size=(3, 3), stride=(1, 1), padding=(1, 1))
            )
            (body2): Sequential(
              (0): Conv2d(64, 64, kernel_size=(1, 1), stride=(1, 1))
              (1): LeakyReLU(negative_slope=0.2, inplace=True)
              (2): Conv2d(64, 64, kernel_size=(1, 1), stride=(1, 1))
            )
          )
        )
      )
      (4): DPCG(
        (body): Sequential(
          (0): DPCB(
            (body1): Sequential(
              (0): Conv2d(64, 64, kernel_size=(3, 3), stride=(1, 1), padding=(1, 1))
              (1): LeakyReLU(negative_slope=0.2, inplace=True)
              (2): Conv2d(64, 64, kernel_size=(3, 3), stride=(1, 1), padding=(1, 1))
            )
            (body2): Sequential(
              (0): Conv2d(64, 64, kernel_size=(1, 1), stride=(1, 1))
              (1): LeakyReLU(negative_slope=0.2, inplace=True)
              (2): Conv2d(64, 64, kernel_size=(1, 1), stride=(1, 1))
            )
          )
          (1): DPCB(
            (body1): Sequential(
              (0): Conv2d(64, 64, kernel_size=(3, 3), stride=(1, 1), padding=(1, 1))
              (1): LeakyReLU(negative_slope=0.2, inplace=True)
              (2): Conv2d(64, 64, kernel_size=(3, 3), stride=(1, 1), padding=(1, 1))
            )
            (body2): Sequential(
              (0): Conv2d(64, 64, kernel_size=(1, 1), stride=(1, 1))
              (1): LeakyReLU(negative_slope=0.2, inplace=True)
              (2): Conv2d(64, 64, kernel_size=(1, 1), stride=(1, 1))
            )
          )
          (2): DPCB(
            (body1): Sequential(
              (0): Conv2d(64, 64, kernel_size=(3, 3), stride=(1, 1), padding=(1, 1))
              (1): LeakyReLU(negative_slope=0.2, inplace=True)
              (2): Conv2d(64, 64, kernel_size=(3, 3), stride=(1, 1), padding=(1, 1))
            )
            (body2): Sequential(
              (0): Conv2d(64, 64, kernel_size=(1, 1), stride=(1, 1))
              (1): LeakyReLU(negative_slope=0.2, inplace=True)
              (2): Conv2d(64, 64, kernel_size=(1, 1), stride=(1, 1))
            )
          )
          (3): DPCB(
            (body1): Sequential(
              (0): Conv2d(64, 64, kernel_size=(3, 3), stride=(1, 1), padding=(1, 1))
              (1): LeakyReLU(negative_slope=0.2, inplace=True)
              (2): Conv2d(64, 64, kernel_size=(3, 3), stride=(1, 1), padding=(1, 1))
            )
            (body2): Sequential(
              (0): Conv2d(64, 64, kernel_size=(1, 1), stride=(1, 1))
              (1): LeakyReLU(negative_slope=0.2, inplace=True)
              (2): Conv2d(64, 64, kernel_size=(1, 1), stride=(1, 1))
            )
          )
          (4): DPCB(
            (body1): Sequential(
              (0): Conv2d(64, 64, kernel_size=(3, 3), stride=(1, 1), padding=(1, 1))
              (1): LeakyReLU(negative_slope=0.2, inplace=True)
              (2): Conv2d(64, 64, kernel_size=(3, 3), stride=(1, 1), padding=(1, 1))
            )
            (body2): Sequential(
              (0): Conv2d(64, 64, kernel_size=(1, 1), stride=(1, 1))
              (1): LeakyReLU(negative_slope=0.2, inplace=True)
              (2): Conv2d(64, 64, kernel_size=(1, 1), stride=(1, 1))
            )
          )
          (5): DPCB(
            (body1): Sequential(
              (0): Conv2d(64, 64, kernel_size=(3, 3), stride=(1, 1), padding=(1, 1))
              (1): LeakyReLU(negative_slope=0.2, inplace=True)
              (2): Conv2d(64, 64, kernel_size=(3, 3), stride=(1, 1), padding=(1, 1))
            )
            (body2): Sequential(
              (0): Conv2d(64, 64, kernel_size=(1, 1), stride=(1, 1))
              (1): LeakyReLU(negative_slope=0.2, inplace=True)
              (2): Conv2d(64, 64, kernel_size=(1, 1), stride=(1, 1))
            )
          )
          (6): DPCB(
            (body1): Sequential(
              (0): Conv2d(64, 64, kernel_size=(3, 3), stride=(1, 1), padding=(1, 1))
              (1): LeakyReLU(negative_slope=0.2, inplace=True)
              (2): Conv2d(64, 64, kernel_size=(3, 3), stride=(1, 1), padding=(1, 1))
            )
            (body2): Sequential(
              (0): Conv2d(64, 64, kernel_size=(1, 1), stride=(1, 1))
              (1): LeakyReLU(negative_slope=0.2, inplace=True)
              (2): Conv2d(64, 64, kernel_size=(1, 1), stride=(1, 1))
            )
          )
          (7): DPCB(
            (body1): Sequential(
              (0): Conv2d(64, 64, kernel_size=(3, 3), stride=(1, 1), padding=(1, 1))
              (1): LeakyReLU(negative_slope=0.2, inplace=True)
              (2): Conv2d(64, 64, kernel_size=(3, 3), stride=(1, 1), padding=(1, 1))
            )
            (body2): Sequential(
              (0): Conv2d(64, 64, kernel_size=(1, 1), stride=(1, 1))
              (1): LeakyReLU(negative_slope=0.2, inplace=True)
              (2): Conv2d(64, 64, kernel_size=(1, 1), stride=(1, 1))
            )
          )
          (8): DPCB(
            (body1): Sequential(
              (0): Conv2d(64, 64, kernel_size=(3, 3), stride=(1, 1), padding=(1, 1))
              (1): LeakyReLU(negative_slope=0.2, inplace=True)
              (2): Conv2d(64, 64, kernel_size=(3, 3), stride=(1, 1), padding=(1, 1))
            )
            (body2): Sequential(
              (0): Conv2d(64, 64, kernel_size=(1, 1), stride=(1, 1))
              (1): LeakyReLU(negative_slope=0.2, inplace=True)
              (2): Conv2d(64, 64, kernel_size=(1, 1), stride=(1, 1))
            )
          )
          (9): DPCB(
            (body1): Sequential(
              (0): Conv2d(64, 64, kernel_size=(3, 3), stride=(1, 1), padding=(1, 1))
              (1): LeakyReLU(negative_slope=0.2, inplace=True)
              (2): Conv2d(64, 64, kernel_size=(3, 3), stride=(1, 1), padding=(1, 1))
            )
            (body2): Sequential(
              (0): Conv2d(64, 64, kernel_size=(1, 1), stride=(1, 1))
              (1): LeakyReLU(negative_slope=0.2, inplace=True)
              (2): Conv2d(64, 64, kernel_size=(1, 1), stride=(1, 1))
            )
          )
        )
      )
    )
    (fusion): Conv2d(64, 64, kernel_size=(3, 3), stride=(1, 1), padding=(1, 1))
    (upscale): Sequential(
      (0): Conv2d(64, 256, kernel_size=(3, 3), stride=(1, 1), padding=(1, 1))
      (1): PixelShuffle(upscale_factor=2)
      (2): Conv2d(64, 3, kernel_size=(3, 3), stride=(1, 1), padding=(1, 1))
    )
  )
  (Estimator): Estimator(
    (head_LR): Sequential(
      (0): Conv2d(3, 32, kernel_size=(5, 5), stride=(1, 1), padding=(2, 2))
    )
    (head_HR): Sequential(
      (0): Conv2d(3, 32, kernel_size=(9, 9), stride=(2, 2), padding=(4, 4))
    )
    (body): DPCG(
      (body): Sequential(
        (0): DPCB(
          (body1): Sequential(
            (0): Conv2d(32, 32, kernel_size=(3, 3), stride=(1, 1), padding=(1, 1))
            (1): LeakyReLU(negative_slope=0.2, inplace=True)
            (2): Conv2d(32, 32, kernel_size=(3, 3), stride=(1, 1), padding=(1, 1))
          )
          (body2): Sequential(
            (0): Conv2d(32, 32, kernel_size=(3, 3), stride=(1, 1), padding=(1, 1))
            (1): LeakyReLU(negative_slope=0.2, inplace=True)
            (2): Conv2d(32, 32, kernel_size=(3, 3), stride=(1, 1), padding=(1, 1))
          )
        )
        (1): DPCB(
          (body1): Sequential(
            (0): Conv2d(32, 32, kernel_size=(3, 3), stride=(1, 1), padding=(1, 1))
            (1): LeakyReLU(negative_slope=0.2, inplace=True)
            (2): Conv2d(32, 32, kernel_size=(3, 3), stride=(1, 1), padding=(1, 1))
          )
          (body2): Sequential(
            (0): Conv2d(32, 32, kernel_size=(3, 3), stride=(1, 1), padding=(1, 1))
            (1): LeakyReLU(negative_slope=0.2, inplace=True)
            (2): Conv2d(32, 32, kernel_size=(3, 3), stride=(1, 1), padding=(1, 1))
          )
        )
        (2): DPCB(
          (body1): Sequential(
            (0): Conv2d(32, 32, kernel_size=(3, 3), stride=(1, 1), padding=(1, 1))
            (1): LeakyReLU(negative_slope=0.2, inplace=True)
            (2): Conv2d(32, 32, kernel_size=(3, 3), stride=(1, 1), padding=(1, 1))
          )
          (body2): Sequential(
            (0): Conv2d(32, 32, kernel_size=(3, 3), stride=(1, 1), padding=(1, 1))
            (1): LeakyReLU(negative_slope=0.2, inplace=True)
            (2): Conv2d(32, 32, kernel_size=(3, 3), stride=(1, 1), padding=(1, 1))
          )
        )
        (3): DPCB(
          (body1): Sequential(
            (0): Conv2d(32, 32, kernel_size=(3, 3), stride=(1, 1), padding=(1, 1))
            (1): LeakyReLU(negative_slope=0.2, inplace=True)
            (2): Conv2d(32, 32, kernel_size=(3, 3), stride=(1, 1), padding=(1, 1))
          )
          (body2): Sequential(
            (0): Conv2d(32, 32, kernel_size=(3, 3), stride=(1, 1), padding=(1, 1))
            (1): LeakyReLU(negative_slope=0.2, inplace=True)
            (2): Conv2d(32, 32, kernel_size=(3, 3), stride=(1, 1), padding=(1, 1))
          )
        )
        (4): DPCB(
          (body1): Sequential(
            (0): Conv2d(32, 32, kernel_size=(3, 3), stride=(1, 1), padding=(1, 1))
            (1): LeakyReLU(negative_slope=0.2, inplace=True)
            (2): Conv2d(32, 32, kernel_size=(3, 3), stride=(1, 1), padding=(1, 1))
          )
          (body2): Sequential(
            (0): Conv2d(32, 32, kernel_size=(3, 3), stride=(1, 1), padding=(1, 1))
            (1): LeakyReLU(negative_slope=0.2, inplace=True)
            (2): Conv2d(32, 32, kernel_size=(3, 3), stride=(1, 1), padding=(1, 1))
          )
        )
      )
    )
    (tail): Sequential(
      (0): Conv2d(32, 64, kernel_size=(3, 3), stride=(1, 1), padding=(1, 1))
      (1): AdaptiveAvgPool2d(output_size=1)
      (2): Conv2d(64, 441, kernel_size=(1, 1), stride=(1, 1))
      (3): Softmax(dim=1)
    )
  )
)
21-07-21 17:54:32.143 - INFO: Path already exists. Rename it to [/content/DAN/experiments/DANv2/DANx2_setting1_archived_210721-175432]
21-07-21 17:54:32.191 - INFO: Dataset [GTDataset - DIV2K] is created.
21-07-21 17:54:32.193 - INFO: Dataset [LQGTDataset - DIV2KRK] is created.
21-07-21 17:54:32.470 - INFO: Network G structure: DataParallel - DAN, with parameters: 4,540,028
21-07-21 17:54:32.471 - INFO: DAN(
  (Restorer): Restorer(
    (head1): Conv2d(3, 64, kernel_size=(3, 3), stride=(1, 1), padding=(1, 1))
    (head2): Conv2d(10, 64, kernel_size=(1, 1), stride=(1, 1))
    (body): Sequential(
      (0): DPCG(
        (body): Sequential(
          (0): DPCB(
            (body1): Sequential(
              (0): Conv2d(64, 64, kernel_size=(3, 3), stride=(1, 1), padding=(1, 1))
              (1): LeakyReLU(negative_slope=0.2, inplace=True)
              (2): Conv2d(64, 64, kernel_size=(3, 3), stride=(1, 1), padding=(1, 1))
            )
            (body2): Sequential(
              (0): Conv2d(64, 64, kernel_size=(1, 1), stride=(1, 1))
              (1): LeakyReLU(negative_slope=0.2, inplace=True)
              (2): Conv2d(64, 64, kernel_size=(1, 1), stride=(1, 1))
            )
          )
          (1): DPCB(
            (body1): Sequential(
              (0): Conv2d(64, 64, kernel_size=(3, 3), stride=(1, 1), padding=(1, 1))
              (1): LeakyReLU(negative_slope=0.2, inplace=True)
              (2): Conv2d(64, 64, kernel_size=(3, 3), stride=(1, 1), padding=(1, 1))
            )
            (body2): Sequential(
              (0): Conv2d(64, 64, kernel_size=(1, 1), stride=(1, 1))
              (1): LeakyReLU(negative_slope=0.2, inplace=True)
              (2): Conv2d(64, 64, kernel_size=(1, 1), stride=(1, 1))
            )
          )
          (2): DPCB(
            (body1): Sequential(
              (0): Conv2d(64, 64, kernel_size=(3, 3), stride=(1, 1), padding=(1, 1))
              (1): LeakyReLU(negative_slope=0.2, inplace=True)
              (2): Conv2d(64, 64, kernel_size=(3, 3), stride=(1, 1), padding=(1, 1))
            )
            (body2): Sequential(
              (0): Conv2d(64, 64, kernel_size=(1, 1), stride=(1, 1))
              (1): LeakyReLU(negative_slope=0.2, inplace=True)
              (2): Conv2d(64, 64, kernel_size=(1, 1), stride=(1, 1))
            )
          )
          (3): DPCB(
            (body1): Sequential(
              (0): Conv2d(64, 64, kernel_size=(3, 3), stride=(1, 1), padding=(1, 1))
              (1): LeakyReLU(negative_slope=0.2, inplace=True)
              (2): Conv2d(64, 64, kernel_size=(3, 3), stride=(1, 1), padding=(1, 1))
            )
            (body2): Sequential(
              (0): Conv2d(64, 64, kernel_size=(1, 1), stride=(1, 1))
              (1): LeakyReLU(negative_slope=0.2, inplace=True)
              (2): Conv2d(64, 64, kernel_size=(1, 1), stride=(1, 1))
            )
          )
          (4): DPCB(
            (body1): Sequential(
              (0): Conv2d(64, 64, kernel_size=(3, 3), stride=(1, 1), padding=(1, 1))
              (1): LeakyReLU(negative_slope=0.2, inplace=True)
              (2): Conv2d(64, 64, kernel_size=(3, 3), stride=(1, 1), padding=(1, 1))
            )
            (body2): Sequential(
              (0): Conv2d(64, 64, kernel_size=(1, 1), stride=(1, 1))
              (1): LeakyReLU(negative_slope=0.2, inplace=True)
              (2): Conv2d(64, 64, kernel_size=(1, 1), stride=(1, 1))
            )
          )
          (5): DPCB(
            (body1): Sequential(
              (0): Conv2d(64, 64, kernel_size=(3, 3), stride=(1, 1), padding=(1, 1))
              (1): LeakyReLU(negative_slope=0.2, inplace=True)
              (2): Conv2d(64, 64, kernel_size=(3, 3), stride=(1, 1), padding=(1, 1))
            )
            (body2): Sequential(
              (0): Conv2d(64, 64, kernel_size=(1, 1), stride=(1, 1))
              (1): LeakyReLU(negative_slope=0.2, inplace=True)
              (2): Conv2d(64, 64, kernel_size=(1, 1), stride=(1, 1))
            )
          )
          (6): DPCB(
            (body1): Sequential(
              (0): Conv2d(64, 64, kernel_size=(3, 3), stride=(1, 1), padding=(1, 1))
              (1): LeakyReLU(negative_slope=0.2, inplace=True)
              (2): Conv2d(64, 64, kernel_size=(3, 3), stride=(1, 1), padding=(1, 1))
            )
            (body2): Sequential(
              (0): Conv2d(64, 64, kernel_size=(1, 1), stride=(1, 1))
              (1): LeakyReLU(negative_slope=0.2, inplace=True)
              (2): Conv2d(64, 64, kernel_size=(1, 1), stride=(1, 1))
            )
          )
          (7): DPCB(
            (body1): Sequential(
              (0): Conv2d(64, 64, kernel_size=(3, 3), stride=(1, 1), padding=(1, 1))
              (1): LeakyReLU(negative_slope=0.2, inplace=True)
              (2): Conv2d(64, 64, kernel_size=(3, 3), stride=(1, 1), padding=(1, 1))
            )
            (body2): Sequential(
              (0): Conv2d(64, 64, kernel_size=(1, 1), stride=(1, 1))
              (1): LeakyReLU(negative_slope=0.2, inplace=True)
              (2): Conv2d(64, 64, kernel_size=(1, 1), stride=(1, 1))
            )
          )
          (8): DPCB(
            (body1): Sequential(
              (0): Conv2d(64, 64, kernel_size=(3, 3), stride=(1, 1), padding=(1, 1))
              (1): LeakyReLU(negative_slope=0.2, inplace=True)
              (2): Conv2d(64, 64, kernel_size=(3, 3), stride=(1, 1), padding=(1, 1))
            )
            (body2): Sequential(
              (0): Conv2d(64, 64, kernel_size=(1, 1), stride=(1, 1))
              (1): LeakyReLU(negative_slope=0.2, inplace=True)
              (2): Conv2d(64, 64, kernel_size=(1, 1), stride=(1, 1))
            )
          )
          (9): DPCB(
            (body1): Sequential(
              (0): Conv2d(64, 64, kernel_size=(3, 3), stride=(1, 1), padding=(1, 1))
              (1): LeakyReLU(negative_slope=0.2, inplace=True)
              (2): Conv2d(64, 64, kernel_size=(3, 3), stride=(1, 1), padding=(1, 1))
            )
            (body2): Sequential(
              (0): Conv2d(64, 64, kernel_size=(1, 1), stride=(1, 1))
              (1): LeakyReLU(negative_slope=0.2, inplace=True)
              (2): Conv2d(64, 64, kernel_size=(1, 1), stride=(1, 1))
            )
          )
        )
      )
      (1): DPCG(
        (body): Sequential(
          (0): DPCB(
            (body1): Sequential(
              (0): Conv2d(64, 64, kernel_size=(3, 3), stride=(1, 1), padding=(1, 1))
              (1): LeakyReLU(negative_slope=0.2, inplace=True)
              (2): Conv2d(64, 64, kernel_size=(3, 3), stride=(1, 1), padding=(1, 1))
            )
            (body2): Sequential(
              (0): Conv2d(64, 64, kernel_size=(1, 1), stride=(1, 1))
              (1): LeakyReLU(negative_slope=0.2, inplace=True)
              (2): Conv2d(64, 64, kernel_size=(1, 1), stride=(1, 1))
            )
          )
          (1): DPCB(
            (body1): Sequential(
              (0): Conv2d(64, 64, kernel_size=(3, 3), stride=(1, 1), padding=(1, 1))
              (1): LeakyReLU(negative_slope=0.2, inplace=True)
              (2): Conv2d(64, 64, kernel_size=(3, 3), stride=(1, 1), padding=(1, 1))
            )
            (body2): Sequential(
              (0): Conv2d(64, 64, kernel_size=(1, 1), stride=(1, 1))
              (1): LeakyReLU(negative_slope=0.2, inplace=True)
              (2): Conv2d(64, 64, kernel_size=(1, 1), stride=(1, 1))
            )
          )
          (2): DPCB(
            (body1): Sequential(
              (0): Conv2d(64, 64, kernel_size=(3, 3), stride=(1, 1), padding=(1, 1))
              (1): LeakyReLU(negative_slope=0.2, inplace=True)
              (2): Conv2d(64, 64, kernel_size=(3, 3), stride=(1, 1), padding=(1, 1))
            )
            (body2): Sequential(
              (0): Conv2d(64, 64, kernel_size=(1, 1), stride=(1, 1))
              (1): LeakyReLU(negative_slope=0.2, inplace=True)
              (2): Conv2d(64, 64, kernel_size=(1, 1), stride=(1, 1))
            )
          )
          (3): DPCB(
            (body1): Sequential(
              (0): Conv2d(64, 64, kernel_size=(3, 3), stride=(1, 1), padding=(1, 1))
              (1): LeakyReLU(negative_slope=0.2, inplace=True)
              (2): Conv2d(64, 64, kernel_size=(3, 3), stride=(1, 1), padding=(1, 1))
            )
            (body2): Sequential(
              (0): Conv2d(64, 64, kernel_size=(1, 1), stride=(1, 1))
              (1): LeakyReLU(negative_slope=0.2, inplace=True)
              (2): Conv2d(64, 64, kernel_size=(1, 1), stride=(1, 1))
            )
          )
          (4): DPCB(
            (body1): Sequential(
              (0): Conv2d(64, 64, kernel_size=(3, 3), stride=(1, 1), padding=(1, 1))
              (1): LeakyReLU(negative_slope=0.2, inplace=True)
              (2): Conv2d(64, 64, kernel_size=(3, 3), stride=(1, 1), padding=(1, 1))
            )
            (body2): Sequential(
              (0): Conv2d(64, 64, kernel_size=(1, 1), stride=(1, 1))
              (1): LeakyReLU(negative_slope=0.2, inplace=True)
              (2): Conv2d(64, 64, kernel_size=(1, 1), stride=(1, 1))
            )
          )
          (5): DPCB(
            (body1): Sequential(
              (0): Conv2d(64, 64, kernel_size=(3, 3), stride=(1, 1), padding=(1, 1))
              (1): LeakyReLU(negative_slope=0.2, inplace=True)
              (2): Conv2d(64, 64, kernel_size=(3, 3), stride=(1, 1), padding=(1, 1))
            )
            (body2): Sequential(
              (0): Conv2d(64, 64, kernel_size=(1, 1), stride=(1, 1))
              (1): LeakyReLU(negative_slope=0.2, inplace=True)
              (2): Conv2d(64, 64, kernel_size=(1, 1), stride=(1, 1))
            )
          )
          (6): DPCB(
            (body1): Sequential(
              (0): Conv2d(64, 64, kernel_size=(3, 3), stride=(1, 1), padding=(1, 1))
              (1): LeakyReLU(negative_slope=0.2, inplace=True)
              (2): Conv2d(64, 64, kernel_size=(3, 3), stride=(1, 1), padding=(1, 1))
            )
            (body2): Sequential(
              (0): Conv2d(64, 64, kernel_size=(1, 1), stride=(1, 1))
              (1): LeakyReLU(negative_slope=0.2, inplace=True)
              (2): Conv2d(64, 64, kernel_size=(1, 1), stride=(1, 1))
            )
          )
          (7): DPCB(
            (body1): Sequential(
              (0): Conv2d(64, 64, kernel_size=(3, 3), stride=(1, 1), padding=(1, 1))
              (1): LeakyReLU(negative_slope=0.2, inplace=True)
              (2): Conv2d(64, 64, kernel_size=(3, 3), stride=(1, 1), padding=(1, 1))
            )
            (body2): Sequential(
              (0): Conv2d(64, 64, kernel_size=(1, 1), stride=(1, 1))
              (1): LeakyReLU(negative_slope=0.2, inplace=True)
              (2): Conv2d(64, 64, kernel_size=(1, 1), stride=(1, 1))
            )
          )
          (8): DPCB(
            (body1): Sequential(
              (0): Conv2d(64, 64, kernel_size=(3, 3), stride=(1, 1), padding=(1, 1))
              (1): LeakyReLU(negative_slope=0.2, inplace=True)
              (2): Conv2d(64, 64, kernel_size=(3, 3), stride=(1, 1), padding=(1, 1))
            )
            (body2): Sequential(
              (0): Conv2d(64, 64, kernel_size=(1, 1), stride=(1, 1))
              (1): LeakyReLU(negative_slope=0.2, inplace=True)
              (2): Conv2d(64, 64, kernel_size=(1, 1), stride=(1, 1))
            )
          )
          (9): DPCB(
            (body1): Sequential(
              (0): Conv2d(64, 64, kernel_size=(3, 3), stride=(1, 1), padding=(1, 1))
              (1): LeakyReLU(negative_slope=0.2, inplace=True)
              (2): Conv2d(64, 64, kernel_size=(3, 3), stride=(1, 1), padding=(1, 1))
            )
            (body2): Sequential(
              (0): Conv2d(64, 64, kernel_size=(1, 1), stride=(1, 1))
              (1): LeakyReLU(negative_slope=0.2, inplace=True)
              (2): Conv2d(64, 64, kernel_size=(1, 1), stride=(1, 1))
            )
          )
        )
      )
      (2): DPCG(
        (body): Sequential(
          (0): DPCB(
            (body1): Sequential(
              (0): Conv2d(64, 64, kernel_size=(3, 3), stride=(1, 1), padding=(1, 1))
              (1): LeakyReLU(negative_slope=0.2, inplace=True)
              (2): Conv2d(64, 64, kernel_size=(3, 3), stride=(1, 1), padding=(1, 1))
            )
            (body2): Sequential(
              (0): Conv2d(64, 64, kernel_size=(1, 1), stride=(1, 1))
              (1): LeakyReLU(negative_slope=0.2, inplace=True)
              (2): Conv2d(64, 64, kernel_size=(1, 1), stride=(1, 1))
            )
          )
          (1): DPCB(
            (body1): Sequential(
              (0): Conv2d(64, 64, kernel_size=(3, 3), stride=(1, 1), padding=(1, 1))
              (1): LeakyReLU(negative_slope=0.2, inplace=True)
              (2): Conv2d(64, 64, kernel_size=(3, 3), stride=(1, 1), padding=(1, 1))
            )
            (body2): Sequential(
              (0): Conv2d(64, 64, kernel_size=(1, 1), stride=(1, 1))
              (1): LeakyReLU(negative_slope=0.2, inplace=True)
              (2): Conv2d(64, 64, kernel_size=(1, 1), stride=(1, 1))
            )
          )
          (2): DPCB(
            (body1): Sequential(
              (0): Conv2d(64, 64, kernel_size=(3, 3), stride=(1, 1), padding=(1, 1))
              (1): LeakyReLU(negative_slope=0.2, inplace=True)
              (2): Conv2d(64, 64, kernel_size=(3, 3), stride=(1, 1), padding=(1, 1))
            )
            (body2): Sequential(
              (0): Conv2d(64, 64, kernel_size=(1, 1), stride=(1, 1))
              (1): LeakyReLU(negative_slope=0.2, inplace=True)
              (2): Conv2d(64, 64, kernel_size=(1, 1), stride=(1, 1))
            )
          )
          (3): DPCB(
            (body1): Sequential(
              (0): Conv2d(64, 64, kernel_size=(3, 3), stride=(1, 1), padding=(1, 1))
              (1): LeakyReLU(negative_slope=0.2, inplace=True)
              (2): Conv2d(64, 64, kernel_size=(3, 3), stride=(1, 1), padding=(1, 1))
            )
            (body2): Sequential(
              (0): Conv2d(64, 64, kernel_size=(1, 1), stride=(1, 1))
              (1): LeakyReLU(negative_slope=0.2, inplace=True)
              (2): Conv2d(64, 64, kernel_size=(1, 1), stride=(1, 1))
            )
          )
          (4): DPCB(
            (body1): Sequential(
              (0): Conv2d(64, 64, kernel_size=(3, 3), stride=(1, 1), padding=(1, 1))
              (1): LeakyReLU(negative_slope=0.2, inplace=True)
              (2): Conv2d(64, 64, kernel_size=(3, 3), stride=(1, 1), padding=(1, 1))
            )
            (body2): Sequential(
              (0): Conv2d(64, 64, kernel_size=(1, 1), stride=(1, 1))
              (1): LeakyReLU(negative_slope=0.2, inplace=True)
              (2): Conv2d(64, 64, kernel_size=(1, 1), stride=(1, 1))
            )
          )
          (5): DPCB(
            (body1): Sequential(
              (0): Conv2d(64, 64, kernel_size=(3, 3), stride=(1, 1), padding=(1, 1))
              (1): LeakyReLU(negative_slope=0.2, inplace=True)
              (2): Conv2d(64, 64, kernel_size=(3, 3), stride=(1, 1), padding=(1, 1))
            )
            (body2): Sequential(
              (0): Conv2d(64, 64, kernel_size=(1, 1), stride=(1, 1))
              (1): LeakyReLU(negative_slope=0.2, inplace=True)
              (2): Conv2d(64, 64, kernel_size=(1, 1), stride=(1, 1))
            )
          )
          (6): DPCB(
            (body1): Sequential(
              (0): Conv2d(64, 64, kernel_size=(3, 3), stride=(1, 1), padding=(1, 1))
              (1): LeakyReLU(negative_slope=0.2, inplace=True)
              (2): Conv2d(64, 64, kernel_size=(3, 3), stride=(1, 1), padding=(1, 1))
            )
            (body2): Sequential(
              (0): Conv2d(64, 64, kernel_size=(1, 1), stride=(1, 1))
              (1): LeakyReLU(negative_slope=0.2, inplace=True)
              (2): Conv2d(64, 64, kernel_size=(1, 1), stride=(1, 1))
            )
          )
          (7): DPCB(
            (body1): Sequential(
              (0): Conv2d(64, 64, kernel_size=(3, 3), stride=(1, 1), padding=(1, 1))
              (1): LeakyReLU(negative_slope=0.2, inplace=True)
              (2): Conv2d(64, 64, kernel_size=(3, 3), stride=(1, 1), padding=(1, 1))
            )
            (body2): Sequential(
              (0): Conv2d(64, 64, kernel_size=(1, 1), stride=(1, 1))
              (1): LeakyReLU(negative_slope=0.2, inplace=True)
              (2): Conv2d(64, 64, kernel_size=(1, 1), stride=(1, 1))
            )
          )
          (8): DPCB(
            (body1): Sequential(
              (0): Conv2d(64, 64, kernel_size=(3, 3), stride=(1, 1), padding=(1, 1))
              (1): LeakyReLU(negative_slope=0.2, inplace=True)
              (2): Conv2d(64, 64, kernel_size=(3, 3), stride=(1, 1), padding=(1, 1))
            )
            (body2): Sequential(
              (0): Conv2d(64, 64, kernel_size=(1, 1), stride=(1, 1))
              (1): LeakyReLU(negative_slope=0.2, inplace=True)
              (2): Conv2d(64, 64, kernel_size=(1, 1), stride=(1, 1))
            )
          )
          (9): DPCB(
            (body1): Sequential(
              (0): Conv2d(64, 64, kernel_size=(3, 3), stride=(1, 1), padding=(1, 1))
              (1): LeakyReLU(negative_slope=0.2, inplace=True)
              (2): Conv2d(64, 64, kernel_size=(3, 3), stride=(1, 1), padding=(1, 1))
            )
            (body2): Sequential(
              (0): Conv2d(64, 64, kernel_size=(1, 1), stride=(1, 1))
              (1): LeakyReLU(negative_slope=0.2, inplace=True)
              (2): Conv2d(64, 64, kernel_size=(1, 1), stride=(1, 1))
            )
          )
        )
      )
      (3): DPCG(
        (body): Sequential(
          (0): DPCB(
            (body1): Sequential(
              (0): Conv2d(64, 64, kernel_size=(3, 3), stride=(1, 1), padding=(1, 1))
              (1): LeakyReLU(negative_slope=0.2, inplace=True)
              (2): Conv2d(64, 64, kernel_size=(3, 3), stride=(1, 1), padding=(1, 1))
            )
            (body2): Sequential(
              (0): Conv2d(64, 64, kernel_size=(1, 1), stride=(1, 1))
              (1): LeakyReLU(negative_slope=0.2, inplace=True)
              (2): Conv2d(64, 64, kernel_size=(1, 1), stride=(1, 1))
            )
          )
          (1): DPCB(
            (body1): Sequential(
              (0): Conv2d(64, 64, kernel_size=(3, 3), stride=(1, 1), padding=(1, 1))
              (1): LeakyReLU(negative_slope=0.2, inplace=True)
              (2): Conv2d(64, 64, kernel_size=(3, 3), stride=(1, 1), padding=(1, 1))
            )
            (body2): Sequential(
              (0): Conv2d(64, 64, kernel_size=(1, 1), stride=(1, 1))
              (1): LeakyReLU(negative_slope=0.2, inplace=True)
              (2): Conv2d(64, 64, kernel_size=(1, 1), stride=(1, 1))
            )
          )
          (2): DPCB(
            (body1): Sequential(
              (0): Conv2d(64, 64, kernel_size=(3, 3), stride=(1, 1), padding=(1, 1))
              (1): LeakyReLU(negative_slope=0.2, inplace=True)
              (2): Conv2d(64, 64, kernel_size=(3, 3), stride=(1, 1), padding=(1, 1))
            )
            (body2): Sequential(
              (0): Conv2d(64, 64, kernel_size=(1, 1), stride=(1, 1))
              (1): LeakyReLU(negative_slope=0.2, inplace=True)
              (2): Conv2d(64, 64, kernel_size=(1, 1), stride=(1, 1))
            )
          )
          (3): DPCB(
            (body1): Sequential(
              (0): Conv2d(64, 64, kernel_size=(3, 3), stride=(1, 1), padding=(1, 1))
              (1): LeakyReLU(negative_slope=0.2, inplace=True)
              (2): Conv2d(64, 64, kernel_size=(3, 3), stride=(1, 1), padding=(1, 1))
            )
            (body2): Sequential(
              (0): Conv2d(64, 64, kernel_size=(1, 1), stride=(1, 1))
              (1): LeakyReLU(negative_slope=0.2, inplace=True)
              (2): Conv2d(64, 64, kernel_size=(1, 1), stride=(1, 1))
            )
          )
          (4): DPCB(
            (body1): Sequential(
              (0): Conv2d(64, 64, kernel_size=(3, 3), stride=(1, 1), padding=(1, 1))
              (1): LeakyReLU(negative_slope=0.2, inplace=True)
              (2): Conv2d(64, 64, kernel_size=(3, 3), stride=(1, 1), padding=(1, 1))
            )
            (body2): Sequential(
              (0): Conv2d(64, 64, kernel_size=(1, 1), stride=(1, 1))
              (1): LeakyReLU(negative_slope=0.2, inplace=True)
              (2): Conv2d(64, 64, kernel_size=(1, 1), stride=(1, 1))
            )
          )
          (5): DPCB(
            (body1): Sequential(
              (0): Conv2d(64, 64, kernel_size=(3, 3), stride=(1, 1), padding=(1, 1))
              (1): LeakyReLU(negative_slope=0.2, inplace=True)
              (2): Conv2d(64, 64, kernel_size=(3, 3), stride=(1, 1), padding=(1, 1))
            )
            (body2): Sequential(
              (0): Conv2d(64, 64, kernel_size=(1, 1), stride=(1, 1))
              (1): LeakyReLU(negative_slope=0.2, inplace=True)
              (2): Conv2d(64, 64, kernel_size=(1, 1), stride=(1, 1))
            )
          )
          (6): DPCB(
            (body1): Sequential(
              (0): Conv2d(64, 64, kernel_size=(3, 3), stride=(1, 1), padding=(1, 1))
              (1): LeakyReLU(negative_slope=0.2, inplace=True)
              (2): Conv2d(64, 64, kernel_size=(3, 3), stride=(1, 1), padding=(1, 1))
            )
            (body2): Sequential(
              (0): Conv2d(64, 64, kernel_size=(1, 1), stride=(1, 1))
              (1): LeakyReLU(negative_slope=0.2, inplace=True)
              (2): Conv2d(64, 64, kernel_size=(1, 1), stride=(1, 1))
            )
          )
          (7): DPCB(
            (body1): Sequential(
              (0): Conv2d(64, 64, kernel_size=(3, 3), stride=(1, 1), padding=(1, 1))
              (1): LeakyReLU(negative_slope=0.2, inplace=True)
              (2): Conv2d(64, 64, kernel_size=(3, 3), stride=(1, 1), padding=(1, 1))
            )
            (body2): Sequential(
              (0): Conv2d(64, 64, kernel_size=(1, 1), stride=(1, 1))
              (1): LeakyReLU(negative_slope=0.2, inplace=True)
              (2): Conv2d(64, 64, kernel_size=(1, 1), stride=(1, 1))
            )
          )
          (8): DPCB(
            (body1): Sequential(
              (0): Conv2d(64, 64, kernel_size=(3, 3), stride=(1, 1), padding=(1, 1))
              (1): LeakyReLU(negative_slope=0.2, inplace=True)
              (2): Conv2d(64, 64, kernel_size=(3, 3), stride=(1, 1), padding=(1, 1))
            )
            (body2): Sequential(
              (0): Conv2d(64, 64, kernel_size=(1, 1), stride=(1, 1))
              (1): LeakyReLU(negative_slope=0.2, inplace=True)
              (2): Conv2d(64, 64, kernel_size=(1, 1), stride=(1, 1))
            )
          )
          (9): DPCB(
            (body1): Sequential(
              (0): Conv2d(64, 64, kernel_size=(3, 3), stride=(1, 1), padding=(1, 1))
              (1): LeakyReLU(negative_slope=0.2, inplace=True)
              (2): Conv2d(64, 64, kernel_size=(3, 3), stride=(1, 1), padding=(1, 1))
            )
            (body2): Sequential(
              (0): Conv2d(64, 64, kernel_size=(1, 1), stride=(1, 1))
              (1): LeakyReLU(negative_slope=0.2, inplace=True)
              (2): Conv2d(64, 64, kernel_size=(1, 1), stride=(1, 1))
            )
          )
        )
      )
      (4): DPCG(
        (body): Sequential(
          (0): DPCB(
            (body1): Sequential(
              (0): Conv2d(64, 64, kernel_size=(3, 3), stride=(1, 1), padding=(1, 1))
              (1): LeakyReLU(negative_slope=0.2, inplace=True)
              (2): Conv2d(64, 64, kernel_size=(3, 3), stride=(1, 1), padding=(1, 1))
            )
            (body2): Sequential(
              (0): Conv2d(64, 64, kernel_size=(1, 1), stride=(1, 1))
              (1): LeakyReLU(negative_slope=0.2, inplace=True)
              (2): Conv2d(64, 64, kernel_size=(1, 1), stride=(1, 1))
            )
          )
          (1): DPCB(
            (body1): Sequential(
              (0): Conv2d(64, 64, kernel_size=(3, 3), stride=(1, 1), padding=(1, 1))
              (1): LeakyReLU(negative_slope=0.2, inplace=True)
              (2): Conv2d(64, 64, kernel_size=(3, 3), stride=(1, 1), padding=(1, 1))
            )
            (body2): Sequential(
              (0): Conv2d(64, 64, kernel_size=(1, 1), stride=(1, 1))
              (1): LeakyReLU(negative_slope=0.2, inplace=True)
              (2): Conv2d(64, 64, kernel_size=(1, 1), stride=(1, 1))
            )
          )
          (2): DPCB(
            (body1): Sequential(
              (0): Conv2d(64, 64, kernel_size=(3, 3), stride=(1, 1), padding=(1, 1))
              (1): LeakyReLU(negative_slope=0.2, inplace=True)
              (2): Conv2d(64, 64, kernel_size=(3, 3), stride=(1, 1), padding=(1, 1))
            )
            (body2): Sequential(
              (0): Conv2d(64, 64, kernel_size=(1, 1), stride=(1, 1))
              (1): LeakyReLU(negative_slope=0.2, inplace=True)
              (2): Conv2d(64, 64, kernel_size=(1, 1), stride=(1, 1))
            )
          )
          (3): DPCB(
            (body1): Sequential(
              (0): Conv2d(64, 64, kernel_size=(3, 3), stride=(1, 1), padding=(1, 1))
              (1): LeakyReLU(negative_slope=0.2, inplace=True)
              (2): Conv2d(64, 64, kernel_size=(3, 3), stride=(1, 1), padding=(1, 1))
            )
            (body2): Sequential(
              (0): Conv2d(64, 64, kernel_size=(1, 1), stride=(1, 1))
              (1): LeakyReLU(negative_slope=0.2, inplace=True)
              (2): Conv2d(64, 64, kernel_size=(1, 1), stride=(1, 1))
            )
          )
          (4): DPCB(
            (body1): Sequential(
              (0): Conv2d(64, 64, kernel_size=(3, 3), stride=(1, 1), padding=(1, 1))
              (1): LeakyReLU(negative_slope=0.2, inplace=True)
              (2): Conv2d(64, 64, kernel_size=(3, 3), stride=(1, 1), padding=(1, 1))
            )
            (body2): Sequential(
              (0): Conv2d(64, 64, kernel_size=(1, 1), stride=(1, 1))
              (1): LeakyReLU(negative_slope=0.2, inplace=True)
              (2): Conv2d(64, 64, kernel_size=(1, 1), stride=(1, 1))
            )
          )
          (5): DPCB(
            (body1): Sequential(
              (0): Conv2d(64, 64, kernel_size=(3, 3), stride=(1, 1), padding=(1, 1))
              (1): LeakyReLU(negative_slope=0.2, inplace=True)
              (2): Conv2d(64, 64, kernel_size=(3, 3), stride=(1, 1), padding=(1, 1))
            )
            (body2): Sequential(
              (0): Conv2d(64, 64, kernel_size=(1, 1), stride=(1, 1))
              (1): LeakyReLU(negative_slope=0.2, inplace=True)
              (2): Conv2d(64, 64, kernel_size=(1, 1), stride=(1, 1))
            )
          )
          (6): DPCB(
            (body1): Sequential(
              (0): Conv2d(64, 64, kernel_size=(3, 3), stride=(1, 1), padding=(1, 1))
              (1): LeakyReLU(negative_slope=0.2, inplace=True)
              (2): Conv2d(64, 64, kernel_size=(3, 3), stride=(1, 1), padding=(1, 1))
            )
            (body2): Sequential(
              (0): Conv2d(64, 64, kernel_size=(1, 1), stride=(1, 1))
              (1): LeakyReLU(negative_slope=0.2, inplace=True)
              (2): Conv2d(64, 64, kernel_size=(1, 1), stride=(1, 1))
            )
          )
          (7): DPCB(
            (body1): Sequential(
              (0): Conv2d(64, 64, kernel_size=(3, 3), stride=(1, 1), padding=(1, 1))
              (1): LeakyReLU(negative_slope=0.2, inplace=True)
              (2): Conv2d(64, 64, kernel_size=(3, 3), stride=(1, 1), padding=(1, 1))
            )
            (body2): Sequential(
              (0): Conv2d(64, 64, kernel_size=(1, 1), stride=(1, 1))
              (1): LeakyReLU(negative_slope=0.2, inplace=True)
              (2): Conv2d(64, 64, kernel_size=(1, 1), stride=(1, 1))
            )
          )
          (8): DPCB(
            (body1): Sequential(
              (0): Conv2d(64, 64, kernel_size=(3, 3), stride=(1, 1), padding=(1, 1))
              (1): LeakyReLU(negative_slope=0.2, inplace=True)
              (2): Conv2d(64, 64, kernel_size=(3, 3), stride=(1, 1), padding=(1, 1))
            )
            (body2): Sequential(
              (0): Conv2d(64, 64, kernel_size=(1, 1), stride=(1, 1))
              (1): LeakyReLU(negative_slope=0.2, inplace=True)
              (2): Conv2d(64, 64, kernel_size=(1, 1), stride=(1, 1))
            )
          )
          (9): DPCB(
            (body1): Sequential(
              (0): Conv2d(64, 64, kernel_size=(3, 3), stride=(1, 1), padding=(1, 1))
              (1): LeakyReLU(negative_slope=0.2, inplace=True)
              (2): Conv2d(64, 64, kernel_size=(3, 3), stride=(1, 1), padding=(1, 1))
            )
            (body2): Sequential(
              (0): Conv2d(64, 64, kernel_size=(1, 1), stride=(1, 1))
              (1): LeakyReLU(negative_slope=0.2, inplace=True)
              (2): Conv2d(64, 64, kernel_size=(1, 1), stride=(1, 1))
            )
          )
        )
      )
    )
    (fusion): Conv2d(64, 64, kernel_size=(3, 3), stride=(1, 1), padding=(1, 1))
    (upscale): Sequential(
      (0): Conv2d(64, 256, kernel_size=(3, 3), stride=(1, 1), padding=(1, 1))
      (1): PixelShuffle(upscale_factor=2)
      (2): Conv2d(64, 3, kernel_size=(3, 3), stride=(1, 1), padding=(1, 1))
    )
  )
  (Estimator): Estimator(
    (head_LR): Sequential(
      (0): Conv2d(3, 32, kernel_size=(5, 5), stride=(1, 1), padding=(2, 2))
    )
    (head_HR): Sequential(
      (0): Conv2d(3, 32, kernel_size=(9, 9), stride=(2, 2), padding=(4, 4))
    )
    (body): DPCG(
      (body): Sequential(
        (0): DPCB(
          (body1): Sequential(
            (0): Conv2d(32, 32, kernel_size=(3, 3), stride=(1, 1), padding=(1, 1))
            (1): LeakyReLU(negative_slope=0.2, inplace=True)
            (2): Conv2d(32, 32, kernel_size=(3, 3), stride=(1, 1), padding=(1, 1))
          )
          (body2): Sequential(
            (0): Conv2d(32, 32, kernel_size=(3, 3), stride=(1, 1), padding=(1, 1))
            (1): LeakyReLU(negative_slope=0.2, inplace=True)
            (2): Conv2d(32, 32, kernel_size=(3, 3), stride=(1, 1), padding=(1, 1))
          )
        )
        (1): DPCB(
          (body1): Sequential(
            (0): Conv2d(32, 32, kernel_size=(3, 3), stride=(1, 1), padding=(1, 1))
            (1): LeakyReLU(negative_slope=0.2, inplace=True)
            (2): Conv2d(32, 32, kernel_size=(3, 3), stride=(1, 1), padding=(1, 1))
          )
          (body2): Sequential(
            (0): Conv2d(32, 32, kernel_size=(3, 3), stride=(1, 1), padding=(1, 1))
            (1): LeakyReLU(negative_slope=0.2, inplace=True)
            (2): Conv2d(32, 32, kernel_size=(3, 3), stride=(1, 1), padding=(1, 1))
          )
        )
        (2): DPCB(
          (body1): Sequential(
            (0): Conv2d(32, 32, kernel_size=(3, 3), stride=(1, 1), padding=(1, 1))
            (1): LeakyReLU(negative_slope=0.2, inplace=True)
            (2): Conv2d(32, 32, kernel_size=(3, 3), stride=(1, 1), padding=(1, 1))
          )
          (body2): Sequential(
            (0): Conv2d(32, 32, kernel_size=(3, 3), stride=(1, 1), padding=(1, 1))
            (1): LeakyReLU(negative_slope=0.2, inplace=True)
            (2): Conv2d(32, 32, kernel_size=(3, 3), stride=(1, 1), padding=(1, 1))
          )
        )
        (3): DPCB(
          (body1): Sequential(
            (0): Conv2d(32, 32, kernel_size=(3, 3), stride=(1, 1), padding=(1, 1))
            (1): LeakyReLU(negative_slope=0.2, inplace=True)
            (2): Conv2d(32, 32, kernel_size=(3, 3), stride=(1, 1), padding=(1, 1))
          )
          (body2): Sequential(
            (0): Conv2d(32, 32, kernel_size=(3, 3), stride=(1, 1), padding=(1, 1))
            (1): LeakyReLU(negative_slope=0.2, inplace=True)
            (2): Conv2d(32, 32, kernel_size=(3, 3), stride=(1, 1), padding=(1, 1))
          )
        )
        (4): DPCB(
          (body1): Sequential(
            (0): Conv2d(32, 32, kernel_size=(3, 3), stride=(1, 1), padding=(1, 1))
            (1): LeakyReLU(negative_slope=0.2, inplace=True)
            (2): Conv2d(32, 32, kernel_size=(3, 3), stride=(1, 1), padding=(1, 1))
          )
          (body2): Sequential(
            (0): Conv2d(32, 32, kernel_size=(3, 3), stride=(1, 1), padding=(1, 1))
            (1): LeakyReLU(negative_slope=0.2, inplace=True)
            (2): Conv2d(32, 32, kernel_size=(3, 3), stride=(1, 1), padding=(1, 1))
          )
        )
      )
    )
    (tail): Sequential(
      (0): Conv2d(32, 64, kernel_size=(3, 3), stride=(1, 1), padding=(1, 1))
      (1): AdaptiveAvgPool2d(output_size=1)
      (2): Conv2d(64, 441, kernel_size=(1, 1), stride=(1, 1))
      (3): Softmax(dim=1)
    )
  )
)
21-07-21 17:55:40.310 - INFO: Path already exists. Rename it to [/content/DAN/experiments/DANv2/DANx2_setting1_archived_210721-175540]
21-07-21 17:55:40.360 - INFO: Dataset [GTDataset - DIV2K] is created.
21-07-21 17:55:40.363 - INFO: Dataset [LQGTDataset - DIV2KRK] is created.
21-07-21 17:55:40.495 - INFO: Network G structure: DataParallel - DAN, with parameters: 4,540,028
21-07-21 17:55:40.495 - INFO: DAN(
  (Restorer): Restorer(
    (head1): Conv2d(3, 64, kernel_size=(3, 3), stride=(1, 1), padding=(1, 1))
    (head2): Conv2d(10, 64, kernel_size=(1, 1), stride=(1, 1))
    (body): Sequential(
      (0): DPCG(
        (body): Sequential(
          (0): DPCB(
            (body1): Sequential(
              (0): Conv2d(64, 64, kernel_size=(3, 3), stride=(1, 1), padding=(1, 1))
              (1): LeakyReLU(negative_slope=0.2, inplace=True)
              (2): Conv2d(64, 64, kernel_size=(3, 3), stride=(1, 1), padding=(1, 1))
            )
            (body2): Sequential(
              (0): Conv2d(64, 64, kernel_size=(1, 1), stride=(1, 1))
              (1): LeakyReLU(negative_slope=0.2, inplace=True)
              (2): Conv2d(64, 64, kernel_size=(1, 1), stride=(1, 1))
            )
          )
          (1): DPCB(
            (body1): Sequential(
              (0): Conv2d(64, 64, kernel_size=(3, 3), stride=(1, 1), padding=(1, 1))
              (1): LeakyReLU(negative_slope=0.2, inplace=True)
              (2): Conv2d(64, 64, kernel_size=(3, 3), stride=(1, 1), padding=(1, 1))
            )
            (body2): Sequential(
              (0): Conv2d(64, 64, kernel_size=(1, 1), stride=(1, 1))
              (1): LeakyReLU(negative_slope=0.2, inplace=True)
              (2): Conv2d(64, 64, kernel_size=(1, 1), stride=(1, 1))
            )
          )
          (2): DPCB(
            (body1): Sequential(
              (0): Conv2d(64, 64, kernel_size=(3, 3), stride=(1, 1), padding=(1, 1))
              (1): LeakyReLU(negative_slope=0.2, inplace=True)
              (2): Conv2d(64, 64, kernel_size=(3, 3), stride=(1, 1), padding=(1, 1))
            )
            (body2): Sequential(
              (0): Conv2d(64, 64, kernel_size=(1, 1), stride=(1, 1))
              (1): LeakyReLU(negative_slope=0.2, inplace=True)
              (2): Conv2d(64, 64, kernel_size=(1, 1), stride=(1, 1))
            )
          )
          (3): DPCB(
            (body1): Sequential(
              (0): Conv2d(64, 64, kernel_size=(3, 3), stride=(1, 1), padding=(1, 1))
              (1): LeakyReLU(negative_slope=0.2, inplace=True)
              (2): Conv2d(64, 64, kernel_size=(3, 3), stride=(1, 1), padding=(1, 1))
            )
            (body2): Sequential(
              (0): Conv2d(64, 64, kernel_size=(1, 1), stride=(1, 1))
              (1): LeakyReLU(negative_slope=0.2, inplace=True)
              (2): Conv2d(64, 64, kernel_size=(1, 1), stride=(1, 1))
            )
          )
          (4): DPCB(
            (body1): Sequential(
              (0): Conv2d(64, 64, kernel_size=(3, 3), stride=(1, 1), padding=(1, 1))
              (1): LeakyReLU(negative_slope=0.2, inplace=True)
              (2): Conv2d(64, 64, kernel_size=(3, 3), stride=(1, 1), padding=(1, 1))
            )
            (body2): Sequential(
              (0): Conv2d(64, 64, kernel_size=(1, 1), stride=(1, 1))
              (1): LeakyReLU(negative_slope=0.2, inplace=True)
              (2): Conv2d(64, 64, kernel_size=(1, 1), stride=(1, 1))
            )
          )
          (5): DPCB(
            (body1): Sequential(
              (0): Conv2d(64, 64, kernel_size=(3, 3), stride=(1, 1), padding=(1, 1))
              (1): LeakyReLU(negative_slope=0.2, inplace=True)
              (2): Conv2d(64, 64, kernel_size=(3, 3), stride=(1, 1), padding=(1, 1))
            )
            (body2): Sequential(
              (0): Conv2d(64, 64, kernel_size=(1, 1), stride=(1, 1))
              (1): LeakyReLU(negative_slope=0.2, inplace=True)
              (2): Conv2d(64, 64, kernel_size=(1, 1), stride=(1, 1))
            )
          )
          (6): DPCB(
            (body1): Sequential(
              (0): Conv2d(64, 64, kernel_size=(3, 3), stride=(1, 1), padding=(1, 1))
              (1): LeakyReLU(negative_slope=0.2, inplace=True)
              (2): Conv2d(64, 64, kernel_size=(3, 3), stride=(1, 1), padding=(1, 1))
            )
            (body2): Sequential(
              (0): Conv2d(64, 64, kernel_size=(1, 1), stride=(1, 1))
              (1): LeakyReLU(negative_slope=0.2, inplace=True)
              (2): Conv2d(64, 64, kernel_size=(1, 1), stride=(1, 1))
            )
          )
          (7): DPCB(
            (body1): Sequential(
              (0): Conv2d(64, 64, kernel_size=(3, 3), stride=(1, 1), padding=(1, 1))
              (1): LeakyReLU(negative_slope=0.2, inplace=True)
              (2): Conv2d(64, 64, kernel_size=(3, 3), stride=(1, 1), padding=(1, 1))
            )
            (body2): Sequential(
              (0): Conv2d(64, 64, kernel_size=(1, 1), stride=(1, 1))
              (1): LeakyReLU(negative_slope=0.2, inplace=True)
              (2): Conv2d(64, 64, kernel_size=(1, 1), stride=(1, 1))
            )
          )
          (8): DPCB(
            (body1): Sequential(
              (0): Conv2d(64, 64, kernel_size=(3, 3), stride=(1, 1), padding=(1, 1))
              (1): LeakyReLU(negative_slope=0.2, inplace=True)
              (2): Conv2d(64, 64, kernel_size=(3, 3), stride=(1, 1), padding=(1, 1))
            )
            (body2): Sequential(
              (0): Conv2d(64, 64, kernel_size=(1, 1), stride=(1, 1))
              (1): LeakyReLU(negative_slope=0.2, inplace=True)
              (2): Conv2d(64, 64, kernel_size=(1, 1), stride=(1, 1))
            )
          )
          (9): DPCB(
            (body1): Sequential(
              (0): Conv2d(64, 64, kernel_size=(3, 3), stride=(1, 1), padding=(1, 1))
              (1): LeakyReLU(negative_slope=0.2, inplace=True)
              (2): Conv2d(64, 64, kernel_size=(3, 3), stride=(1, 1), padding=(1, 1))
            )
            (body2): Sequential(
              (0): Conv2d(64, 64, kernel_size=(1, 1), stride=(1, 1))
              (1): LeakyReLU(negative_slope=0.2, inplace=True)
              (2): Conv2d(64, 64, kernel_size=(1, 1), stride=(1, 1))
            )
          )
        )
      )
      (1): DPCG(
        (body): Sequential(
          (0): DPCB(
            (body1): Sequential(
              (0): Conv2d(64, 64, kernel_size=(3, 3), stride=(1, 1), padding=(1, 1))
              (1): LeakyReLU(negative_slope=0.2, inplace=True)
              (2): Conv2d(64, 64, kernel_size=(3, 3), stride=(1, 1), padding=(1, 1))
            )
            (body2): Sequential(
              (0): Conv2d(64, 64, kernel_size=(1, 1), stride=(1, 1))
              (1): LeakyReLU(negative_slope=0.2, inplace=True)
              (2): Conv2d(64, 64, kernel_size=(1, 1), stride=(1, 1))
            )
          )
          (1): DPCB(
            (body1): Sequential(
              (0): Conv2d(64, 64, kernel_size=(3, 3), stride=(1, 1), padding=(1, 1))
              (1): LeakyReLU(negative_slope=0.2, inplace=True)
              (2): Conv2d(64, 64, kernel_size=(3, 3), stride=(1, 1), padding=(1, 1))
            )
            (body2): Sequential(
              (0): Conv2d(64, 64, kernel_size=(1, 1), stride=(1, 1))
              (1): LeakyReLU(negative_slope=0.2, inplace=True)
              (2): Conv2d(64, 64, kernel_size=(1, 1), stride=(1, 1))
            )
          )
          (2): DPCB(
            (body1): Sequential(
              (0): Conv2d(64, 64, kernel_size=(3, 3), stride=(1, 1), padding=(1, 1))
              (1): LeakyReLU(negative_slope=0.2, inplace=True)
              (2): Conv2d(64, 64, kernel_size=(3, 3), stride=(1, 1), padding=(1, 1))
            )
            (body2): Sequential(
              (0): Conv2d(64, 64, kernel_size=(1, 1), stride=(1, 1))
              (1): LeakyReLU(negative_slope=0.2, inplace=True)
              (2): Conv2d(64, 64, kernel_size=(1, 1), stride=(1, 1))
            )
          )
          (3): DPCB(
            (body1): Sequential(
              (0): Conv2d(64, 64, kernel_size=(3, 3), stride=(1, 1), padding=(1, 1))
              (1): LeakyReLU(negative_slope=0.2, inplace=True)
              (2): Conv2d(64, 64, kernel_size=(3, 3), stride=(1, 1), padding=(1, 1))
            )
            (body2): Sequential(
              (0): Conv2d(64, 64, kernel_size=(1, 1), stride=(1, 1))
              (1): LeakyReLU(negative_slope=0.2, inplace=True)
              (2): Conv2d(64, 64, kernel_size=(1, 1), stride=(1, 1))
            )
          )
          (4): DPCB(
            (body1): Sequential(
              (0): Conv2d(64, 64, kernel_size=(3, 3), stride=(1, 1), padding=(1, 1))
              (1): LeakyReLU(negative_slope=0.2, inplace=True)
              (2): Conv2d(64, 64, kernel_size=(3, 3), stride=(1, 1), padding=(1, 1))
            )
            (body2): Sequential(
              (0): Conv2d(64, 64, kernel_size=(1, 1), stride=(1, 1))
              (1): LeakyReLU(negative_slope=0.2, inplace=True)
              (2): Conv2d(64, 64, kernel_size=(1, 1), stride=(1, 1))
            )
          )
          (5): DPCB(
            (body1): Sequential(
              (0): Conv2d(64, 64, kernel_size=(3, 3), stride=(1, 1), padding=(1, 1))
              (1): LeakyReLU(negative_slope=0.2, inplace=True)
              (2): Conv2d(64, 64, kernel_size=(3, 3), stride=(1, 1), padding=(1, 1))
            )
            (body2): Sequential(
              (0): Conv2d(64, 64, kernel_size=(1, 1), stride=(1, 1))
              (1): LeakyReLU(negative_slope=0.2, inplace=True)
              (2): Conv2d(64, 64, kernel_size=(1, 1), stride=(1, 1))
            )
          )
          (6): DPCB(
            (body1): Sequential(
              (0): Conv2d(64, 64, kernel_size=(3, 3), stride=(1, 1), padding=(1, 1))
              (1): LeakyReLU(negative_slope=0.2, inplace=True)
              (2): Conv2d(64, 64, kernel_size=(3, 3), stride=(1, 1), padding=(1, 1))
            )
            (body2): Sequential(
              (0): Conv2d(64, 64, kernel_size=(1, 1), stride=(1, 1))
              (1): LeakyReLU(negative_slope=0.2, inplace=True)
              (2): Conv2d(64, 64, kernel_size=(1, 1), stride=(1, 1))
            )
          )
          (7): DPCB(
            (body1): Sequential(
              (0): Conv2d(64, 64, kernel_size=(3, 3), stride=(1, 1), padding=(1, 1))
              (1): LeakyReLU(negative_slope=0.2, inplace=True)
              (2): Conv2d(64, 64, kernel_size=(3, 3), stride=(1, 1), padding=(1, 1))
            )
            (body2): Sequential(
              (0): Conv2d(64, 64, kernel_size=(1, 1), stride=(1, 1))
              (1): LeakyReLU(negative_slope=0.2, inplace=True)
              (2): Conv2d(64, 64, kernel_size=(1, 1), stride=(1, 1))
            )
          )
          (8): DPCB(
            (body1): Sequential(
              (0): Conv2d(64, 64, kernel_size=(3, 3), stride=(1, 1), padding=(1, 1))
              (1): LeakyReLU(negative_slope=0.2, inplace=True)
              (2): Conv2d(64, 64, kernel_size=(3, 3), stride=(1, 1), padding=(1, 1))
            )
            (body2): Sequential(
              (0): Conv2d(64, 64, kernel_size=(1, 1), stride=(1, 1))
              (1): LeakyReLU(negative_slope=0.2, inplace=True)
              (2): Conv2d(64, 64, kernel_size=(1, 1), stride=(1, 1))
            )
          )
          (9): DPCB(
            (body1): Sequential(
              (0): Conv2d(64, 64, kernel_size=(3, 3), stride=(1, 1), padding=(1, 1))
              (1): LeakyReLU(negative_slope=0.2, inplace=True)
              (2): Conv2d(64, 64, kernel_size=(3, 3), stride=(1, 1), padding=(1, 1))
            )
            (body2): Sequential(
              (0): Conv2d(64, 64, kernel_size=(1, 1), stride=(1, 1))
              (1): LeakyReLU(negative_slope=0.2, inplace=True)
              (2): Conv2d(64, 64, kernel_size=(1, 1), stride=(1, 1))
            )
          )
        )
      )
      (2): DPCG(
        (body): Sequential(
          (0): DPCB(
            (body1): Sequential(
              (0): Conv2d(64, 64, kernel_size=(3, 3), stride=(1, 1), padding=(1, 1))
              (1): LeakyReLU(negative_slope=0.2, inplace=True)
              (2): Conv2d(64, 64, kernel_size=(3, 3), stride=(1, 1), padding=(1, 1))
            )
            (body2): Sequential(
              (0): Conv2d(64, 64, kernel_size=(1, 1), stride=(1, 1))
              (1): LeakyReLU(negative_slope=0.2, inplace=True)
              (2): Conv2d(64, 64, kernel_size=(1, 1), stride=(1, 1))
            )
          )
          (1): DPCB(
            (body1): Sequential(
              (0): Conv2d(64, 64, kernel_size=(3, 3), stride=(1, 1), padding=(1, 1))
              (1): LeakyReLU(negative_slope=0.2, inplace=True)
              (2): Conv2d(64, 64, kernel_size=(3, 3), stride=(1, 1), padding=(1, 1))
            )
            (body2): Sequential(
              (0): Conv2d(64, 64, kernel_size=(1, 1), stride=(1, 1))
              (1): LeakyReLU(negative_slope=0.2, inplace=True)
              (2): Conv2d(64, 64, kernel_size=(1, 1), stride=(1, 1))
            )
          )
          (2): DPCB(
            (body1): Sequential(
              (0): Conv2d(64, 64, kernel_size=(3, 3), stride=(1, 1), padding=(1, 1))
              (1): LeakyReLU(negative_slope=0.2, inplace=True)
              (2): Conv2d(64, 64, kernel_size=(3, 3), stride=(1, 1), padding=(1, 1))
            )
            (body2): Sequential(
              (0): Conv2d(64, 64, kernel_size=(1, 1), stride=(1, 1))
              (1): LeakyReLU(negative_slope=0.2, inplace=True)
              (2): Conv2d(64, 64, kernel_size=(1, 1), stride=(1, 1))
            )
          )
          (3): DPCB(
            (body1): Sequential(
              (0): Conv2d(64, 64, kernel_size=(3, 3), stride=(1, 1), padding=(1, 1))
              (1): LeakyReLU(negative_slope=0.2, inplace=True)
              (2): Conv2d(64, 64, kernel_size=(3, 3), stride=(1, 1), padding=(1, 1))
            )
            (body2): Sequential(
              (0): Conv2d(64, 64, kernel_size=(1, 1), stride=(1, 1))
              (1): LeakyReLU(negative_slope=0.2, inplace=True)
              (2): Conv2d(64, 64, kernel_size=(1, 1), stride=(1, 1))
            )
          )
          (4): DPCB(
            (body1): Sequential(
              (0): Conv2d(64, 64, kernel_size=(3, 3), stride=(1, 1), padding=(1, 1))
              (1): LeakyReLU(negative_slope=0.2, inplace=True)
              (2): Conv2d(64, 64, kernel_size=(3, 3), stride=(1, 1), padding=(1, 1))
            )
            (body2): Sequential(
              (0): Conv2d(64, 64, kernel_size=(1, 1), stride=(1, 1))
              (1): LeakyReLU(negative_slope=0.2, inplace=True)
              (2): Conv2d(64, 64, kernel_size=(1, 1), stride=(1, 1))
            )
          )
          (5): DPCB(
            (body1): Sequential(
              (0): Conv2d(64, 64, kernel_size=(3, 3), stride=(1, 1), padding=(1, 1))
              (1): LeakyReLU(negative_slope=0.2, inplace=True)
              (2): Conv2d(64, 64, kernel_size=(3, 3), stride=(1, 1), padding=(1, 1))
            )
            (body2): Sequential(
              (0): Conv2d(64, 64, kernel_size=(1, 1), stride=(1, 1))
              (1): LeakyReLU(negative_slope=0.2, inplace=True)
              (2): Conv2d(64, 64, kernel_size=(1, 1), stride=(1, 1))
            )
          )
          (6): DPCB(
            (body1): Sequential(
              (0): Conv2d(64, 64, kernel_size=(3, 3), stride=(1, 1), padding=(1, 1))
              (1): LeakyReLU(negative_slope=0.2, inplace=True)
              (2): Conv2d(64, 64, kernel_size=(3, 3), stride=(1, 1), padding=(1, 1))
            )
            (body2): Sequential(
              (0): Conv2d(64, 64, kernel_size=(1, 1), stride=(1, 1))
              (1): LeakyReLU(negative_slope=0.2, inplace=True)
              (2): Conv2d(64, 64, kernel_size=(1, 1), stride=(1, 1))
            )
          )
          (7): DPCB(
            (body1): Sequential(
              (0): Conv2d(64, 64, kernel_size=(3, 3), stride=(1, 1), padding=(1, 1))
              (1): LeakyReLU(negative_slope=0.2, inplace=True)
              (2): Conv2d(64, 64, kernel_size=(3, 3), stride=(1, 1), padding=(1, 1))
            )
            (body2): Sequential(
              (0): Conv2d(64, 64, kernel_size=(1, 1), stride=(1, 1))
              (1): LeakyReLU(negative_slope=0.2, inplace=True)
              (2): Conv2d(64, 64, kernel_size=(1, 1), stride=(1, 1))
            )
          )
          (8): DPCB(
            (body1): Sequential(
              (0): Conv2d(64, 64, kernel_size=(3, 3), stride=(1, 1), padding=(1, 1))
              (1): LeakyReLU(negative_slope=0.2, inplace=True)
              (2): Conv2d(64, 64, kernel_size=(3, 3), stride=(1, 1), padding=(1, 1))
            )
            (body2): Sequential(
              (0): Conv2d(64, 64, kernel_size=(1, 1), stride=(1, 1))
              (1): LeakyReLU(negative_slope=0.2, inplace=True)
              (2): Conv2d(64, 64, kernel_size=(1, 1), stride=(1, 1))
            )
          )
          (9): DPCB(
            (body1): Sequential(
              (0): Conv2d(64, 64, kernel_size=(3, 3), stride=(1, 1), padding=(1, 1))
              (1): LeakyReLU(negative_slope=0.2, inplace=True)
              (2): Conv2d(64, 64, kernel_size=(3, 3), stride=(1, 1), padding=(1, 1))
            )
            (body2): Sequential(
              (0): Conv2d(64, 64, kernel_size=(1, 1), stride=(1, 1))
              (1): LeakyReLU(negative_slope=0.2, inplace=True)
              (2): Conv2d(64, 64, kernel_size=(1, 1), stride=(1, 1))
            )
          )
        )
      )
      (3): DPCG(
        (body): Sequential(
          (0): DPCB(
            (body1): Sequential(
              (0): Conv2d(64, 64, kernel_size=(3, 3), stride=(1, 1), padding=(1, 1))
              (1): LeakyReLU(negative_slope=0.2, inplace=True)
              (2): Conv2d(64, 64, kernel_size=(3, 3), stride=(1, 1), padding=(1, 1))
            )
            (body2): Sequential(
              (0): Conv2d(64, 64, kernel_size=(1, 1), stride=(1, 1))
              (1): LeakyReLU(negative_slope=0.2, inplace=True)
              (2): Conv2d(64, 64, kernel_size=(1, 1), stride=(1, 1))
            )
          )
          (1): DPCB(
            (body1): Sequential(
              (0): Conv2d(64, 64, kernel_size=(3, 3), stride=(1, 1), padding=(1, 1))
              (1): LeakyReLU(negative_slope=0.2, inplace=True)
              (2): Conv2d(64, 64, kernel_size=(3, 3), stride=(1, 1), padding=(1, 1))
            )
            (body2): Sequential(
              (0): Conv2d(64, 64, kernel_size=(1, 1), stride=(1, 1))
              (1): LeakyReLU(negative_slope=0.2, inplace=True)
              (2): Conv2d(64, 64, kernel_size=(1, 1), stride=(1, 1))
            )
          )
          (2): DPCB(
            (body1): Sequential(
              (0): Conv2d(64, 64, kernel_size=(3, 3), stride=(1, 1), padding=(1, 1))
              (1): LeakyReLU(negative_slope=0.2, inplace=True)
              (2): Conv2d(64, 64, kernel_size=(3, 3), stride=(1, 1), padding=(1, 1))
            )
            (body2): Sequential(
              (0): Conv2d(64, 64, kernel_size=(1, 1), stride=(1, 1))
              (1): LeakyReLU(negative_slope=0.2, inplace=True)
              (2): Conv2d(64, 64, kernel_size=(1, 1), stride=(1, 1))
            )
          )
          (3): DPCB(
            (body1): Sequential(
              (0): Conv2d(64, 64, kernel_size=(3, 3), stride=(1, 1), padding=(1, 1))
              (1): LeakyReLU(negative_slope=0.2, inplace=True)
              (2): Conv2d(64, 64, kernel_size=(3, 3), stride=(1, 1), padding=(1, 1))
            )
            (body2): Sequential(
              (0): Conv2d(64, 64, kernel_size=(1, 1), stride=(1, 1))
              (1): LeakyReLU(negative_slope=0.2, inplace=True)
              (2): Conv2d(64, 64, kernel_size=(1, 1), stride=(1, 1))
            )
          )
          (4): DPCB(
            (body1): Sequential(
              (0): Conv2d(64, 64, kernel_size=(3, 3), stride=(1, 1), padding=(1, 1))
              (1): LeakyReLU(negative_slope=0.2, inplace=True)
              (2): Conv2d(64, 64, kernel_size=(3, 3), stride=(1, 1), padding=(1, 1))
            )
            (body2): Sequential(
              (0): Conv2d(64, 64, kernel_size=(1, 1), stride=(1, 1))
              (1): LeakyReLU(negative_slope=0.2, inplace=True)
              (2): Conv2d(64, 64, kernel_size=(1, 1), stride=(1, 1))
            )
          )
          (5): DPCB(
            (body1): Sequential(
              (0): Conv2d(64, 64, kernel_size=(3, 3), stride=(1, 1), padding=(1, 1))
              (1): LeakyReLU(negative_slope=0.2, inplace=True)
              (2): Conv2d(64, 64, kernel_size=(3, 3), stride=(1, 1), padding=(1, 1))
            )
            (body2): Sequential(
              (0): Conv2d(64, 64, kernel_size=(1, 1), stride=(1, 1))
              (1): LeakyReLU(negative_slope=0.2, inplace=True)
              (2): Conv2d(64, 64, kernel_size=(1, 1), stride=(1, 1))
            )
          )
          (6): DPCB(
            (body1): Sequential(
              (0): Conv2d(64, 64, kernel_size=(3, 3), stride=(1, 1), padding=(1, 1))
              (1): LeakyReLU(negative_slope=0.2, inplace=True)
              (2): Conv2d(64, 64, kernel_size=(3, 3), stride=(1, 1), padding=(1, 1))
            )
            (body2): Sequential(
              (0): Conv2d(64, 64, kernel_size=(1, 1), stride=(1, 1))
              (1): LeakyReLU(negative_slope=0.2, inplace=True)
              (2): Conv2d(64, 64, kernel_size=(1, 1), stride=(1, 1))
            )
          )
          (7): DPCB(
            (body1): Sequential(
              (0): Conv2d(64, 64, kernel_size=(3, 3), stride=(1, 1), padding=(1, 1))
              (1): LeakyReLU(negative_slope=0.2, inplace=True)
              (2): Conv2d(64, 64, kernel_size=(3, 3), stride=(1, 1), padding=(1, 1))
            )
            (body2): Sequential(
              (0): Conv2d(64, 64, kernel_size=(1, 1), stride=(1, 1))
              (1): LeakyReLU(negative_slope=0.2, inplace=True)
              (2): Conv2d(64, 64, kernel_size=(1, 1), stride=(1, 1))
            )
          )
          (8): DPCB(
            (body1): Sequential(
              (0): Conv2d(64, 64, kernel_size=(3, 3), stride=(1, 1), padding=(1, 1))
              (1): LeakyReLU(negative_slope=0.2, inplace=True)
              (2): Conv2d(64, 64, kernel_size=(3, 3), stride=(1, 1), padding=(1, 1))
            )
            (body2): Sequential(
              (0): Conv2d(64, 64, kernel_size=(1, 1), stride=(1, 1))
              (1): LeakyReLU(negative_slope=0.2, inplace=True)
              (2): Conv2d(64, 64, kernel_size=(1, 1), stride=(1, 1))
            )
          )
          (9): DPCB(
            (body1): Sequential(
              (0): Conv2d(64, 64, kernel_size=(3, 3), stride=(1, 1), padding=(1, 1))
              (1): LeakyReLU(negative_slope=0.2, inplace=True)
              (2): Conv2d(64, 64, kernel_size=(3, 3), stride=(1, 1), padding=(1, 1))
            )
            (body2): Sequential(
              (0): Conv2d(64, 64, kernel_size=(1, 1), stride=(1, 1))
              (1): LeakyReLU(negative_slope=0.2, inplace=True)
              (2): Conv2d(64, 64, kernel_size=(1, 1), stride=(1, 1))
            )
          )
        )
      )
      (4): DPCG(
        (body): Sequential(
          (0): DPCB(
            (body1): Sequential(
              (0): Conv2d(64, 64, kernel_size=(3, 3), stride=(1, 1), padding=(1, 1))
              (1): LeakyReLU(negative_slope=0.2, inplace=True)
              (2): Conv2d(64, 64, kernel_size=(3, 3), stride=(1, 1), padding=(1, 1))
            )
            (body2): Sequential(
              (0): Conv2d(64, 64, kernel_size=(1, 1), stride=(1, 1))
              (1): LeakyReLU(negative_slope=0.2, inplace=True)
              (2): Conv2d(64, 64, kernel_size=(1, 1), stride=(1, 1))
            )
          )
          (1): DPCB(
            (body1): Sequential(
              (0): Conv2d(64, 64, kernel_size=(3, 3), stride=(1, 1), padding=(1, 1))
              (1): LeakyReLU(negative_slope=0.2, inplace=True)
              (2): Conv2d(64, 64, kernel_size=(3, 3), stride=(1, 1), padding=(1, 1))
            )
            (body2): Sequential(
              (0): Conv2d(64, 64, kernel_size=(1, 1), stride=(1, 1))
              (1): LeakyReLU(negative_slope=0.2, inplace=True)
              (2): Conv2d(64, 64, kernel_size=(1, 1), stride=(1, 1))
            )
          )
          (2): DPCB(
            (body1): Sequential(
              (0): Conv2d(64, 64, kernel_size=(3, 3), stride=(1, 1), padding=(1, 1))
              (1): LeakyReLU(negative_slope=0.2, inplace=True)
              (2): Conv2d(64, 64, kernel_size=(3, 3), stride=(1, 1), padding=(1, 1))
            )
            (body2): Sequential(
              (0): Conv2d(64, 64, kernel_size=(1, 1), stride=(1, 1))
              (1): LeakyReLU(negative_slope=0.2, inplace=True)
              (2): Conv2d(64, 64, kernel_size=(1, 1), stride=(1, 1))
            )
          )
          (3): DPCB(
            (body1): Sequential(
              (0): Conv2d(64, 64, kernel_size=(3, 3), stride=(1, 1), padding=(1, 1))
              (1): LeakyReLU(negative_slope=0.2, inplace=True)
              (2): Conv2d(64, 64, kernel_size=(3, 3), stride=(1, 1), padding=(1, 1))
            )
            (body2): Sequential(
              (0): Conv2d(64, 64, kernel_size=(1, 1), stride=(1, 1))
              (1): LeakyReLU(negative_slope=0.2, inplace=True)
              (2): Conv2d(64, 64, kernel_size=(1, 1), stride=(1, 1))
            )
          )
          (4): DPCB(
            (body1): Sequential(
              (0): Conv2d(64, 64, kernel_size=(3, 3), stride=(1, 1), padding=(1, 1))
              (1): LeakyReLU(negative_slope=0.2, inplace=True)
              (2): Conv2d(64, 64, kernel_size=(3, 3), stride=(1, 1), padding=(1, 1))
            )
            (body2): Sequential(
              (0): Conv2d(64, 64, kernel_size=(1, 1), stride=(1, 1))
              (1): LeakyReLU(negative_slope=0.2, inplace=True)
              (2): Conv2d(64, 64, kernel_size=(1, 1), stride=(1, 1))
            )
          )
          (5): DPCB(
            (body1): Sequential(
              (0): Conv2d(64, 64, kernel_size=(3, 3), stride=(1, 1), padding=(1, 1))
              (1): LeakyReLU(negative_slope=0.2, inplace=True)
              (2): Conv2d(64, 64, kernel_size=(3, 3), stride=(1, 1), padding=(1, 1))
            )
            (body2): Sequential(
              (0): Conv2d(64, 64, kernel_size=(1, 1), stride=(1, 1))
              (1): LeakyReLU(negative_slope=0.2, inplace=True)
              (2): Conv2d(64, 64, kernel_size=(1, 1), stride=(1, 1))
            )
          )
          (6): DPCB(
            (body1): Sequential(
              (0): Conv2d(64, 64, kernel_size=(3, 3), stride=(1, 1), padding=(1, 1))
              (1): LeakyReLU(negative_slope=0.2, inplace=True)
              (2): Conv2d(64, 64, kernel_size=(3, 3), stride=(1, 1), padding=(1, 1))
            )
            (body2): Sequential(
              (0): Conv2d(64, 64, kernel_size=(1, 1), stride=(1, 1))
              (1): LeakyReLU(negative_slope=0.2, inplace=True)
              (2): Conv2d(64, 64, kernel_size=(1, 1), stride=(1, 1))
            )
          )
          (7): DPCB(
            (body1): Sequential(
              (0): Conv2d(64, 64, kernel_size=(3, 3), stride=(1, 1), padding=(1, 1))
              (1): LeakyReLU(negative_slope=0.2, inplace=True)
              (2): Conv2d(64, 64, kernel_size=(3, 3), stride=(1, 1), padding=(1, 1))
            )
            (body2): Sequential(
              (0): Conv2d(64, 64, kernel_size=(1, 1), stride=(1, 1))
              (1): LeakyReLU(negative_slope=0.2, inplace=True)
              (2): Conv2d(64, 64, kernel_size=(1, 1), stride=(1, 1))
            )
          )
          (8): DPCB(
            (body1): Sequential(
              (0): Conv2d(64, 64, kernel_size=(3, 3), stride=(1, 1), padding=(1, 1))
              (1): LeakyReLU(negative_slope=0.2, inplace=True)
              (2): Conv2d(64, 64, kernel_size=(3, 3), stride=(1, 1), padding=(1, 1))
            )
            (body2): Sequential(
              (0): Conv2d(64, 64, kernel_size=(1, 1), stride=(1, 1))
              (1): LeakyReLU(negative_slope=0.2, inplace=True)
              (2): Conv2d(64, 64, kernel_size=(1, 1), stride=(1, 1))
            )
          )
          (9): DPCB(
            (body1): Sequential(
              (0): Conv2d(64, 64, kernel_size=(3, 3), stride=(1, 1), padding=(1, 1))
              (1): LeakyReLU(negative_slope=0.2, inplace=True)
              (2): Conv2d(64, 64, kernel_size=(3, 3), stride=(1, 1), padding=(1, 1))
            )
            (body2): Sequential(
              (0): Conv2d(64, 64, kernel_size=(1, 1), stride=(1, 1))
              (1): LeakyReLU(negative_slope=0.2, inplace=True)
              (2): Conv2d(64, 64, kernel_size=(1, 1), stride=(1, 1))
            )
          )
        )
      )
    )
    (fusion): Conv2d(64, 64, kernel_size=(3, 3), stride=(1, 1), padding=(1, 1))
    (upscale): Sequential(
      (0): Conv2d(64, 256, kernel_size=(3, 3), stride=(1, 1), padding=(1, 1))
      (1): PixelShuffle(upscale_factor=2)
      (2): Conv2d(64, 3, kernel_size=(3, 3), stride=(1, 1), padding=(1, 1))
    )
  )
  (Estimator): Estimator(
    (head_LR): Sequential(
      (0): Conv2d(3, 32, kernel_size=(5, 5), stride=(1, 1), padding=(2, 2))
    )
    (head_HR): Sequential(
      (0): Conv2d(3, 32, kernel_size=(9, 9), stride=(2, 2), padding=(4, 4))
    )
    (body): DPCG(
      (body): Sequential(
        (0): DPCB(
          (body1): Sequential(
            (0): Conv2d(32, 32, kernel_size=(3, 3), stride=(1, 1), padding=(1, 1))
            (1): LeakyReLU(negative_slope=0.2, inplace=True)
            (2): Conv2d(32, 32, kernel_size=(3, 3), stride=(1, 1), padding=(1, 1))
          )
          (body2): Sequential(
            (0): Conv2d(32, 32, kernel_size=(3, 3), stride=(1, 1), padding=(1, 1))
            (1): LeakyReLU(negative_slope=0.2, inplace=True)
            (2): Conv2d(32, 32, kernel_size=(3, 3), stride=(1, 1), padding=(1, 1))
          )
        )
        (1): DPCB(
          (body1): Sequential(
            (0): Conv2d(32, 32, kernel_size=(3, 3), stride=(1, 1), padding=(1, 1))
            (1): LeakyReLU(negative_slope=0.2, inplace=True)
            (2): Conv2d(32, 32, kernel_size=(3, 3), stride=(1, 1), padding=(1, 1))
          )
          (body2): Sequential(
            (0): Conv2d(32, 32, kernel_size=(3, 3), stride=(1, 1), padding=(1, 1))
            (1): LeakyReLU(negative_slope=0.2, inplace=True)
            (2): Conv2d(32, 32, kernel_size=(3, 3), stride=(1, 1), padding=(1, 1))
          )
        )
        (2): DPCB(
          (body1): Sequential(
            (0): Conv2d(32, 32, kernel_size=(3, 3), stride=(1, 1), padding=(1, 1))
            (1): LeakyReLU(negative_slope=0.2, inplace=True)
            (2): Conv2d(32, 32, kernel_size=(3, 3), stride=(1, 1), padding=(1, 1))
          )
          (body2): Sequential(
            (0): Conv2d(32, 32, kernel_size=(3, 3), stride=(1, 1), padding=(1, 1))
            (1): LeakyReLU(negative_slope=0.2, inplace=True)
            (2): Conv2d(32, 32, kernel_size=(3, 3), stride=(1, 1), padding=(1, 1))
          )
        )
        (3): DPCB(
          (body1): Sequential(
            (0): Conv2d(32, 32, kernel_size=(3, 3), stride=(1, 1), padding=(1, 1))
            (1): LeakyReLU(negative_slope=0.2, inplace=True)
            (2): Conv2d(32, 32, kernel_size=(3, 3), stride=(1, 1), padding=(1, 1))
          )
          (body2): Sequential(
            (0): Conv2d(32, 32, kernel_size=(3, 3), stride=(1, 1), padding=(1, 1))
            (1): LeakyReLU(negative_slope=0.2, inplace=True)
            (2): Conv2d(32, 32, kernel_size=(3, 3), stride=(1, 1), padding=(1, 1))
          )
        )
        (4): DPCB(
          (body1): Sequential(
            (0): Conv2d(32, 32, kernel_size=(3, 3), stride=(1, 1), padding=(1, 1))
            (1): LeakyReLU(negative_slope=0.2, inplace=True)
            (2): Conv2d(32, 32, kernel_size=(3, 3), stride=(1, 1), padding=(1, 1))
          )
          (body2): Sequential(
            (0): Conv2d(32, 32, kernel_size=(3, 3), stride=(1, 1), padding=(1, 1))
            (1): LeakyReLU(negative_slope=0.2, inplace=True)
            (2): Conv2d(32, 32, kernel_size=(3, 3), stride=(1, 1), padding=(1, 1))
          )
        )
      )
    )
    (tail): Sequential(
      (0): Conv2d(32, 64, kernel_size=(3, 3), stride=(1, 1), padding=(1, 1))
      (1): AdaptiveAvgPool2d(output_size=1)
      (2): Conv2d(64, 441, kernel_size=(1, 1), stride=(1, 1))
      (3): Softmax(dim=1)
    )
  )
)
21-07-21 17:56:04.177 - INFO: Path already exists. Rename it to [/content/DAN/experiments/DANv2/DANx2_setting1_archived_210721-175604]
21-07-21 17:56:04.225 - INFO: Dataset [GTDataset - DIV2K] is created.
21-07-21 17:56:04.228 - INFO: Dataset [LQGTDataset - DIV2KRK] is created.
21-07-21 17:56:04.355 - INFO: Network G structure: DataParallel - DAN, with parameters: 4,540,028
21-07-21 17:56:04.355 - INFO: DAN(
  (Restorer): Restorer(
    (head1): Conv2d(3, 64, kernel_size=(3, 3), stride=(1, 1), padding=(1, 1))
    (head2): Conv2d(10, 64, kernel_size=(1, 1), stride=(1, 1))
    (body): Sequential(
      (0): DPCG(
        (body): Sequential(
          (0): DPCB(
            (body1): Sequential(
              (0): Conv2d(64, 64, kernel_size=(3, 3), stride=(1, 1), padding=(1, 1))
              (1): LeakyReLU(negative_slope=0.2, inplace=True)
              (2): Conv2d(64, 64, kernel_size=(3, 3), stride=(1, 1), padding=(1, 1))
            )
            (body2): Sequential(
              (0): Conv2d(64, 64, kernel_size=(1, 1), stride=(1, 1))
              (1): LeakyReLU(negative_slope=0.2, inplace=True)
              (2): Conv2d(64, 64, kernel_size=(1, 1), stride=(1, 1))
            )
          )
          (1): DPCB(
            (body1): Sequential(
              (0): Conv2d(64, 64, kernel_size=(3, 3), stride=(1, 1), padding=(1, 1))
              (1): LeakyReLU(negative_slope=0.2, inplace=True)
              (2): Conv2d(64, 64, kernel_size=(3, 3), stride=(1, 1), padding=(1, 1))
            )
            (body2): Sequential(
              (0): Conv2d(64, 64, kernel_size=(1, 1), stride=(1, 1))
              (1): LeakyReLU(negative_slope=0.2, inplace=True)
              (2): Conv2d(64, 64, kernel_size=(1, 1), stride=(1, 1))
            )
          )
          (2): DPCB(
            (body1): Sequential(
              (0): Conv2d(64, 64, kernel_size=(3, 3), stride=(1, 1), padding=(1, 1))
              (1): LeakyReLU(negative_slope=0.2, inplace=True)
              (2): Conv2d(64, 64, kernel_size=(3, 3), stride=(1, 1), padding=(1, 1))
            )
            (body2): Sequential(
              (0): Conv2d(64, 64, kernel_size=(1, 1), stride=(1, 1))
              (1): LeakyReLU(negative_slope=0.2, inplace=True)
              (2): Conv2d(64, 64, kernel_size=(1, 1), stride=(1, 1))
            )
          )
          (3): DPCB(
            (body1): Sequential(
              (0): Conv2d(64, 64, kernel_size=(3, 3), stride=(1, 1), padding=(1, 1))
              (1): LeakyReLU(negative_slope=0.2, inplace=True)
              (2): Conv2d(64, 64, kernel_size=(3, 3), stride=(1, 1), padding=(1, 1))
            )
            (body2): Sequential(
              (0): Conv2d(64, 64, kernel_size=(1, 1), stride=(1, 1))
              (1): LeakyReLU(negative_slope=0.2, inplace=True)
              (2): Conv2d(64, 64, kernel_size=(1, 1), stride=(1, 1))
            )
          )
          (4): DPCB(
            (body1): Sequential(
              (0): Conv2d(64, 64, kernel_size=(3, 3), stride=(1, 1), padding=(1, 1))
              (1): LeakyReLU(negative_slope=0.2, inplace=True)
              (2): Conv2d(64, 64, kernel_size=(3, 3), stride=(1, 1), padding=(1, 1))
            )
            (body2): Sequential(
              (0): Conv2d(64, 64, kernel_size=(1, 1), stride=(1, 1))
              (1): LeakyReLU(negative_slope=0.2, inplace=True)
              (2): Conv2d(64, 64, kernel_size=(1, 1), stride=(1, 1))
            )
          )
          (5): DPCB(
            (body1): Sequential(
              (0): Conv2d(64, 64, kernel_size=(3, 3), stride=(1, 1), padding=(1, 1))
              (1): LeakyReLU(negative_slope=0.2, inplace=True)
              (2): Conv2d(64, 64, kernel_size=(3, 3), stride=(1, 1), padding=(1, 1))
            )
            (body2): Sequential(
              (0): Conv2d(64, 64, kernel_size=(1, 1), stride=(1, 1))
              (1): LeakyReLU(negative_slope=0.2, inplace=True)
              (2): Conv2d(64, 64, kernel_size=(1, 1), stride=(1, 1))
            )
          )
          (6): DPCB(
            (body1): Sequential(
              (0): Conv2d(64, 64, kernel_size=(3, 3), stride=(1, 1), padding=(1, 1))
              (1): LeakyReLU(negative_slope=0.2, inplace=True)
              (2): Conv2d(64, 64, kernel_size=(3, 3), stride=(1, 1), padding=(1, 1))
            )
            (body2): Sequential(
              (0): Conv2d(64, 64, kernel_size=(1, 1), stride=(1, 1))
              (1): LeakyReLU(negative_slope=0.2, inplace=True)
              (2): Conv2d(64, 64, kernel_size=(1, 1), stride=(1, 1))
            )
          )
          (7): DPCB(
            (body1): Sequential(
              (0): Conv2d(64, 64, kernel_size=(3, 3), stride=(1, 1), padding=(1, 1))
              (1): LeakyReLU(negative_slope=0.2, inplace=True)
              (2): Conv2d(64, 64, kernel_size=(3, 3), stride=(1, 1), padding=(1, 1))
            )
            (body2): Sequential(
              (0): Conv2d(64, 64, kernel_size=(1, 1), stride=(1, 1))
              (1): LeakyReLU(negative_slope=0.2, inplace=True)
              (2): Conv2d(64, 64, kernel_size=(1, 1), stride=(1, 1))
            )
          )
          (8): DPCB(
            (body1): Sequential(
              (0): Conv2d(64, 64, kernel_size=(3, 3), stride=(1, 1), padding=(1, 1))
              (1): LeakyReLU(negative_slope=0.2, inplace=True)
              (2): Conv2d(64, 64, kernel_size=(3, 3), stride=(1, 1), padding=(1, 1))
            )
            (body2): Sequential(
              (0): Conv2d(64, 64, kernel_size=(1, 1), stride=(1, 1))
              (1): LeakyReLU(negative_slope=0.2, inplace=True)
              (2): Conv2d(64, 64, kernel_size=(1, 1), stride=(1, 1))
            )
          )
          (9): DPCB(
            (body1): Sequential(
              (0): Conv2d(64, 64, kernel_size=(3, 3), stride=(1, 1), padding=(1, 1))
              (1): LeakyReLU(negative_slope=0.2, inplace=True)
              (2): Conv2d(64, 64, kernel_size=(3, 3), stride=(1, 1), padding=(1, 1))
            )
            (body2): Sequential(
              (0): Conv2d(64, 64, kernel_size=(1, 1), stride=(1, 1))
              (1): LeakyReLU(negative_slope=0.2, inplace=True)
              (2): Conv2d(64, 64, kernel_size=(1, 1), stride=(1, 1))
            )
          )
        )
      )
      (1): DPCG(
        (body): Sequential(
          (0): DPCB(
            (body1): Sequential(
              (0): Conv2d(64, 64, kernel_size=(3, 3), stride=(1, 1), padding=(1, 1))
              (1): LeakyReLU(negative_slope=0.2, inplace=True)
              (2): Conv2d(64, 64, kernel_size=(3, 3), stride=(1, 1), padding=(1, 1))
            )
            (body2): Sequential(
              (0): Conv2d(64, 64, kernel_size=(1, 1), stride=(1, 1))
              (1): LeakyReLU(negative_slope=0.2, inplace=True)
              (2): Conv2d(64, 64, kernel_size=(1, 1), stride=(1, 1))
            )
          )
          (1): DPCB(
            (body1): Sequential(
              (0): Conv2d(64, 64, kernel_size=(3, 3), stride=(1, 1), padding=(1, 1))
              (1): LeakyReLU(negative_slope=0.2, inplace=True)
              (2): Conv2d(64, 64, kernel_size=(3, 3), stride=(1, 1), padding=(1, 1))
            )
            (body2): Sequential(
              (0): Conv2d(64, 64, kernel_size=(1, 1), stride=(1, 1))
              (1): LeakyReLU(negative_slope=0.2, inplace=True)
              (2): Conv2d(64, 64, kernel_size=(1, 1), stride=(1, 1))
            )
          )
          (2): DPCB(
            (body1): Sequential(
              (0): Conv2d(64, 64, kernel_size=(3, 3), stride=(1, 1), padding=(1, 1))
              (1): LeakyReLU(negative_slope=0.2, inplace=True)
              (2): Conv2d(64, 64, kernel_size=(3, 3), stride=(1, 1), padding=(1, 1))
            )
            (body2): Sequential(
              (0): Conv2d(64, 64, kernel_size=(1, 1), stride=(1, 1))
              (1): LeakyReLU(negative_slope=0.2, inplace=True)
              (2): Conv2d(64, 64, kernel_size=(1, 1), stride=(1, 1))
            )
          )
          (3): DPCB(
            (body1): Sequential(
              (0): Conv2d(64, 64, kernel_size=(3, 3), stride=(1, 1), padding=(1, 1))
              (1): LeakyReLU(negative_slope=0.2, inplace=True)
              (2): Conv2d(64, 64, kernel_size=(3, 3), stride=(1, 1), padding=(1, 1))
            )
            (body2): Sequential(
              (0): Conv2d(64, 64, kernel_size=(1, 1), stride=(1, 1))
              (1): LeakyReLU(negative_slope=0.2, inplace=True)
              (2): Conv2d(64, 64, kernel_size=(1, 1), stride=(1, 1))
            )
          )
          (4): DPCB(
            (body1): Sequential(
              (0): Conv2d(64, 64, kernel_size=(3, 3), stride=(1, 1), padding=(1, 1))
              (1): LeakyReLU(negative_slope=0.2, inplace=True)
              (2): Conv2d(64, 64, kernel_size=(3, 3), stride=(1, 1), padding=(1, 1))
            )
            (body2): Sequential(
              (0): Conv2d(64, 64, kernel_size=(1, 1), stride=(1, 1))
              (1): LeakyReLU(negative_slope=0.2, inplace=True)
              (2): Conv2d(64, 64, kernel_size=(1, 1), stride=(1, 1))
            )
          )
          (5): DPCB(
            (body1): Sequential(
              (0): Conv2d(64, 64, kernel_size=(3, 3), stride=(1, 1), padding=(1, 1))
              (1): LeakyReLU(negative_slope=0.2, inplace=True)
              (2): Conv2d(64, 64, kernel_size=(3, 3), stride=(1, 1), padding=(1, 1))
            )
            (body2): Sequential(
              (0): Conv2d(64, 64, kernel_size=(1, 1), stride=(1, 1))
              (1): LeakyReLU(negative_slope=0.2, inplace=True)
              (2): Conv2d(64, 64, kernel_size=(1, 1), stride=(1, 1))
            )
          )
          (6): DPCB(
            (body1): Sequential(
              (0): Conv2d(64, 64, kernel_size=(3, 3), stride=(1, 1), padding=(1, 1))
              (1): LeakyReLU(negative_slope=0.2, inplace=True)
              (2): Conv2d(64, 64, kernel_size=(3, 3), stride=(1, 1), padding=(1, 1))
            )
            (body2): Sequential(
              (0): Conv2d(64, 64, kernel_size=(1, 1), stride=(1, 1))
              (1): LeakyReLU(negative_slope=0.2, inplace=True)
              (2): Conv2d(64, 64, kernel_size=(1, 1), stride=(1, 1))
            )
          )
          (7): DPCB(
            (body1): Sequential(
              (0): Conv2d(64, 64, kernel_size=(3, 3), stride=(1, 1), padding=(1, 1))
              (1): LeakyReLU(negative_slope=0.2, inplace=True)
              (2): Conv2d(64, 64, kernel_size=(3, 3), stride=(1, 1), padding=(1, 1))
            )
            (body2): Sequential(
              (0): Conv2d(64, 64, kernel_size=(1, 1), stride=(1, 1))
              (1): LeakyReLU(negative_slope=0.2, inplace=True)
              (2): Conv2d(64, 64, kernel_size=(1, 1), stride=(1, 1))
            )
          )
          (8): DPCB(
            (body1): Sequential(
              (0): Conv2d(64, 64, kernel_size=(3, 3), stride=(1, 1), padding=(1, 1))
              (1): LeakyReLU(negative_slope=0.2, inplace=True)
              (2): Conv2d(64, 64, kernel_size=(3, 3), stride=(1, 1), padding=(1, 1))
            )
            (body2): Sequential(
              (0): Conv2d(64, 64, kernel_size=(1, 1), stride=(1, 1))
              (1): LeakyReLU(negative_slope=0.2, inplace=True)
              (2): Conv2d(64, 64, kernel_size=(1, 1), stride=(1, 1))
            )
          )
          (9): DPCB(
            (body1): Sequential(
              (0): Conv2d(64, 64, kernel_size=(3, 3), stride=(1, 1), padding=(1, 1))
              (1): LeakyReLU(negative_slope=0.2, inplace=True)
              (2): Conv2d(64, 64, kernel_size=(3, 3), stride=(1, 1), padding=(1, 1))
            )
            (body2): Sequential(
              (0): Conv2d(64, 64, kernel_size=(1, 1), stride=(1, 1))
              (1): LeakyReLU(negative_slope=0.2, inplace=True)
              (2): Conv2d(64, 64, kernel_size=(1, 1), stride=(1, 1))
            )
          )
        )
      )
      (2): DPCG(
        (body): Sequential(
          (0): DPCB(
            (body1): Sequential(
              (0): Conv2d(64, 64, kernel_size=(3, 3), stride=(1, 1), padding=(1, 1))
              (1): LeakyReLU(negative_slope=0.2, inplace=True)
              (2): Conv2d(64, 64, kernel_size=(3, 3), stride=(1, 1), padding=(1, 1))
            )
            (body2): Sequential(
              (0): Conv2d(64, 64, kernel_size=(1, 1), stride=(1, 1))
              (1): LeakyReLU(negative_slope=0.2, inplace=True)
              (2): Conv2d(64, 64, kernel_size=(1, 1), stride=(1, 1))
            )
          )
          (1): DPCB(
            (body1): Sequential(
              (0): Conv2d(64, 64, kernel_size=(3, 3), stride=(1, 1), padding=(1, 1))
              (1): LeakyReLU(negative_slope=0.2, inplace=True)
              (2): Conv2d(64, 64, kernel_size=(3, 3), stride=(1, 1), padding=(1, 1))
            )
            (body2): Sequential(
              (0): Conv2d(64, 64, kernel_size=(1, 1), stride=(1, 1))
              (1): LeakyReLU(negative_slope=0.2, inplace=True)
              (2): Conv2d(64, 64, kernel_size=(1, 1), stride=(1, 1))
            )
          )
          (2): DPCB(
            (body1): Sequential(
              (0): Conv2d(64, 64, kernel_size=(3, 3), stride=(1, 1), padding=(1, 1))
              (1): LeakyReLU(negative_slope=0.2, inplace=True)
              (2): Conv2d(64, 64, kernel_size=(3, 3), stride=(1, 1), padding=(1, 1))
            )
            (body2): Sequential(
              (0): Conv2d(64, 64, kernel_size=(1, 1), stride=(1, 1))
              (1): LeakyReLU(negative_slope=0.2, inplace=True)
              (2): Conv2d(64, 64, kernel_size=(1, 1), stride=(1, 1))
            )
          )
          (3): DPCB(
            (body1): Sequential(
              (0): Conv2d(64, 64, kernel_size=(3, 3), stride=(1, 1), padding=(1, 1))
              (1): LeakyReLU(negative_slope=0.2, inplace=True)
              (2): Conv2d(64, 64, kernel_size=(3, 3), stride=(1, 1), padding=(1, 1))
            )
            (body2): Sequential(
              (0): Conv2d(64, 64, kernel_size=(1, 1), stride=(1, 1))
              (1): LeakyReLU(negative_slope=0.2, inplace=True)
              (2): Conv2d(64, 64, kernel_size=(1, 1), stride=(1, 1))
            )
          )
          (4): DPCB(
            (body1): Sequential(
              (0): Conv2d(64, 64, kernel_size=(3, 3), stride=(1, 1), padding=(1, 1))
              (1): LeakyReLU(negative_slope=0.2, inplace=True)
              (2): Conv2d(64, 64, kernel_size=(3, 3), stride=(1, 1), padding=(1, 1))
            )
            (body2): Sequential(
              (0): Conv2d(64, 64, kernel_size=(1, 1), stride=(1, 1))
              (1): LeakyReLU(negative_slope=0.2, inplace=True)
              (2): Conv2d(64, 64, kernel_size=(1, 1), stride=(1, 1))
            )
          )
          (5): DPCB(
            (body1): Sequential(
              (0): Conv2d(64, 64, kernel_size=(3, 3), stride=(1, 1), padding=(1, 1))
              (1): LeakyReLU(negative_slope=0.2, inplace=True)
              (2): Conv2d(64, 64, kernel_size=(3, 3), stride=(1, 1), padding=(1, 1))
            )
            (body2): Sequential(
              (0): Conv2d(64, 64, kernel_size=(1, 1), stride=(1, 1))
              (1): LeakyReLU(negative_slope=0.2, inplace=True)
              (2): Conv2d(64, 64, kernel_size=(1, 1), stride=(1, 1))
            )
          )
          (6): DPCB(
            (body1): Sequential(
              (0): Conv2d(64, 64, kernel_size=(3, 3), stride=(1, 1), padding=(1, 1))
              (1): LeakyReLU(negative_slope=0.2, inplace=True)
              (2): Conv2d(64, 64, kernel_size=(3, 3), stride=(1, 1), padding=(1, 1))
            )
            (body2): Sequential(
              (0): Conv2d(64, 64, kernel_size=(1, 1), stride=(1, 1))
              (1): LeakyReLU(negative_slope=0.2, inplace=True)
              (2): Conv2d(64, 64, kernel_size=(1, 1), stride=(1, 1))
            )
          )
          (7): DPCB(
            (body1): Sequential(
              (0): Conv2d(64, 64, kernel_size=(3, 3), stride=(1, 1), padding=(1, 1))
              (1): LeakyReLU(negative_slope=0.2, inplace=True)
              (2): Conv2d(64, 64, kernel_size=(3, 3), stride=(1, 1), padding=(1, 1))
            )
            (body2): Sequential(
              (0): Conv2d(64, 64, kernel_size=(1, 1), stride=(1, 1))
              (1): LeakyReLU(negative_slope=0.2, inplace=True)
              (2): Conv2d(64, 64, kernel_size=(1, 1), stride=(1, 1))
            )
          )
          (8): DPCB(
            (body1): Sequential(
              (0): Conv2d(64, 64, kernel_size=(3, 3), stride=(1, 1), padding=(1, 1))
              (1): LeakyReLU(negative_slope=0.2, inplace=True)
              (2): Conv2d(64, 64, kernel_size=(3, 3), stride=(1, 1), padding=(1, 1))
            )
            (body2): Sequential(
              (0): Conv2d(64, 64, kernel_size=(1, 1), stride=(1, 1))
              (1): LeakyReLU(negative_slope=0.2, inplace=True)
              (2): Conv2d(64, 64, kernel_size=(1, 1), stride=(1, 1))
            )
          )
          (9): DPCB(
            (body1): Sequential(
              (0): Conv2d(64, 64, kernel_size=(3, 3), stride=(1, 1), padding=(1, 1))
              (1): LeakyReLU(negative_slope=0.2, inplace=True)
              (2): Conv2d(64, 64, kernel_size=(3, 3), stride=(1, 1), padding=(1, 1))
            )
            (body2): Sequential(
              (0): Conv2d(64, 64, kernel_size=(1, 1), stride=(1, 1))
              (1): LeakyReLU(negative_slope=0.2, inplace=True)
              (2): Conv2d(64, 64, kernel_size=(1, 1), stride=(1, 1))
            )
          )
        )
      )
      (3): DPCG(
        (body): Sequential(
          (0): DPCB(
            (body1): Sequential(
              (0): Conv2d(64, 64, kernel_size=(3, 3), stride=(1, 1), padding=(1, 1))
              (1): LeakyReLU(negative_slope=0.2, inplace=True)
              (2): Conv2d(64, 64, kernel_size=(3, 3), stride=(1, 1), padding=(1, 1))
            )
            (body2): Sequential(
              (0): Conv2d(64, 64, kernel_size=(1, 1), stride=(1, 1))
              (1): LeakyReLU(negative_slope=0.2, inplace=True)
              (2): Conv2d(64, 64, kernel_size=(1, 1), stride=(1, 1))
            )
          )
          (1): DPCB(
            (body1): Sequential(
              (0): Conv2d(64, 64, kernel_size=(3, 3), stride=(1, 1), padding=(1, 1))
              (1): LeakyReLU(negative_slope=0.2, inplace=True)
              (2): Conv2d(64, 64, kernel_size=(3, 3), stride=(1, 1), padding=(1, 1))
            )
            (body2): Sequential(
              (0): Conv2d(64, 64, kernel_size=(1, 1), stride=(1, 1))
              (1): LeakyReLU(negative_slope=0.2, inplace=True)
              (2): Conv2d(64, 64, kernel_size=(1, 1), stride=(1, 1))
            )
          )
          (2): DPCB(
            (body1): Sequential(
              (0): Conv2d(64, 64, kernel_size=(3, 3), stride=(1, 1), padding=(1, 1))
              (1): LeakyReLU(negative_slope=0.2, inplace=True)
              (2): Conv2d(64, 64, kernel_size=(3, 3), stride=(1, 1), padding=(1, 1))
            )
            (body2): Sequential(
              (0): Conv2d(64, 64, kernel_size=(1, 1), stride=(1, 1))
              (1): LeakyReLU(negative_slope=0.2, inplace=True)
              (2): Conv2d(64, 64, kernel_size=(1, 1), stride=(1, 1))
            )
          )
          (3): DPCB(
            (body1): Sequential(
…
          )
          (6): DPCB(
            (body1): Sequential(
              (0): Conv2d(64, 64, kernel_size=(3, 3), stride=(1, 1), padding=(1, 1))
              (1): LeakyReLU(negative_slope=0.2, inplace=True)
              (2): Conv2d(64, 64, kernel_size=(3, 3), stride=(1, 1), padding=(1, 1))
            )
            (body2): Sequential(
              (0): Conv2d(64, 64, kernel_size=(1, 1), stride=(1, 1))
              (1): LeakyReLU(negative_slope=0.2, inplace=True)
              (2): Conv2d(64, 64, kernel_size=(1, 1), stride=(1, 1))
            )
          )
          (7): DPCB(
            (body1): Sequential(
              (0): Conv2d(64, 64, kernel_size=(3, 3), stride=(1, 1), padding=(1, 1))
              (1): LeakyReLU(negative_slope=0.2, inplace=True)
              (2): Conv2d(64, 64, kernel_size=(3, 3), stride=(1, 1), padding=(1, 1))
            )
            (body2): Sequential(
              (0): Conv2d(64, 64, kernel_size=(1, 1), stride=(1, 1))
              (1): LeakyReLU(negative_slope=0.2, inplace=True)
              (2): Conv2d(64, 64, kernel_size=(1, 1), stride=(1, 1))
            )
          )
          (8): DPCB(
            (body1): Sequential(
              (0): Conv2d(64, 64, kernel_size=(3, 3), stride=(1, 1), padding=(1, 1))
              (1): LeakyReLU(negative_slope=0.2, inplace=True)
              (2): Conv2d(64, 64, kernel_size=(3, 3), stride=(1, 1), padding=(1, 1))
            )
            (body2): Sequential(
              (0): Conv2d(64, 64, kernel_size=(1, 1), stride=(1, 1))
              (1): LeakyReLU(negative_slope=0.2, inplace=True)
              (2): Conv2d(64, 64, kernel_size=(1, 1), stride=(1, 1))
            )
          )
          (9): DPCB(
            (body1): Sequential(
              (0): Conv2d(64, 64, kernel_size=(3, 3), stride=(1, 1), padding=(1, 1))
              (1): LeakyReLU(negative_slope=0.2, inplace=True)
              (2): Conv2d(64, 64, kernel_size=(3, 3), stride=(1, 1), padding=(1, 1))
            )
            (body2): Sequential(
              (0): Conv2d(64, 64, kernel_size=(1, 1), stride=(1, 1))
              (1): LeakyReLU(negative_slope=0.2, inplace=True)
              (2): Conv2d(64, 64, kernel_size=(1, 1), stride=(1, 1))
            )
          )
        )
      )
      (3): DPCG(
        (body): Sequential(
          (0): DPCB(
            (body1): Sequential(
              (0): Conv2d(64, 64, kernel_size=(3, 3), stride=(1, 1), padding=(1, 1))
              (1): LeakyReLU(negative_slope=0.2, inplace=True)
              (2): Conv2d(64, 64, kernel_size=(3, 3), stride=(1, 1), padding=(1, 1))
            )
            (body2): Sequential(
              (0): Conv2d(64, 64, kernel_size=(1, 1), stride=(1, 1))
              (1): LeakyReLU(negative_slope=0.2, inplace=True)
              (2): Conv2d(64, 64, kernel_size=(1, 1), stride=(1, 1))
            )
          )
          (1): DPCB(
            (body1): Sequential(
              (0): Conv2d(64, 64, kernel_size=(3, 3), stride=(1, 1), padding=(1, 1))
              (1): LeakyReLU(negative_slope=0.2, inplace=True)
              (2): Conv2d(64, 64, kernel_size=(3, 3), stride=(1, 1), padding=(1, 1))
            )
            (body2): Sequential(
              (0): Conv2d(64, 64, kernel_size=(1, 1), stride=(1, 1))
              (1): LeakyReLU(negative_slope=0.2, inplace=True)
              (2): Conv2d(64, 64, kernel_size=(1, 1), stride=(1, 1))
            )
          )
          (2): DPCB(
            (body1): Sequential(
              (0): Conv2d(64, 64, kernel_size=(3, 3), stride=(1, 1), padding=(1, 1))
              (1): LeakyReLU(negative_slope=0.2, inplace=True)
              (2): Conv2d(64, 64, kernel_size=(3, 3), stride=(1, 1), padding=(1, 1))
            )
            (body2): Sequential(
              (0): Conv2d(64, 64, kernel_size=(1, 1), stride=(1, 1))
              (1): LeakyReLU(negative_slope=0.2, inplace=True)
              (2): Conv2d(64, 64, kernel_size=(1, 1), stride=(1, 1))
            )
          )
          (3): DPCB(
            (body1): Sequential(
              (0): Conv2d(64, 64, kernel_size=(3, 3), stride=(1, 1), padding=(1, 1))
              (1): LeakyReLU(negative_slope=0.2, inplace=True)
              (2): Conv2d(64, 64, kernel_size=(3, 3), stride=(1, 1), padding=(1, 1))
            )
            (body2): Sequential(
              (0): Conv2d(64, 64, kernel_size=(1, 1), stride=(1, 1))
              (1): LeakyReLU(negative_slope=0.2, inplace=True)
              (2): Conv2d(64, 64, kernel_size=(1, 1), stride=(1, 1))
            )
          )
          (4): DPCB(
            (body1): Sequential(
              (0): Conv2d(64, 64, kernel_size=(3, 3), stride=(1, 1), padding=(1, 1))
              (1): LeakyReLU(negative_slope=0.2, inplace=True)
              (2): Conv2d(64, 64, kernel_size=(3, 3), stride=(1, 1), padding=(1, 1))
            )
            (body2): Sequential(
              (0): Conv2d(64, 64, kernel_size=(1, 1), stride=(1, 1))
              (1): LeakyReLU(negative_slope=0.2, inplace=True)
              (2): Conv2d(64, 64, kernel_size=(1, 1), stride=(1, 1))
            )
          )
          (5): DPCB(
            (body1): Sequential(
              (0): Conv2d(64, 64, kernel_size=(3, 3), stride=(1, 1), padding=(1, 1))
              (1): LeakyReLU(negative_slope=0.2, inplace=True)
              (2): Conv2d(64, 64, kernel_size=(3, 3), stride=(1, 1), padding=(1, 1))
            )
            (body2): Sequential(
              (0): Conv2d(64, 64, kernel_size=(1, 1), stride=(1, 1))
              (1): LeakyReLU(negative_slope=0.2, inplace=True)
              (2): Conv2d(64, 64, kernel_size=(1, 1), stride=(1, 1))
            )
          )
          (6): DPCB(
            (body1): Sequential(
              (0): Conv2d(64, 64, kernel_size=(3, 3), stride=(1, 1), padding=(1, 1))
              (1): LeakyReLU(negative_slope=0.2, inplace=True)
              (2): Conv2d(64, 64, kernel_size=(3, 3), stride=(1, 1), padding=(1, 1))
            )
            (body2): Sequential(
              (0): Conv2d(64, 64, kernel_size=(1, 1), stride=(1, 1))
              (1): LeakyReLU(negative_slope=0.2, inplace=True)
              (2): Conv2d(64, 64, kernel_size=(1, 1), stride=(1, 1))
            )
          )
          (7): DPCB(
            (body1): Sequential(
              (0): Conv2d(64, 64, kernel_size=(3, 3), stride=(1, 1), padding=(1, 1))
              (1): LeakyReLU(negative_slope=0.2, inplace=True)
              (2): Conv2d(64, 64, kernel_size=(3, 3), stride=(1, 1), padding=(1, 1))
            )
            (body2): Sequential(
              (0): Conv2d(64, 64, kernel_size=(1, 1), stride=(1, 1))
              (1): LeakyReLU(negative_slope=0.2, inplace=True)
              (2): Conv2d(64, 64, kernel_size=(1, 1), stride=(1, 1))
            )
          )
          (8): DPCB(
            (body1): Sequential(
              (0): Conv2d(64, 64, kernel_size=(3, 3), stride=(1, 1), padding=(1, 1))
              (1): LeakyReLU(negative_slope=0.2, inplace=True)
              (2): Conv2d(64, 64, kernel_size=(3, 3), stride=(1, 1), padding=(1, 1))
            )
            (body2): Sequential(
              (0): Conv2d(64, 64, kernel_size=(1, 1), stride=(1, 1))
              (1): LeakyReLU(negative_slope=0.2, inplace=True)
              (2): Conv2d(64, 64, kernel_size=(1, 1), stride=(1, 1))
            )
          )
          (9): DPCB(
            (body1): Sequential(
              (0): Conv2d(64, 64, kernel_size=(3, 3), stride=(1, 1), padding=(1, 1))
              (1): LeakyReLU(negative_slope=0.2, inplace=True)
              (2): Conv2d(64, 64, kernel_size=(3, 3), stride=(1, 1), padding=(1, 1))
            )
            (body2): Sequential(
              (0): Conv2d(64, 64, kernel_size=(1, 1), stride=(1, 1))
              (1): LeakyReLU(negative_slope=0.2, inplace=True)
              (2): Conv2d(64, 64, kernel_size=(1, 1), stride=(1, 1))
            )
          )
        )
      )
      (4): DPCG(
        (body): Sequential(
          (0): DPCB(
            (body1): Sequential(
              (0): Conv2d(64, 64, kernel_size=(3, 3), stride=(1, 1), padding=(1, 1))
              (1): LeakyReLU(negative_slope=0.2, inplace=True)
              (2): Conv2d(64, 64, kernel_size=(3, 3), stride=(1, 1), padding=(1, 1))
            )
            (body2): Sequential(
              (0): Conv2d(64, 64, kernel_size=(1, 1), stride=(1, 1))
              (1): LeakyReLU(negative_slope=0.2, inplace=True)
              (2): Conv2d(64, 64, kernel_size=(1, 1), stride=(1, 1))
            )
          )
          (1): DPCB(
            (body1): Sequential(
              (0): Conv2d(64, 64, kernel_size=(3, 3), stride=(1, 1), padding=(1, 1))
              (1): LeakyReLU(negative_slope=0.2, inplace=True)
              (2): Conv2d(64, 64, kernel_size=(3, 3), stride=(1, 1), padding=(1, 1))
            )
            (body2): Sequential(
              (0): Conv2d(64, 64, kernel_size=(1, 1), stride=(1, 1))
              (1): LeakyReLU(negative_slope=0.2, inplace=True)
              (2): Conv2d(64, 64, kernel_size=(1, 1), stride=(1, 1))
            )
          )
          (2): DPCB(
            (body1): Sequential(
              (0): Conv2d(64, 64, kernel_size=(3, 3), stride=(1, 1), padding=(1, 1))
              (1): LeakyReLU(negative_slope=0.2, inplace=True)
              (2): Conv2d(64, 64, kernel_size=(3, 3), stride=(1, 1), padding=(1, 1))
            )
            (body2): Sequential(
              (0): Conv2d(64, 64, kernel_size=(1, 1), stride=(1, 1))
              (1): LeakyReLU(negative_slope=0.2, inplace=True)
              (2): Conv2d(64, 64, kernel_size=(1, 1), stride=(1, 1))
            )
          )
          (3): DPCB(
            (body1): Sequential(
              (0): Conv2d(64, 64, kernel_size=(3, 3), stride=(1, 1), padding=(1, 1))
              (1): LeakyReLU(negative_slope=0.2, inplace=True)
              (2): Conv2d(64, 64, kernel_size=(3, 3), stride=(1, 1), padding=(1, 1))
            )
            (body2): Sequential(
              (0): Conv2d(64, 64, kernel_size=(1, 1), stride=(1, 1))
              (1): LeakyReLU(negative_slope=0.2, inplace=True)
              (2): Conv2d(64, 64, kernel_size=(1, 1), stride=(1, 1))
            )
          )
          (4): DPCB(
            (body1): Sequential(
              (0): Conv2d(64, 64, kernel_size=(3, 3), stride=(1, 1), padding=(1, 1))
              (1): LeakyReLU(negative_slope=0.2, inplace=True)
              (2): Conv2d(64, 64, kernel_size=(3, 3), stride=(1, 1), padding=(1, 1))
            )
            (body2): Sequential(
              (0): Conv2d(64, 64, kernel_size=(1, 1), stride=(1, 1))
              (1): LeakyReLU(negative_slope=0.2, inplace=True)
              (2): Conv2d(64, 64, kernel_size=(1, 1), stride=(1, 1))
            )
          )
          (5): DPCB(
            (body1): Sequential(
              (0): Conv2d(64, 64, kernel_size=(3, 3), stride=(1, 1), padding=(1, 1))
              (1): LeakyReLU(negative_slope=0.2, inplace=True)
              (2): Conv2d(64, 64, kernel_size=(3, 3), stride=(1, 1), padding=(1, 1))
            )
            (body2): Sequential(
              (0): Conv2d(64, 64, kernel_size=(1, 1), stride=(1, 1))
              (1): LeakyReLU(negative_slope=0.2, inplace=True)
              (2): Conv2d(64, 64, kernel_size=(1, 1), stride=(1, 1))
            )
          )
          (6): DPCB(
            (body1): Sequential(
              (0): Conv2d(64, 64, kernel_size=(3, 3), stride=(1, 1), padding=(1, 1))
              (1): LeakyReLU(negative_slope=0.2, inplace=True)
              (2): Conv2d(64, 64, kernel_size=(3, 3), stride=(1, 1), padding=(1, 1))
            )
            (body2): Sequential(
              (0): Conv2d(64, 64, kernel_size=(1, 1), stride=(1, 1))
              (1): LeakyReLU(negative_slope=0.2, inplace=True)
              (2): Conv2d(64, 64, kernel_size=(1, 1), stride=(1, 1))
            )
          )
          (7): DPCB(
            (body1): Sequential(
              (0): Conv2d(64, 64, kernel_size=(3, 3), stride=(1, 1), padding=(1, 1))
              (1): LeakyReLU(negative_slope=0.2, inplace=True)
              (2): Conv2d(64, 64, kernel_size=(3, 3), stride=(1, 1), padding=(1, 1))
            )
            (body2): Sequential(
              (0): Conv2d(64, 64, kernel_size=(1, 1), stride=(1, 1))
              (1): LeakyReLU(negative_slope=0.2, inplace=True)
              (2): Conv2d(64, 64, kernel_size=(1, 1), stride=(1, 1))
            )
          )
          (8): DPCB(
            (body1): Sequential(
              (0): Conv2d(64, 64, kernel_size=(3, 3), stride=(1, 1), padding=(1, 1))
              (1): LeakyReLU(negative_slope=0.2, inplace=True)
              (2): Conv2d(64, 64, kernel_size=(3, 3), stride=(1, 1), padding=(1, 1))
            )
            (body2): Sequential(
              (0): Conv2d(64, 64, kernel_size=(1, 1), stride=(1, 1))
              (1): LeakyReLU(negative_slope=0.2, inplace=True)
              (2): Conv2d(64, 64, kernel_size=(1, 1), stride=(1, 1))
            )
          )
          (9): DPCB(
            (body1): Sequential(
              (0): Conv2d(64, 64, kernel_size=(3, 3), stride=(1, 1), padding=(1, 1))
              (1): LeakyReLU(negative_slope=0.2, inplace=True)
              (2): Conv2d(64, 64, kernel_size=(3, 3), stride=(1, 1), padding=(1, 1))
            )
            (body2): Sequential(
              (0): Conv2d(64, 64, kernel_size=(1, 1), stride=(1, 1))
              (1): LeakyReLU(negative_slope=0.2, inplace=True)
              (2): Conv2d(64, 64, kernel_size=(1, 1), stride=(1, 1))
            )
          )
        )
      )
    )
    (fusion): Conv2d(64, 64, kernel_size=(3, 3), stride=(1, 1), padding=(1, 1))
    (upscale): Sequential(
      (0): Conv2d(64, 256, kernel_size=(3, 3), stride=(1, 1), padding=(1, 1))
      (1): PixelShuffle(upscale_factor=2)
      (2): Conv2d(64, 3, kernel_size=(3, 3), stride=(1, 1), padding=(1, 1))
    )
  )
  (Estimator): Estimator(
    (head_LR): Sequential(
      (0): Conv2d(3, 32, kernel_size=(5, 5), stride=(1, 1), padding=(2, 2))
    )
    (head_HR): Sequential(
      (0): Conv2d(3, 32, kernel_size=(9, 9), stride=(2, 2), padding=(4, 4))
    )
    (body): DPCG(
      (body): Sequential(
        (0): DPCB(
          (body1): Sequential(
            (0): Conv2d(32, 32, kernel_size=(3, 3), stride=(1, 1), padding=(1, 1))
            (1): LeakyReLU(negative_slope=0.2, inplace=True)
            (2): Conv2d(32, 32, kernel_size=(3, 3), stride=(1, 1), padding=(1, 1))
          )
          (body2): Sequential(
            (0): Conv2d(32, 32, kernel_size=(3, 3), stride=(1, 1), padding=(1, 1))
            (1): LeakyReLU(negative_slope=0.2, inplace=True)
            (2): Conv2d(32, 32, kernel_size=(3, 3), stride=(1, 1), padding=(1, 1))
          )
        )
        (1): DPCB(
          (body1): Sequential(
            (0): Conv2d(32, 32, kernel_size=(3, 3), stride=(1, 1), padding=(1, 1))
            (1): LeakyReLU(negative_slope=0.2, inplace=True)
            (2): Conv2d(32, 32, kernel_size=(3, 3), stride=(1, 1), padding=(1, 1))
          )
          (body2): Sequential(
            (0): Conv2d(32, 32, kernel_size=(3, 3), stride=(1, 1), padding=(1, 1))
            (1): LeakyReLU(negative_slope=0.2, inplace=True)
            (2): Conv2d(32, 32, kernel_size=(3, 3), stride=(1, 1), padding=(1, 1))
          )
        )
        (2): DPCB(
          (body1): Sequential(
            (0): Conv2d(32, 32, kernel_size=(3, 3), stride=(1, 1), padding=(1, 1))
            (1): LeakyReLU(negative_slope=0.2, inplace=True)
            (2): Conv2d(32, 32, kernel_size=(3, 3), stride=(1, 1), padding=(1, 1))
          )
          (body2): Sequential(
            (0): Conv2d(32, 32, kernel_size=(3, 3), stride=(1, 1), padding=(1, 1))
            (1): LeakyReLU(negative_slope=0.2, inplace=True)
            (2): Conv2d(32, 32, kernel_size=(3, 3), stride=(1, 1), padding=(1, 1))
          )
        )
        (3): DPCB(
          (body1): Sequential(
            (0): Conv2d(32, 32, kernel_size=(3, 3), stride=(1, 1), padding=(1, 1))
            (1): LeakyReLU(negative_slope=0.2, inplace=True)
            (2): Conv2d(32, 32, kernel_size=(3, 3), stride=(1, 1), padding=(1, 1))
          )
          (body2): Sequential(
            (0): Conv2d(32, 32, kernel_size=(3, 3), stride=(1, 1), padding=(1, 1))
            (1): LeakyReLU(negative_slope=0.2, inplace=True)
            (2): Conv2d(32, 32, kernel_size=(3, 3), stride=(1, 1), padding=(1, 1))
          )
        )
        (4): DPCB(
          (body1): Sequential(
            (0): Conv2d(32, 32, kernel_size=(3, 3), stride=(1, 1), padding=(1, 1))
            (1): LeakyReLU(negative_slope=0.2, inplace=True)
            (2): Conv2d(32, 32, kernel_size=(3, 3), stride=(1, 1), padding=(1, 1))
          )
          (body2): Sequential(
            (0): Conv2d(32, 32, kernel_size=(3, 3), stride=(1, 1), padding=(1, 1))
            (1): LeakyReLU(negative_slope=0.2, inplace=True)
            (2): Conv2d(32, 32, kernel_size=(3, 3), stride=(1, 1), padding=(1, 1))
          )
        )
      )
    )
    (tail): Sequential(
      (0): Conv2d(32, 64, kernel_size=(3, 3), stride=(1, 1), padding=(1, 1))
      (1): AdaptiveAvgPool2d(output_size=1)
      (2): Conv2d(64, 441, kernel_size=(1, 1), stride=(1, 1))
      (3): Softmax(dim=1)
    )
  )
)
21-07-21 17:56:51.756 - INFO: Path already exists. Rename it to [/content/DAN/experiments/DANv2/DANx2_setting1_archived_210721-175651]
21-07-21 17:56:51.813 - INFO: Dataset [GTDataset - DIV2K] is created.
21-07-21 17:56:51.816 - INFO: Dataset [LQGTDataset - DIV2KRK] is created.
21-07-21 17:56:51.941 - INFO: Network G structure: DataParallel - DAN, with parameters: 4,540,028
21-07-21 17:56:51.944 - INFO: DAN(
  (Restorer): Restorer(
    (head1): Conv2d(3, 64, kernel_size=(3, 3), stride=(1, 1), padding=(1, 1))
    (head2): Conv2d(10, 64, kernel_size=(1, 1), stride=(1, 1))
    (body): Sequential(
      (0): DPCG(
        (body): Sequential(
          (0): DPCB(
            (body1): Sequential(
              (0): Conv2d(64, 64, kernel_size=(3, 3), stride=(1, 1), padding=(1, 1))
              (1): LeakyReLU(negative_slope=0.2, inplace=True)
              (2): Conv2d(64, 64, kernel_size=(3, 3), stride=(1, 1), padding=(1, 1))
            )
            (body2): Sequential(
              (0): Conv2d(64, 64, kernel_size=(1, 1), stride=(1, 1))
              (1): LeakyReLU(negative_slope=0.2, inplace=True)
              (2): Conv2d(64, 64, kernel_size=(1, 1), stride=(1, 1))
            )
          )
          (1): DPCB(
            (body1): Sequential(
              (0): Conv2d(64, 64, kernel_size=(3, 3), stride=(1, 1), padding=(1, 1))
              (1): LeakyReLU(negative_slope=0.2, inplace=True)
              (2): Conv2d(64, 64, kernel_size=(3, 3), stride=(1, 1), padding=(1, 1))
            )
            (body2): Sequential(
              (0): Conv2d(64, 64, kernel_size=(1, 1), stride=(1, 1))
              (1): LeakyReLU(negative_slope=0.2, inplace=True)
              (2): Conv2d(64, 64, kernel_size=(1, 1), stride=(1, 1))
            )
          )
          (2): DPCB(
            (body1): Sequential(
              (0): Conv2d(64, 64, kernel_size=(3, 3), stride=(1, 1), padding=(1, 1))
              (1): LeakyReLU(negative_slope=0.2, inplace=True)
              (2): Conv2d(64, 64, kernel_size=(3, 3), stride=(1, 1), padding=(1, 1))
            )
            (body2): Sequential(
              (0): Conv2d(64, 64, kernel_size=(1, 1), stride=(1, 1))
              (1): LeakyReLU(negative_slope=0.2, inplace=True)
              (2): Conv2d(64, 64, kernel_size=(1, 1), stride=(1, 1))
            )
          )
          (3): DPCB(
            (body1): Sequential(
              (0): Conv2d(64, 64, kernel_size=(3, 3), stride=(1, 1), padding=(1, 1))
              (1): LeakyReLU(negative_slope=0.2, inplace=True)
              (2): Conv2d(64, 64, kernel_size=(3, 3), stride=(1, 1), padding=(1, 1))
            )
            (body2): Sequential(
              (0): Conv2d(64, 64, kernel_size=(1, 1), stride=(1, 1))
              (1): LeakyReLU(negative_slope=0.2, inplace=True)
              (2): Conv2d(64, 64, kernel_size=(1, 1), stride=(1, 1))
            )
          )
          (4): DPCB(
            (body1): Sequential(
              (0): Conv2d(64, 64, kernel_size=(3, 3), stride=(1, 1), padding=(1, 1))
              (1): LeakyReLU(negative_slope=0.2, inplace=True)
              (2): Conv2d(64, 64, kernel_size=(3, 3), stride=(1, 1), padding=(1, 1))
            )
            (body2): Sequential(
              (0): Conv2d(64, 64, kernel_size=(1, 1), stride=(1, 1))
              (1): LeakyReLU(negative_slope=0.2, inplace=True)
              (2): Conv2d(64, 64, kernel_size=(1, 1), stride=(1, 1))
            )
          )
          (5): DPCB(
            (body1): Sequential(
              (0): Conv2d(64, 64, kernel_size=(3, 3), stride=(1, 1), padding=(1, 1))
              (1): LeakyReLU(negative_slope=0.2, inplace=True)
              (2): Conv2d(64, 64, kernel_size=(3, 3), stride=(1, 1), padding=(1, 1))
            )
            (body2): Sequential(
              (0): Conv2d(64, 64, kernel_size=(1, 1), stride=(1, 1))
              (1): LeakyReLU(negative_slope=0.2, inplace=True)
              (2): Conv2d(64, 64, kernel_size=(1, 1), stride=(1, 1))
            )
          )
          (6): DPCB(
            (body1): Sequential(
              (0): Conv2d(64, 64, kernel_size=(3, 3), stride=(1, 1), padding=(1, 1))
              (1): LeakyReLU(negative_slope=0.2, inplace=True)
              (2): Conv2d(64, 64, kernel_size=(3, 3), stride=(1, 1), padding=(1, 1))
            )
            (body2): Sequential(
              (0): Conv2d(64, 64, kernel_size=(1, 1), stride=(1, 1))
              (1): LeakyReLU(negative_slope=0.2, inplace=True)
              (2): Conv2d(64, 64, kernel_size=(1, 1), stride=(1, 1))
            )
          )
          (7): DPCB(
            (body1): Sequential(
              (0): Conv2d(64, 64, kernel_size=(3, 3), stride=(1, 1), padding=(1, 1))
              (1): LeakyReLU(negative_slope=0.2, inplace=True)
              (2): Conv2d(64, 64, kernel_size=(3, 3), stride=(1, 1), padding=(1, 1))
            )
            (body2): Sequential(
              (0): Conv2d(64, 64, kernel_size=(1, 1), stride=(1, 1))
              (1): LeakyReLU(negative_slope=0.2, inplace=True)
              (2): Conv2d(64, 64, kernel_size=(1, 1), stride=(1, 1))
            )
          )
          (8): DPCB(
            (body1): Sequential(
              (0): Conv2d(64, 64, kernel_size=(3, 3), stride=(1, 1), padding=(1, 1))
              (1): LeakyReLU(negative_slope=0.2, inplace=True)
              (2): Conv2d(64, 64, kernel_size=(3, 3), stride=(1, 1), padding=(1, 1))
            )
            (body2): Sequential(
              (0): Conv2d(64, 64, kernel_size=(1, 1), stride=(1, 1))
              (1): LeakyReLU(negative_slope=0.2, inplace=True)
              (2): Conv2d(64, 64, kernel_size=(1, 1), stride=(1, 1))
            )
          )
          (9): DPCB(
            (body1): Sequential(
              (0): Conv2d(64, 64, kernel_size=(3, 3), stride=(1, 1), padding=(1, 1))
              (1): LeakyReLU(negative_slope=0.2, inplace=True)
              (2): Conv2d(64, 64, kernel_size=(3, 3), stride=(1, 1), padding=(1, 1))
            )
            (body2): Sequential(
              (0): Conv2d(64, 64, kernel_size=(1, 1), stride=(1, 1))
              (1): LeakyReLU(negative_slope=0.2, inplace=True)
              (2): Conv2d(64, 64, kernel_size=(1, 1), stride=(1, 1))
            )
          )
        )
      )
      (1): DPCG(
        (body): Sequential(
          (0): DPCB(
            (body1): Sequential(
              (0): Conv2d(64, 64, kernel_size=(3, 3), stride=(1, 1), padding=(1, 1))
              (1): LeakyReLU(negative_slope=0.2, inplace=True)
              (2): Conv2d(64, 64, kernel_size=(3, 3), stride=(1, 1), padding=(1, 1))
            )
            (body2): Sequential(
              (0): Conv2d(64, 64, kernel_size=(1, 1), stride=(1, 1))
              (1): LeakyReLU(negative_slope=0.2, inplace=True)
              (2): Conv2d(64, 64, kernel_size=(1, 1), stride=(1, 1))
            )
          )
          (1): DPCB(
            (body1): Sequential(
              (0): Conv2d(64, 64, kernel_size=(3, 3), stride=(1, 1), padding=(1, 1))
              (1): LeakyReLU(negative_slope=0.2, inplace=True)
              (2): Conv2d(64, 64, kernel_size=(3, 3), stride=(1, 1), padding=(1, 1))
            )
            (body2): Sequential(
              (0): Conv2d(64, 64, kernel_size=(1, 1), stride=(1, 1))
              (1): LeakyReLU(negative_slope=0.2, inplace=True)
              (2): Conv2d(64, 64, kernel_size=(1, 1), stride=(1, 1))
            )
          )
          (2): DPCB(
            (body1): Sequential(
              (0): Conv2d(64, 64, kernel_size=(3, 3), stride=(1, 1), padding=(1, 1))
              (1): LeakyReLU(negative_slope=0.2, inplace=True)
              (2): Conv2d(64, 64, kernel_size=(3, 3), stride=(1, 1), padding=(1, 1))
            )
            (body2): Sequential(
              (0): Conv2d(64, 64, kernel_size=(1, 1), stride=(1, 1))
              (1): LeakyReLU(negative_slope=0.2, inplace=True)
              (2): Conv2d(64, 64, kernel_size=(1, 1), stride=(1, 1))
            )
          )
          (3): DPCB(
            (body1): Sequential(
              (0): Conv2d(64, 64, kernel_size=(3, 3), stride=(1, 1), padding=(1, 1))
              (1): LeakyReLU(negative_slope=0.2, inplace=True)
              (2): Conv2d(64, 64, kernel_size=(3, 3), stride=(1, 1), padding=(1, 1))
            )
            (body2): Sequential(
              (0): Conv2d(64, 64, kernel_size=(1, 1), stride=(1, 1))
              (1): LeakyReLU(negative_slope=0.2, inplace=True)
              (2): Conv2d(64, 64, kernel_size=(1, 1), stride=(1, 1))
            )
          )
          (4): DPCB(
            (body1): Sequential(
              (0): Conv2d(64, 64, kernel_size=(3, 3), stride=(1, 1), padding=(1, 1))
              (1): LeakyReLU(negative_slope=0.2, inplace=True)
              (2): Conv2d(64, 64, kernel_size=(3, 3), stride=(1, 1), padding=(1, 1))
            )
            (body2): Sequential(
              (0): Conv2d(64, 64, kernel_size=(1, 1), stride=(1, 1))
              (1): LeakyReLU(negative_slope=0.2, inplace=True)
              (2): Conv2d(64, 64, kernel_size=(1, 1), stride=(1, 1))
            )
          )
          (5): DPCB(
            (body1): Sequential(
              (0): Conv2d(64, 64, kernel_size=(3, 3), stride=(1, 1), padding=(1, 1))
              (1): LeakyReLU(negative_slope=0.2, inplace=True)
              (2): Conv2d(64, 64, kernel_size=(3, 3), stride=(1, 1), padding=(1, 1))
            )
            (body2): Sequential(
              (0): Conv2d(64, 64, kernel_size=(1, 1), stride=(1, 1))
              (1): LeakyReLU(negative_slope=0.2, inplace=True)
              (2): Conv2d(64, 64, kernel_size=(1, 1), stride=(1, 1))
            )
          )
          (6): DPCB(
            (body1): Sequential(
              (0): Conv2d(64, 64, kernel_size=(3, 3), stride=(1, 1), padding=(1, 1))
              (1): LeakyReLU(negative_slope=0.2, inplace=True)
              (2): Conv2d(64, 64, kernel_size=(3, 3), stride=(1, 1), padding=(1, 1))
            )
            (body2): Sequential(
              (0): Conv2d(64, 64, kernel_size=(1, 1), stride=(1, 1))
              (1): LeakyReLU(negative_slope=0.2, inplace=True)
              (2): Conv2d(64, 64, kernel_size=(1, 1), stride=(1, 1))
            )
          )
          (7): DPCB(
            (body1): Sequential(
              (0): Conv2d(64, 64, kernel_size=(3, 3), stride=(1, 1), padding=(1, 1))
              (1): LeakyReLU(negative_slope=0.2, inplace=True)
              (2): Conv2d(64, 64, kernel_size=(3, 3), stride=(1, 1), padding=(1, 1))
            )
            (body2): Sequential(
              (0): Conv2d(64, 64, kernel_size=(1, 1), stride=(1, 1))
              (1): LeakyReLU(negative_slope=0.2, inplace=True)
              (2): Conv2d(64, 64, kernel_size=(1, 1), stride=(1, 1))
            )
          )
          (8): DPCB(
            (body1): Sequential(
              (0): Conv2d(64, 64, kernel_size=(3, 3), stride=(1, 1), padding=(1, 1))
              (1): LeakyReLU(negative_slope=0.2, inplace=True)
              (2): Conv2d(64, 64, kernel_size=(3, 3), stride=(1, 1), padding=(1, 1))
            )
            (body2): Sequential(
              (0): Conv2d(64, 64, kernel_size=(1, 1), stride=(1, 1))
              (1): LeakyReLU(negative_slope=0.2, inplace=True)
              (2): Conv2d(64, 64, kernel_size=(1, 1), stride=(1, 1))
            )
          )
          (9): DPCB(
            (body1): Sequential(
              (0): Conv2d(64, 64, kernel_size=(3, 3), stride=(1, 1), padding=(1, 1))
              (1): LeakyReLU(negative_slope=0.2, inplace=True)
              (2): Conv2d(64, 64, kernel_size=(3, 3), stride=(1, 1), padding=(1, 1))
            )
            (body2): Sequential(
              (0): Conv2d(64, 64, kernel_size=(1, 1), stride=(1, 1))
              (1): LeakyReLU(negative_slope=0.2, inplace=True)
              (2): Conv2d(64, 64, kernel_size=(1, 1), stride=(1, 1))
            )
          )
        )
      )
      (2): DPCG(
        (body): Sequential(
          (0): DPCB(
            (body1): Sequential(
              (0): Conv2d(64, 64, kernel_size=(3, 3), stride=(1, 1), padding=(1, 1))
              (1): LeakyReLU(negative_slope=0.2, inplace=True)
              (2): Conv2d(64, 64, kernel_size=(3, 3), stride=(1, 1), padding=(1, 1))
            )
            (body2): Sequential(
              (0): Conv2d(64, 64, kernel_size=(1, 1), stride=(1, 1))
              (1): LeakyReLU(negative_slope=0.2, inplace=True)
              (2): Conv2d(64, 64, kernel_size=(1, 1), stride=(1, 1))
            )
          )
          (1): DPCB(
            (body1): Sequential(
              (0): Conv2d(64, 64, kernel_size=(3, 3), stride=(1, 1), padding=(1, 1))
              (1): LeakyReLU(negative_slope=0.2, inplace=True)
              (2): Conv2d(64, 64, kernel_size=(3, 3), stride=(1, 1), padding=(1, 1))
            )
            (body2): Sequential(
              (0): Conv2d(64, 64, kernel_size=(1, 1), stride=(1, 1))
              (1): LeakyReLU(negative_slope=0.2, inplace=True)
              (2): Conv2d(64, 64, kernel_size=(1, 1), stride=(1, 1))
            )
          )
          (2): DPCB(
            (body1): Sequential(
              (0): Conv2d(64, 64, kernel_size=(3, 3), stride=(1, 1), padding=(1, 1))
              (1): LeakyReLU(negative_slope=0.2, inplace=True)
              (2): Conv2d(64, 64, kernel_size=(3, 3), stride=(1, 1), padding=(1, 1))
            )
            (body2): Sequential(
              (0): Conv2d(64, 64, kernel_size=(1, 1), stride=(1, 1))
              (1): LeakyReLU(negative_slope=0.2, inplace=True)
              (2): Conv2d(64, 64, kernel_size=(1, 1), stride=(1, 1))
            )
          )
          (3): DPCB(
            (body1): Sequential(
              (0): Conv2d(64, 64, kernel_size=(3, 3), stride=(1, 1), padding=(1, 1))
              (1): LeakyReLU(negative_slope=0.2, inplace=True)
              (2): Conv2d(64, 64, kernel_size=(3, 3), stride=(1, 1), padding=(1, 1))
            )
            (body2): Sequential(
              (0): Conv2d(64, 64, kernel_size=(1, 1), stride=(1, 1))
              (1): LeakyReLU(negative_slope=0.2, inplace=True)
              (2): Conv2d(64, 64, kernel_size=(1, 1), stride=(1, 1))
            )
          )
          (4): DPCB(
            (body1): Sequential(
              (0): Conv2d(64, 64, kernel_size=(3, 3), stride=(1, 1), padding=(1, 1))
              (1): LeakyReLU(negative_slope=0.2, inplace=True)
              (2): Conv2d(64, 64, kernel_size=(3, 3), stride=(1, 1), padding=(1, 1))
            )
            (body2): Sequential(
              (0): Conv2d(64, 64, kernel_size=(1, 1), stride=(1, 1))
              (1): LeakyReLU(negative_slope=0.2, inplace=True)
              (2): Conv2d(64, 64, kernel_size=(1, 1), stride=(1, 1))
            )
          )
          (5): DPCB(
            (body1): Sequential(
              (0): Conv2d(64, 64, kernel_size=(3, 3), stride=(1, 1), padding=(1, 1))
              (1): LeakyReLU(negative_slope=0.2, inplace=True)
              (2): Conv2d(64, 64, kernel_size=(3, 3), stride=(1, 1), padding=(1, 1))
            )
            (body2): Sequential(
              (0): Conv2d(64, 64, kernel_size=(1, 1), stride=(1, 1))
              (1): LeakyReLU(negative_slope=0.2, inplace=True)
              (2): Conv2d(64, 64, kernel_size=(1, 1), stride=(1, 1))
            )
          )
          (6): DPCB(
            (body1): Sequential(
              (0): Conv2d(64, 64, kernel_size=(3, 3), stride=(1, 1), padding=(1, 1))
              (1): LeakyReLU(negative_slope=0.2, inplace=True)
              (2): Conv2d(64, 64, kernel_size=(3, 3), stride=(1, 1), padding=(1, 1))
            )
            (body2): Sequential(
              (0): Conv2d(64, 64, kernel_size=(1, 1), stride=(1, 1))
              (1): LeakyReLU(negative_slope=0.2, inplace=True)
              (2): Conv2d(64, 64, kernel_size=(1, 1), stride=(1, 1))
            )
          )
          (7): DPCB(
            (body1): Sequential(
              (0): Conv2d(64, 64, kernel_size=(3, 3), stride=(1, 1), padding=(1, 1))
              (1): LeakyReLU(negative_slope=0.2, inplace=True)
              (2): Conv2d(64, 64, kernel_size=(3, 3), stride=(1, 1), padding=(1, 1))
            )
            (body2): Sequential(
              (0): Conv2d(64, 64, kernel_size=(1, 1), stride=(1, 1))
              (1): LeakyReLU(negative_slope=0.2, inplace=True)
              (2): Conv2d(64, 64, kernel_size=(1, 1), stride=(1, 1))
            )
          )
          (8): DPCB(
            (body1): Sequential(
              (0): Conv2d(64, 64, kernel_size=(3, 3), stride=(1, 1), padding=(1, 1))
              (1): LeakyReLU(negative_slope=0.2, inplace=True)
              (2): Conv2d(64, 64, kernel_size=(3, 3), stride=(1, 1), padding=(1, 1))
            )
            (body2): Sequential(
              (0): Conv2d(64, 64, kernel_size=(1, 1), stride=(1, 1))
              (1): LeakyReLU(negative_slope=0.2, inplace=True)
              (2): Conv2d(64, 64, kernel_size=(1, 1), stride=(1, 1))
            )
          )
          (9): DPCB(
            (body1): Sequential(
              (0): Conv2d(64, 64, kernel_size=(3, 3), stride=(1, 1), padding=(1, 1))
              (1): LeakyReLU(negative_slope=0.2, inplace=True)
              (2): Conv2d(64, 64, kernel_size=(3, 3), stride=(1, 1), padding=(1, 1))
            )
            (body2): Sequential(
              (0): Conv2d(64, 64, kernel_size=(1, 1), stride=(1, 1))
              (1): LeakyReLU(negative_slope=0.2, inplace=True)
              (2): Conv2d(64, 64, kernel_size=(1, 1), stride=(1, 1))
            )
          )
        )
      )
      (3): DPCG(
        (body): Sequential(
          (0): DPCB(
            (body1): Sequential(
              (0): Conv2d(64, 64, kernel_size=(3, 3), stride=(1, 1), padding=(1, 1))
              (1): LeakyReLU(negative_slope=0.2, inplace=True)
              (2): Conv2d(64, 64, kernel_size=(3, 3), stride=(1, 1), padding=(1, 1))
            )
            (body2): Sequential(
              (0): Conv2d(64, 64, kernel_size=(1, 1), stride=(1, 1))
              (1): LeakyReLU(negative_slope=0.2, inplace=True)
              (2): Conv2d(64, 64, kernel_size=(1, 1), stride=(1, 1))
            )
          )
          (1): DPCB(
            (body1): Sequential(
              (0): Conv2d(64, 64, kernel_size=(3, 3), stride=(1, 1), padding=(1, 1))
              (1): LeakyReLU(negative_slope=0.2, inplace=True)
              (2): Conv2d(64, 64, kernel_size=(3, 3), stride=(1, 1), padding=(1, 1))
            )
            (body2): Sequential(
              (0): Conv2d(64, 64, kernel_size=(1, 1), stride=(1, 1))
              (1): LeakyReLU(negative_slope=0.2, inplace=True)
              (2): Conv2d(64, 64, kernel_size=(1, 1), stride=(1, 1))
            )
          )
          (2): DPCB(
            (body1): Sequential(
              (0): Conv2d(64, 64, kernel_size=(3, 3), stride=(1, 1), padding=(1, 1))
              (1): LeakyReLU(negative_slope=0.2, inplace=True)
              (2): Conv2d(64, 64, kernel_size=(3, 3), stride=(1, 1), padding=(1, 1))
            )
            (body2): Sequential(
              (0): Conv2d(64, 64, kernel_size=(1, 1), stride=(1, 1))
              (1): LeakyReLU(negative_slope=0.2, inplace=True)
              (2): Conv2d(64, 64, kernel_size=(1, 1), stride=(1, 1))
            )
          )
          (3): DPCB(
            (body1): Sequential(
              (0): Conv2d(64, 64, kernel_size=(3, 3), stride=(1, 1), padding=(1, 1))
              (1): LeakyReLU(negative_slope=0.2, inplace=True)
              (2): Conv2d(64, 64, kernel_size=(3, 3), stride=(1, 1), padding=(1, 1))
            )
            (body2): Sequential(
              (0): Conv2d(64, 64, kernel_size=(1, 1), stride=(1, 1))
              (1): LeakyReLU(negative_slope=0.2, inplace=True)
              (2): Conv2d(64, 64, kernel_size=(1, 1), stride=(1, 1))
            )
          )
          (4): DPCB(
            (body1): Sequential(
              (0): Conv2d(64, 64, kernel_size=(3, 3), stride=(1, 1), padding=(1, 1))
              (1): LeakyReLU(negative_slope=0.2, inplace=True)
              (2): Conv2d(64, 64, kernel_size=(3, 3), stride=(1, 1), padding=(1, 1))
            )
            (body2): Sequential(
              (0): Conv2d(64, 64, kernel_size=(1, 1), stride=(1, 1))
              (1): LeakyReLU(negative_slope=0.2, inplace=True)
              (2): Conv2d(64, 64, kernel_size=(1, 1), stride=(1, 1))
            )
          )
          (5): DPCB(
            (body1): Sequential(
              (0): Conv2d(64, 64, kernel_size=(3, 3), stride=(1, 1), padding=(1, 1))
              (1): LeakyReLU(negative_slope=0.2, inplace=True)
              (2): Conv2d(64, 64, kernel_size=(3, 3), stride=(1, 1), padding=(1, 1))
            )
            (body2): Sequential(
              (0): Conv2d(64, 64, kernel_size=(1, 1), stride=(1, 1))
              (1): LeakyReLU(negative_slope=0.2, inplace=True)
              (2): Conv2d(64, 64, kernel_size=(1, 1), stride=(1, 1))
            )
          )
          (6): DPCB(
            (body1): Sequential(
              (0): Conv2d(64, 64, kernel_size=(3, 3), stride=(1, 1), padding=(1, 1))
              (1): LeakyReLU(negative_slope=0.2, inplace=True)
              (2): Conv2d(64, 64, kernel_size=(3, 3), stride=(1, 1), padding=(1, 1))
            )
            (body2): Sequential(
              (0): Conv2d(64, 64, kernel_size=(1, 1), stride=(1, 1))
              (1): LeakyReLU(negative_slope=0.2, inplace=True)
              (2): Conv2d(64, 64, kernel_size=(1, 1), stride=(1, 1))
            )
          )
          (7): DPCB(
            (body1): Sequential(
              (0): Conv2d(64, 64, kernel_size=(3, 3), stride=(1, 1), padding=(1, 1))
              (1): LeakyReLU(negative_slope=0.2, inplace=True)
              (2): Conv2d(64, 64, kernel_size=(3, 3), stride=(1, 1), padding=(1, 1))
            )
            (body2): Sequential(
              (0): Conv2d(64, 64, kernel_size=(1, 1), stride=(1, 1))
              (1): LeakyReLU(negative_slope=0.2, inplace=True)
              (2): Conv2d(64, 64, kernel_size=(1, 1), stride=(1, 1))
            )
          )
          (8): DPCB(
            (body1): Sequential(
              (0): Conv2d(64, 64, kernel_size=(3, 3), stride=(1, 1), padding=(1, 1))
              (1): LeakyReLU(negative_slope=0.2, inplace=True)
              (2): Conv2d(64, 64, kernel_size=(3, 3), stride=(1, 1), padding=(1, 1))
            )
            (body2): Sequential(
              (0): Conv2d(64, 64, kernel_size=(1, 1), stride=(1, 1))
              (1): LeakyReLU(negative_slope=0.2, inplace=True)
              (2): Conv2d(64, 64, kernel_size=(1, 1), stride=(1, 1))
            )
          )
          (9): DPCB(
            (body1): Sequential(
              (0): Conv2d(64, 64, kernel_size=(3, 3), stride=(1, 1), padding=(1, 1))
              (1): LeakyReLU(negative_slope=0.2, inplace=True)
              (2): Conv2d(64, 64, kernel_size=(3, 3), stride=(1, 1), padding=(1, 1))
            )
            (body2): Sequential(
              (0): Conv2d(64, 64, kernel_size=(1, 1), stride=(1, 1))
              (1): LeakyReLU(negative_slope=0.2, inplace=True)
              (2): Conv2d(64, 64, kernel_size=(1, 1), stride=(1, 1))
            )
          )
        )
      )
      (4): DPCG(
        (body): Sequential(
          (0): DPCB(
            (body1): Sequential(
              (0): Conv2d(64, 64, kernel_size=(3, 3), stride=(1, 1), padding=(1, 1))
              (1): LeakyReLU(negative_slope=0.2, inplace=True)
              (2): Conv2d(64, 64, kernel_size=(3, 3), stride=(1, 1), padding=(1, 1))
            )
            (body2): Sequential(
              (0): Conv2d(64, 64, kernel_size=(1, 1), stride=(1, 1))
              (1): LeakyReLU(negative_slope=0.2, inplace=True)
              (2): Conv2d(64, 64, kernel_size=(1, 1), stride=(1, 1))
            )
          )
          (1): DPCB(
            (body1): Sequential(
              (0): Conv2d(64, 64, kernel_size=(3, 3), stride=(1, 1), padding=(1, 1))
              (1): LeakyReLU(negative_slope=0.2, inplace=True)
              (2): Conv2d(64, 64, kernel_size=(3, 3), stride=(1, 1), padding=(1, 1))
            )
            (body2): Sequential(
              (0): Conv2d(64, 64, kernel_size=(1, 1), stride=(1, 1))
              (1): LeakyReLU(negative_slope=0.2, inplace=True)
              (2): Conv2d(64, 64, kernel_size=(1, 1), stride=(1, 1))
            )
          )
          (2): DPCB(
            (body1): Sequential(
              (0): Conv2d(64, 64, kernel_size=(3, 3), stride=(1, 1), padding=(1, 1))
              (1): LeakyReLU(negative_slope=0.2, inplace=True)
              (2): Conv2d(64, 64, kernel_size=(3, 3), stride=(1, 1), padding=(1, 1))
            )
            (body2): Sequential(
              (0): Conv2d(64, 64, kernel_size=(1, 1), stride=(1, 1))
              (1): LeakyReLU(negative_slope=0.2, inplace=True)
              (2): Conv2d(64, 64, kernel_size=(1, 1), stride=(1, 1))
            )
          )
          (3): DPCB(
            (body1): Sequential(
              (0): Conv2d(64, 64, kernel_size=(3, 3), stride=(1, 1), padding=(1, 1))
              (1): LeakyReLU(negative_slope=0.2, inplace=True)
              (2): Conv2d(64, 64, kernel_size=(3, 3), stride=(1, 1), padding=(1, 1))
            )
            (body2): Sequential(
              (0): Conv2d(64, 64, kernel_size=(1, 1), stride=(1, 1))
              (1): LeakyReLU(negative_slope=0.2, inplace=True)
              (2): Conv2d(64, 64, kernel_size=(1, 1), stride=(1, 1))
            )
          )
          (4): DPCB(
            (body1): Sequential(
              (0): Conv2d(64, 64, kernel_size=(3, 3), stride=(1, 1), padding=(1, 1))
              (1): LeakyReLU(negative_slope=0.2, inplace=True)
              (2): Conv2d(64, 64, kernel_size=(3, 3), stride=(1, 1), padding=(1, 1))
            )
            (body2): Sequential(
              (0): Conv2d(64, 64, kernel_size=(1, 1), stride=(1, 1))
              (1): LeakyReLU(negative_slope=0.2, inplace=True)
              (2): Conv2d(64, 64, kernel_size=(1, 1), stride=(1, 1))
            )
          )
          (5): DPCB(
            (body1): Sequential(
              (0): Conv2d(64, 64, kernel_size=(3, 3), stride=(1, 1), padding=(1, 1))
              (1): LeakyReLU(negative_slope=0.2, inplace=True)
              (2): Conv2d(64, 64, kernel_size=(3, 3), stride=(1, 1), padding=(1, 1))
            )
            (body2): Sequential(
              (0): Conv2d(64, 64, kernel_size=(1, 1), stride=(1, 1))
              (1): LeakyReLU(negative_slope=0.2, inplace=True)
              (2): Conv2d(64, 64, kernel_size=(1, 1), stride=(1, 1))
            )
          )
          (6): DPCB(
            (body1): Sequential(
              (0): Conv2d(64, 64, kernel_size=(3, 3), stride=(1, 1), padding=(1, 1))
              (1): LeakyReLU(negative_slope=0.2, inplace=True)
              (2): Conv2d(64, 64, kernel_size=(3, 3), stride=(1, 1), padding=(1, 1))
            )
            (body2): Sequential(
              (0): Conv2d(64, 64, kernel_size=(1, 1), stride=(1, 1))
              (1): LeakyReLU(negative_slope=0.2, inplace=True)
              (2): Conv2d(64, 64, kernel_size=(1, 1), stride=(1, 1))
            )
          )
          (7): DPCB(
            (body1): Sequential(
              (0): Conv2d(64, 64, kernel_size=(3, 3), stride=(1, 1), padding=(1, 1))
              (1): LeakyReLU(negative_slope=0.2, inplace=True)
              (2): Conv2d(64, 64, kernel_size=(3, 3), stride=(1, 1), padding=(1, 1))
            )
            (body2): Sequential(
              (0): Conv2d(64, 64, kernel_size=(1, 1), stride=(1, 1))
              (1): LeakyReLU(negative_slope=0.2, inplace=True)
              (2): Conv2d(64, 64, kernel_size=(1, 1), stride=(1, 1))
            )
          )
          (8): DPCB(
            (body1): Sequential(
              (0): Conv2d(64, 64, kernel_size=(3, 3), stride=(1, 1), padding=(1, 1))
              (1): LeakyReLU(negative_slope=0.2, inplace=True)
              (2): Conv2d(64, 64, kernel_size=(3, 3), stride=(1, 1), padding=(1, 1))
            )
            (body2): Sequential(
              (0): Conv2d(64, 64, kernel_size=(1, 1), stride=(1, 1))
              (1): LeakyReLU(negative_slope=0.2, inplace=True)
              (2): Conv2d(64, 64, kernel_size=(1, 1), stride=(1, 1))
            )
          )
          (9): DPCB(
            (body1): Sequential(
              (0): Conv2d(64, 64, kernel_size=(3, 3), stride=(1, 1), padding=(1, 1))
              (1): LeakyReLU(negative_slope=0.2, inplace=True)
              (2): Conv2d(64, 64, kernel_size=(3, 3), stride=(1, 1), padding=(1, 1))
            )
            (body2): Sequential(
              (0): Conv2d(64, 64, kernel_size=(1, 1), stride=(1, 1))
              (1): LeakyReLU(negative_slope=0.2, inplace=True)
              (2): Conv2d(64, 64, kernel_size=(1, 1), stride=(1, 1))
            )
          )
        )
      )
    )
    (fusion): Conv2d(64, 64, kernel_size=(3, 3), stride=(1, 1), padding=(1, 1))
    (upscale): Sequential(
      (0): Conv2d(64, 256, kernel_size=(3, 3), stride=(1, 1), padding=(1, 1))
      (1): PixelShuffle(upscale_factor=2)
      (2): Conv2d(64, 3, kernel_size=(3, 3), stride=(1, 1), padding=(1, 1))
    )
  )
  (Estimator): Estimator(
    (head_LR): Sequential(
      (0): Conv2d(3, 32, kernel_size=(5, 5), stride=(1, 1), padding=(2, 2))
    )
    (head_HR): Sequential(
      (0): Conv2d(3, 32, kernel_size=(9, 9), stride=(2, 2), padding=(4, 4))
    )
    (body): DPCG(
      (body): Sequential(
        (0): DPCB(
          (body1): Sequential(
            (0): Conv2d(32, 32, kernel_size=(3, 3), stride=(1, 1), padding=(1, 1))
            (1): LeakyReLU(negative_slope=0.2, inplace=True)
            (2): Conv2d(32, 32, kernel_size=(3, 3), stride=(1, 1), padding=(1, 1))
          )
          (body2): Sequential(
            (0): Conv2d(32, 32, kernel_size=(3, 3), stride=(1, 1), padding=(1, 1))
            (1): LeakyReLU(negative_slope=0.2, inplace=True)
            (2): Conv2d(32, 32, kernel_size=(3, 3), stride=(1, 1), padding=(1, 1))
          )
        )
        (1): DPCB(
          (body1): Sequential(
            (0): Conv2d(32, 32, kernel_size=(3, 3), stride=(1, 1), padding=(1, 1))
            (1): LeakyReLU(negative_slope=0.2, inplace=True)
            (2): Conv2d(32, 32, kernel_size=(3, 3), stride=(1, 1), padding=(1, 1))
          )
          (body2): Sequential(
            (0): Conv2d(32, 32, kernel_size=(3, 3), stride=(1, 1), padding=(1, 1))
            (1): LeakyReLU(negative_slope=0.2, inplace=True)
            (2): Conv2d(32, 32, kernel_size=(3, 3), stride=(1, 1), padding=(1, 1))
          )
        )
        (2): DPCB(
          (body1): Sequential(
            (0): Conv2d(32, 32, kernel_size=(3, 3), stride=(1, 1), padding=(1, 1))
            (1): LeakyReLU(negative_slope=0.2, inplace=True)
            (2): Conv2d(32, 32, kernel_size=(3, 3), stride=(1, 1), padding=(1, 1))
          )
          (body2): Sequential(
            (0): Conv2d(32, 32, kernel_size=(3, 3), stride=(1, 1), padding=(1, 1))
            (1): LeakyReLU(negative_slope=0.2, inplace=True)
            (2): Conv2d(32, 32, kernel_size=(3, 3), stride=(1, 1), padding=(1, 1))
          )
        )
        (3): DPCB(
          (body1): Sequential(
            (0): Conv2d(32, 32, kernel_size=(3, 3), stride=(1, 1), padding=(1, 1))
            (1): LeakyReLU(negative_slope=0.2, inplace=True)
            (2): Conv2d(32, 32, kernel_size=(3, 3), stride=(1, 1), padding=(1, 1))
          )
          (body2): Sequential(
            (0): Conv2d(32, 32, kernel_size=(3, 3), stride=(1, 1), padding=(1, 1))
            (1): LeakyReLU(negative_slope=0.2, inplace=True)
            (2): Conv2d(32, 32, kernel_size=(3, 3), stride=(1, 1), padding=(1, 1))
          )
        )
        (4): DPCB(
          (body1): Sequential(
            (0): Conv2d(32, 32, kernel_size=(3, 3), stride=(1, 1), padding=(1, 1))
            (1): LeakyReLU(negative_slope=0.2, inplace=True)
            (2): Conv2d(32, 32, kernel_size=(3, 3), stride=(1, 1), padding=(1, 1))
          )
          (body2): Sequential(
            (0): Conv2d(32, 32, kernel_size=(3, 3), stride=(1, 1), padding=(1, 1))
            (1): LeakyReLU(negative_slope=0.2, inplace=True)
            (2): Conv2d(32, 32, kernel_size=(3, 3), stride=(1, 1), padding=(1, 1))
          )
        )
      )
    )
    (tail): Sequential(
      (0): Conv2d(32, 64, kernel_size=(3, 3), stride=(1, 1), padding=(1, 1))
      (1): AdaptiveAvgPool2d(output_size=1)
      (2): Conv2d(64, 441, kernel_size=(1, 1), stride=(1, 1))
      (3): Softmax(dim=1)
    )
  )
)
