…
      pca_matrix_path: /content/DAN/pca_matrix/DANv1/pca_matrix.pth
      upscale: 2
    ]
  ]
  path:[
    pretrain_model_G: /content/DAN/experiments/DANv1/DANx2_setting1/models/latest_G.pth
    root: /content/DAN
    results_root: /content/DAN/results/DANv1/DANx2_setting1
    log: /content/DAN/results/DANv1/DANx2_setting1
  ]
  is_train: False

21-07-21 14:36:38.743 - INFO: Dataset [LQGTDataset - S] is created.
21-07-21 14:36:38.758 - INFO: Number of test images in [S]: 800
21-07-21 14:36:39.162 - INFO: Network G structure: DataParallel - DAN, with parameters: 4,181,799
21-07-21 14:36:39.179 - INFO: DAN(
  (Restorer): Restorer(
    (head): Conv2d(3, 64, kernel_size=(3, 3), stride=(1, 1), padding=(1, 1))
    (body): Sequential(
      (0): CRB_Layer(
        (body): Sequential(
          (0): Conv2d(74, 74, kernel_size=(3, 3), stride=(1, 1), padding=(1, 1))
          (1): LeakyReLU(negative_slope=0.2, inplace=True)
          (2): Conv2d(74, 64, kernel_size=(3, 3), stride=(1, 1), padding=(1, 1))
          (3): CALayer(
            (body): Sequential(
              (0): Conv2d(64, 4, kernel_size=(1, 1), stride=(1, 1))
              (1): LeakyReLU(negative_slope=0.2)
              (2): Conv2d(4, 64, kernel_size=(1, 1), stride=(1, 1))
              (3): Sigmoid()
            )
            (avg): AdaptiveAvgPool2d(output_size=1)
          )
        )
      )
      (1): CRB_Layer(
        (body): Sequential(
          (0): Conv2d(74, 74, kernel_size=(3, 3), stride=(1, 1), padding=(1, 1))
          (1): LeakyReLU(negative_slope=0.2, inplace=True)
          (2): Conv2d(74, 64, kernel_size=(3, 3), stride=(1, 1), padding=(1, 1))
          (3): CALayer(
            (body): Sequential(
              (0): Conv2d(64, 4, kernel_size=(1, 1), stride=(1, 1))
              (1): LeakyReLU(negative_slope=0.2)
              (2): Conv2d(4, 64, kernel_size=(1, 1), stride=(1, 1))
              (3): Sigmoid()
            )
            (avg): AdaptiveAvgPool2d(output_size=1)
          )
        )
      )
      (2): CRB_Layer(
        (body): Sequential(
          (0): Conv2d(74, 74, kernel_size=(3, 3), stride=(1, 1), padding=(1, 1))
          (1): LeakyReLU(negative_slope=0.2, inplace=True)
          (2): Conv2d(74, 64, kernel_size=(3, 3), stride=(1, 1), padding=(1, 1))
          (3): CALayer(
            (body): Sequential(
              (0): Conv2d(64, 4, kernel_size=(1, 1), stride=(1, 1))
              (1): LeakyReLU(negative_slope=0.2)
              (2): Conv2d(4, 64, kernel_size=(1, 1), stride=(1, 1))
              (3): Sigmoid()
            )
            (avg): AdaptiveAvgPool2d(output_size=1)
          )
        )
      )
      (3): CRB_Layer(
        (body): Sequential(
          (0): Conv2d(74, 74, kernel_size=(3, 3), stride=(1, 1), padding=(1, 1))
          (1): LeakyReLU(negative_slope=0.2, inplace=True)
          (2): Conv2d(74, 64, kernel_size=(3, 3), stride=(1, 1), padding=(1, 1))
          (3): CALayer(
            (body): Sequential(
              (0): Conv2d(64, 4, kernel_size=(1, 1), stride=(1, 1))
              (1): LeakyReLU(negative_slope=0.2)
              (2): Conv2d(4, 64, kernel_size=(1, 1), stride=(1, 1))
              (3): Sigmoid()
            )
            (avg): AdaptiveAvgPool2d(output_size=1)
          )
        )
      )
      (4): CRB_Layer(
        (body): Sequential(
          (0): Conv2d(74, 74, kernel_size=(3, 3), stride=(1, 1), padding=(1, 1))
          (1): LeakyReLU(negative_slope=0.2, inplace=True)
          (2): Conv2d(74, 64, kernel_size=(3, 3), stride=(1, 1), padding=(1, 1))
          (3): CALayer(
            (body): Sequential(
              (0): Conv2d(64, 4, kernel_size=(1, 1), stride=(1, 1))
              (1): LeakyReLU(negative_slope=0.2)
              (2): Conv2d(4, 64, kernel_size=(1, 1), stride=(1, 1))
              (3): Sigmoid()
            )
            (avg): AdaptiveAvgPool2d(output_size=1)
          )
        )
      )
      (5): CRB_Layer(
        (body): Sequential(
          (0): Conv2d(74, 74, kernel_size=(3, 3), stride=(1, 1), padding=(1, 1))
          (1): LeakyReLU(negative_slope=0.2, inplace=True)
          (2): Conv2d(74, 64, kernel_size=(3, 3), stride=(1, 1), padding=(1, 1))
          (3): CALayer(
            (body): Sequential(
              (0): Conv2d(64, 4, kernel_size=(1, 1), stride=(1, 1))
              (1): LeakyReLU(negative_slope=0.2)
              (2): Conv2d(4, 64, kernel_size=(1, 1), stride=(1, 1))
              (3): Sigmoid()
            )
            (avg): AdaptiveAvgPool2d(output_size=1)
          )
        )
      )
      (6): CRB_Layer(
        (body): Sequential(
          (0): Conv2d(74, 74, kernel_size=(3, 3), stride=(1, 1), padding=(1, 1))
          (1): LeakyReLU(negative_slope=0.2, inplace=True)
          (2): Conv2d(74, 64, kernel_size=(3, 3), stride=(1, 1), padding=(1, 1))
          (3): CALayer(
            (body): Sequential(
              (0): Conv2d(64, 4, kernel_size=(1, 1), stride=(1, 1))
              (1): LeakyReLU(negative_slope=0.2)
              (2): Conv2d(4, 64, kernel_size=(1, 1), stride=(1, 1))
              (3): Sigmoid()
            )
            (avg): AdaptiveAvgPool2d(output_size=1)
          )
        )
      )
      (7): CRB_Layer(
        (body): Sequential(
          (0): Conv2d(74, 74, kernel_size=(3, 3), stride=(1, 1), padding=(1, 1))
          (1): LeakyReLU(negative_slope=0.2, inplace=True)
          (2): Conv2d(74, 64, kernel_size=(3, 3), stride=(1, 1), padding=(1, 1))
          (3): CALayer(
            (body): Sequential(
              (0): Conv2d(64, 4, kernel_size=(1, 1), stride=(1, 1))
              (1): LeakyReLU(negative_slope=0.2)
              (2): Conv2d(4, 64, kernel_size=(1, 1), stride=(1, 1))
              (3): Sigmoid()
            )
            (avg): AdaptiveAvgPool2d(output_size=1)
          )
        )
      )
      (8): CRB_Layer(
        (body): Sequential(
          (0): Conv2d(74, 74, kernel_size=(3, 3), stride=(1, 1), padding=(1, 1))
          (1): LeakyReLU(negative_slope=0.2, inplace=True)
          (2): Conv2d(74, 64, kernel_size=(3, 3), stride=(1, 1), padding=(1, 1))
          (3): CALayer(
            (body): Sequential(
              (0): Conv2d(64, 4, kernel_size=(1, 1), stride=(1, 1))
              (1): LeakyReLU(negative_slope=0.2)
              (2): Conv2d(4, 64, kernel_size=(1, 1), stride=(1, 1))
              (3): Sigmoid()
            )
            (avg): AdaptiveAvgPool2d(output_size=1)
          )
        )
      )
      (9): CRB_Layer(
        (body): Sequential(
          (0): Conv2d(74, 74, kernel_size=(3, 3), stride=(1, 1), padding=(1, 1))
          (1): LeakyReLU(negative_slope=0.2, inplace=True)
          (2): Conv2d(74, 64, kernel_size=(3, 3), stride=(1, 1), padding=(1, 1))
          (3): CALayer(
            (body): Sequential(
              (0): Conv2d(64, 4, kernel_size=(1, 1), stride=(1, 1))
              (1): LeakyReLU(negative_slope=0.2)
              (2): Conv2d(4, 64, kernel_size=(1, 1), stride=(1, 1))
              (3): Sigmoid()
            )
            (avg): AdaptiveAvgPool2d(output_size=1)
          )
        )
      )
      (10): CRB_Layer(
        (body): Sequential(
          (0): Conv2d(74, 74, kernel_size=(3, 3), stride=(1, 1), padding=(1, 1))
          (1): LeakyReLU(negative_slope=0.2, inplace=True)
          (2): Conv2d(74, 64, kernel_size=(3, 3), stride=(1, 1), padding=(1, 1))
          (3): CALayer(
            (body): Sequential(
              (0): Conv2d(64, 4, kernel_size=(1, 1), stride=(1, 1))
              (1): LeakyReLU(negative_slope=0.2)
              (2): Conv2d(4, 64, kernel_size=(1, 1), stride=(1, 1))
              (3): Sigmoid()
            )
            (avg): AdaptiveAvgPool2d(output_size=1)
          )
        )
      )
      (11): CRB_Layer(
        (body): Sequential(
          (0): Conv2d(74, 74, kernel_size=(3, 3), stride=(1, 1), padding=(1, 1))
          (1): LeakyReLU(negative_slope=0.2, inplace=True)
          (2): Conv2d(74, 64, kernel_size=(3, 3), stride=(1, 1), padding=(1, 1))
          (3): CALayer(
            (body): Sequential(
              (0): Conv2d(64, 4, kernel_size=(1, 1), stride=(1, 1))
              (1): LeakyReLU(negative_slope=0.2)
              (2): Conv2d(4, 64, kernel_size=(1, 1), stride=(1, 1))
              (3): Sigmoid()
            )
            (avg): AdaptiveAvgPool2d(output_size=1)
          )
        )
      )
      (12): CRB_Layer(
        (body): Sequential(
          (0): Conv2d(74, 74, kernel_size=(3, 3), stride=(1, 1), padding=(1, 1))
          (1): LeakyReLU(negative_slope=0.2, inplace=True)
          (2): Conv2d(74, 64, kernel_size=(3, 3), stride=(1, 1), padding=(1, 1))
          (3): CALayer(
            (body): Sequential(
              (0): Conv2d(64, 4, kernel_size=(1, 1), stride=(1, 1))
              (1): LeakyReLU(negative_slope=0.2)
              (2): Conv2d(4, 64, kernel_size=(1, 1), stride=(1, 1))
              (3): Sigmoid()
            )
            (avg): AdaptiveAvgPool2d(output_size=1)
          )
        )
      )
      (13): CRB_Layer(
        (body): Sequential(
          (0): Conv2d(74, 74, kernel_size=(3, 3), stride=(1, 1), padding=(1, 1))
          (1): LeakyReLU(negative_slope=0.2, inplace=True)
          (2): Conv2d(74, 64, kernel_size=(3, 3), stride=(1, 1), padding=(1, 1))
          (3): CALayer(
            (body): Sequential(
              (0): Conv2d(64, 4, kernel_size=(1, 1), stride=(1, 1))
              (1): LeakyReLU(negative_slope=0.2)
              (2): Conv2d(4, 64, kernel_size=(1, 1), stride=(1, 1))
              (3): Sigmoid()
            )
            (avg): AdaptiveAvgPool2d(output_size=1)
          )
        )
      )
      (14): CRB_Layer(
        (body): Sequential(
          (0): Conv2d(74, 74, kernel_size=(3, 3), stride=(1, 1), padding=(1, 1))
          (1): LeakyReLU(negative_slope=0.2, inplace=True)
          (2): Conv2d(74, 64, kernel_size=(3, 3), stride=(1, 1), padding=(1, 1))
          (3): CALayer(
            (body): Sequential(
              (0): Conv2d(64, 4, kernel_size=(1, 1), stride=(1, 1))
              (1): LeakyReLU(negative_slope=0.2)
              (2): Conv2d(4, 64, kernel_size=(1, 1), stride=(1, 1))
              (3): Sigmoid()
            )
            (avg): AdaptiveAvgPool2d(output_size=1)
          )
        )
      )
      (15): CRB_Layer(
        (body): Sequential(
          (0): Conv2d(74, 74, kernel_size=(3, 3), stride=(1, 1), padding=(1, 1))
          (1): LeakyReLU(negative_slope=0.2, inplace=True)
          (2): Conv2d(74, 64, kernel_size=(3, 3), stride=(1, 1), padding=(1, 1))
          (3): CALayer(
            (body): Sequential(
              (0): Conv2d(64, 4, kernel_size=(1, 1), stride=(1, 1))
              (1): LeakyReLU(negative_slope=0.2)
              (2): Conv2d(4, 64, kernel_size=(1, 1), stride=(1, 1))
              (3): Sigmoid()
            )
            (avg): AdaptiveAvgPool2d(output_size=1)
          )
        )
      )
      (16): CRB_Layer(
        (body): Sequential(
          (0): Conv2d(74, 74, kernel_size=(3, 3), stride=(1, 1), padding=(1, 1))
          (1): LeakyReLU(negative_slope=0.2, inplace=True)
          (2): Conv2d(74, 64, kernel_size=(3, 3), stride=(1, 1), padding=(1, 1))
          (3): CALayer(
            (body): Sequential(
              (0): Conv2d(64, 4, kernel_size=(1, 1), stride=(1, 1))
              (1): LeakyReLU(negative_slope=0.2)
              (2): Conv2d(4, 64, kernel_size=(1, 1), stride=(1, 1))
              (3): Sigmoid()
            )
            (avg): AdaptiveAvgPool2d(output_size=1)
          )
        )
      )
      (17): CRB_Layer(
        (body): Sequential(
          (0): Conv2d(74, 74, kernel_size=(3, 3), stride=(1, 1), padding=(1, 1))
          (1): LeakyReLU(negative_slope=0.2, inplace=True)
          (2): Conv2d(74, 64, kernel_size=(3, 3), stride=(1, 1), padding=(1, 1))
          (3): CALayer(
            (body): Sequential(
              (0): Conv2d(64, 4, kernel_size=(1, 1), stride=(1, 1))
              (1): LeakyReLU(negative_slope=0.2)
              (2): Conv2d(4, 64, kernel_size=(1, 1), stride=(1, 1))
              (3): Sigmoid()
            )
            (avg): AdaptiveAvgPool2d(output_size=1)
          )
        )
      )
      (18): CRB_Layer(
        (body): Sequential(
          (0): Conv2d(74, 74, kernel_size=(3, 3), stride=(1, 1), padding=(1, 1))
          (1): LeakyReLU(negative_slope=0.2, inplace=True)
          (2): Conv2d(74, 64, kernel_size=(3, 3), stride=(1, 1), padding=(1, 1))
          (3): CALayer(
            (body): Sequential(
              (0): Conv2d(64, 4, kernel_size=(1, 1), stride=(1, 1))
              (1): LeakyReLU(negative_slope=0.2)
              (2): Conv2d(4, 64, kernel_size=(1, 1), stride=(1, 1))
              (3): Sigmoid()
            )
            (avg): AdaptiveAvgPool2d(output_size=1)
          )
        )
      )
      (19): CRB_Layer(
        (body): Sequential(
          (0): Conv2d(74, 74, kernel_size=(3, 3), stride=(1, 1), padding=(1, 1))
          (1): LeakyReLU(negative_slope=0.2, inplace=True)
          (2): Conv2d(74, 64, kernel_size=(3, 3), stride=(1, 1), padding=(1, 1))
          (3): CALayer(
            (body): Sequential(
              (0): Conv2d(64, 4, kernel_size=(1, 1), stride=(1, 1))
              (1): LeakyReLU(negative_slope=0.2)
              (2): Conv2d(4, 64, kernel_size=(1, 1), stride=(1, 1))
              (3): Sigmoid()
            )
            (avg): AdaptiveAvgPool2d(output_size=1)
          )
        )
      )
      (20): CRB_Layer(
        (body): Sequential(
          (0): Conv2d(74, 74, kernel_size=(3, 3), stride=(1, 1), padding=(1, 1))
          (1): LeakyReLU(negative_slope=0.2, inplace=True)
          (2): Conv2d(74, 64, kernel_size=(3, 3), stride=(1, 1), padding=(1, 1))
          (3): CALayer(
            (body): Sequential(
              (0): Conv2d(64, 4, kernel_size=(1, 1), stride=(1, 1))
              (1): LeakyReLU(negative_slope=0.2)
              (2): Conv2d(4, 64, kernel_size=(1, 1), stride=(1, 1))
              (3): Sigmoid()
            )
            (avg): AdaptiveAvgPool2d(output_size=1)
          )
        )
      )
      (21): CRB_Layer(
        (body): Sequential(
          (0): Conv2d(74, 74, kernel_size=(3, 3), stride=(1, 1), padding=(1, 1))
          (1): LeakyReLU(negative_slope=0.2, inplace=True)
          (2): Conv2d(74, 64, kernel_size=(3, 3), stride=(1, 1), padding=(1, 1))
          (3): CALayer(
            (body): Sequential(
              (0): Conv2d(64, 4, kernel_size=(1, 1), stride=(1, 1))
              (1): LeakyReLU(negative_slope=0.2)
              (2): Conv2d(4, 64, kernel_size=(1, 1), stride=(1, 1))
              (3): Sigmoid()
            )
            (avg): AdaptiveAvgPool2d(output_size=1)
          )
        )
      )
      (22): CRB_Layer(
        (body): Sequential(
          (0): Conv2d(74, 74, kernel_size=(3, 3), stride=(1, 1), padding=(1, 1))
          (1): LeakyReLU(negative_slope=0.2, inplace=True)
          (2): Conv2d(74, 64, kernel_size=(3, 3), stride=(1, 1), padding=(1, 1))
          (3): CALayer(
            (body): Sequential(
              (0): Conv2d(64, 4, kernel_size=(1, 1), stride=(1, 1))
              (1): LeakyReLU(negative_slope=0.2)
              (2): Conv2d(4, 64, kernel_size=(1, 1), stride=(1, 1))
              (3): Sigmoid()
            )
            (avg): AdaptiveAvgPool2d(output_size=1)
          )
        )
      )
      (23): CRB_Layer(
        (body): Sequential(
          (0): Conv2d(74, 74, kernel_size=(3, 3), stride=(1, 1), padding=(1, 1))
          (1): LeakyReLU(negative_slope=0.2, inplace=True)
          (2): Conv2d(74, 64, kernel_size=(3, 3), stride=(1, 1), padding=(1, 1))
          (3): CALayer(
            (body): Sequential(
              (0): Conv2d(64, 4, kernel_size=(1, 1), stride=(1, 1))
              (1): LeakyReLU(negative_slope=0.2)
              (2): Conv2d(4, 64, kernel_size=(1, 1), stride=(1, 1))
              (3): Sigmoid()
            )
            (avg): AdaptiveAvgPool2d(output_size=1)
          )
        )
      )
      (24): CRB_Layer(
        (body): Sequential(
          (0): Conv2d(74, 74, kernel_size=(3, 3), stride=(1, 1), padding=(1, 1))
          (1): LeakyReLU(negative_slope=0.2, inplace=True)
          (2): Conv2d(74, 64, kernel_size=(3, 3), stride=(1, 1), padding=(1, 1))
          (3): CALayer(
            (body): Sequential(
              (0): Conv2d(64, 4, kernel_size=(1, 1), stride=(1, 1))
              (1): LeakyReLU(negative_slope=0.2)
              (2): Conv2d(4, 64, kernel_size=(1, 1), stride=(1, 1))
              (3): Sigmoid()
            )
            (avg): AdaptiveAvgPool2d(output_size=1)
          )
        )
      )
      (25): CRB_Layer(
        (body): Sequential(
          (0): Conv2d(74, 74, kernel_size=(3, 3), stride=(1, 1), padding=(1, 1))
          (1): LeakyReLU(negative_slope=0.2, inplace=True)
          (2): Conv2d(74, 64, kernel_size=(3, 3), stride=(1, 1), padding=(1, 1))
          (3): CALayer(
            (body): Sequential(
              (0): Conv2d(64, 4, kernel_size=(1, 1), stride=(1, 1))
              (1): LeakyReLU(negative_slope=0.2)
              (2): Conv2d(4, 64, kernel_size=(1, 1), stride=(1, 1))
              (3): Sigmoid()
            )
            (avg): AdaptiveAvgPool2d(output_size=1)
          )
        )
      )
      (26): CRB_Layer(
        (body): Sequential(
          (0): Conv2d(74, 74, kernel_size=(3, 3), stride=(1, 1), padding=(1, 1))
          (1): LeakyReLU(negative_slope=0.2, inplace=True)
          (2): Conv2d(74, 64, kernel_size=(3, 3), stride=(1, 1), padding=(1, 1))
          (3): CALayer(
            (body): Sequential(
              (0): Conv2d(64, 4, kernel_size=(1, 1), stride=(1, 1))
              (1): LeakyReLU(negative_slope=0.2)
              (2): Conv2d(4, 64, kernel_size=(1, 1), stride=(1, 1))
              (3): Sigmoid()
            )
            (avg): AdaptiveAvgPool2d(output_size=1)
          )
        )
      )
      (27): CRB_Layer(
        (body): Sequential(
          (0): Conv2d(74, 74, kernel_size=(3, 3), stride=(1, 1), padding=(1, 1))
          (1): LeakyReLU(negative_slope=0.2, inplace=True)
          (2): Conv2d(74, 64, kernel_size=(3, 3), stride=(1, 1), padding=(1, 1))
          (3): CALayer(
            (body): Sequential(
              (0): Conv2d(64, 4, kernel_size=(1, 1), stride=(1, 1))
              (1): LeakyReLU(negative_slope=0.2)
              (2): Conv2d(4, 64, kernel_size=(1, 1), stride=(1, 1))
              (3): Sigmoid()
            )
            (avg): AdaptiveAvgPool2d(output_size=1)
          )
        )
      )
      (28): CRB_Layer(
        (body): Sequential(
          (0): Conv2d(74, 74, kernel_size=(3, 3), stride=(1, 1), padding=(1, 1))
          (1): LeakyReLU(negative_slope=0.2, inplace=True)
          (2): Conv2d(74, 64, kernel_size=(3, 3), stride=(1, 1), padding=(1, 1))
          (3): CALayer(
            (body): Sequential(
              (0): Conv2d(64, 4, kernel_size=(1, 1), stride=(1, 1))
              (1): LeakyReLU(negative_slope=0.2)
              (2): Conv2d(4, 64, kernel_size=(1, 1), stride=(1, 1))
              (3): Sigmoid()
            )
            (avg): AdaptiveAvgPool2d(output_size=1)
          )
        )
      )
      (29): CRB_Layer(
        (body): Sequential(
          (0): Conv2d(74, 74, kernel_size=(3, 3), stride=(1, 1), padding=(1, 1))
          (1): LeakyReLU(negative_slope=0.2, inplace=True)
          (2): Conv2d(74, 64, kernel_size=(3, 3), stride=(1, 1), padding=(1, 1))
          (3): CALayer(
            (body): Sequential(
              (0): Conv2d(64, 4, kernel_size=(1, 1), stride=(1, 1))
              (1): LeakyReLU(negative_slope=0.2)
              (2): Conv2d(4, 64, kernel_size=(1, 1), stride=(1, 1))
              (3): Sigmoid()
            )
            (avg): AdaptiveAvgPool2d(output_size=1)
          )
        )
      )
      (30): CRB_Layer(
        (body): Sequential(
          (0): Conv2d(74, 74, kernel_size=(3, 3), stride=(1, 1), padding=(1, 1))
          (1): LeakyReLU(negative_slope=0.2, inplace=True)
          (2): Conv2d(74, 64, kernel_size=(3, 3), stride=(1, 1), padding=(1, 1))
          (3): CALayer(
            (body): Sequential(
              (0): Conv2d(64, 4, kernel_size=(1, 1), stride=(1, 1))
              (1): LeakyReLU(negative_slope=0.2)
              (2): Conv2d(4, 64, kernel_size=(1, 1), stride=(1, 1))
              (3): Sigmoid()
            )
            (avg): AdaptiveAvgPool2d(output_size=1)
          )
        )
      )
      (31): CRB_Layer(
        (body): Sequential(
          (0): Conv2d(74, 74, kernel_size=(3, 3), stride=(1, 1), padding=(1, 1))
          (1): LeakyReLU(negative_slope=0.2, inplace=True)
          (2): Conv2d(74, 64, kernel_size=(3, 3), stride=(1, 1), padding=(1, 1))
          (3): CALayer(
            (body): Sequential(
              (0): Conv2d(64, 4, kernel_size=(1, 1), stride=(1, 1))
              (1): LeakyReLU(negative_slope=0.2)
              (2): Conv2d(4, 64, kernel_size=(1, 1), stride=(1, 1))
              (3): Sigmoid()
            )
            (avg): AdaptiveAvgPool2d(output_size=1)
          )
        )
      )
      (32): CRB_Layer(
        (body): Sequential(
          (0): Conv2d(74, 74, kernel_size=(3, 3), stride=(1, 1), padding=(1, 1))
          (1): LeakyReLU(negative_slope=0.2, inplace=True)
          (2): Conv2d(74, 64, kernel_size=(3, 3), stride=(1, 1), padding=(1, 1))
          (3): CALayer(
            (body): Sequential(
              (0): Conv2d(64, 4, kernel_size=(1, 1), stride=(1, 1))
              (1): LeakyReLU(negative_slope=0.2)
              (2): Conv2d(4, 64, kernel_size=(1, 1), stride=(1, 1))
              (3): Sigmoid()
            )
            (avg): AdaptiveAvgPool2d(output_size=1)
          )
        )
      )
      (33): CRB_Layer(
        (body): Sequential(
          (0): Conv2d(74, 74, kernel_size=(3, 3), stride=(1, 1), padding=(1, 1))
          (1): LeakyReLU(negative_slope=0.2, inplace=True)
          (2): Conv2d(74, 64, kernel_size=(3, 3), stride=(1, 1), padding=(1, 1))
          (3): CALayer(
            (body): Sequential(
              (0): Conv2d(64, 4, kernel_size=(1, 1), stride=(1, 1))
              (1): LeakyReLU(negative_slope=0.2)
              (2): Conv2d(4, 64, kernel_size=(1, 1), stride=(1, 1))
              (3): Sigmoid()
            )
            (avg): AdaptiveAvgPool2d(output_size=1)
          )
        )
      )
      (34): CRB_Layer(
        (body): Sequential(
          (0): Conv2d(74, 74, kernel_size=(3, 3), stride=(1, 1), padding=(1, 1))
          (1): LeakyReLU(negative_slope=0.2, inplace=True)
          (2): Conv2d(74, 64, kernel_size=(3, 3), stride=(1, 1), padding=(1, 1))
          (3): CALayer(
            (body): Sequential(
              (0): Conv2d(64, 4, kernel_size=(1, 1), stride=(1, 1))
              (1): LeakyReLU(negative_slope=0.2)
              (2): Conv2d(4, 64, kernel_size=(1, 1), stride=(1, 1))
              (3): Sigmoid()
            )
            (avg): AdaptiveAvgPool2d(output_size=1)
          )
        )
      )
      (35): CRB_Layer(
        (body): Sequential(
          (0): Conv2d(74, 74, kernel_size=(3, 3), stride=(1, 1), padding=(1, 1))
          (1): LeakyReLU(negative_slope=0.2, inplace=True)
          (2): Conv2d(74, 64, kernel_size=(3, 3), stride=(1, 1), padding=(1, 1))
          (3): CALayer(
            (body): Sequential(
              (0): Conv2d(64, 4, kernel_size=(1, 1), stride=(1, 1))
              (1): LeakyReLU(negative_slope=0.2)
              (2): Conv2d(4, 64, kernel_size=(1, 1), stride=(1, 1))
              (3): Sigmoid()
            )
            (avg): AdaptiveAvgPool2d(output_size=1)
          )
        )
      )
      (36): CRB_Layer(
        (body): Sequential(
          (0): Conv2d(74, 74, kernel_size=(3, 3), stride=(1, 1), padding=(1, 1))
          (1): LeakyReLU(negative_slope=0.2, inplace=True)
          (2): Conv2d(74, 64, kernel_size=(3, 3), stride=(1, 1), padding=(1, 1))
          (3): CALayer(
            (body): Sequential(
              (0): Conv2d(64, 4, kernel_size=(1, 1), stride=(1, 1))
              (1): LeakyReLU(negative_slope=0.2)
              (2): Conv2d(4, 64, kernel_size=(1, 1), stride=(1, 1))
              (3): Sigmoid()
            )
            (avg): AdaptiveAvgPool2d(output_size=1)
          )
        )
      )
      (37): CRB_Layer(
        (body): Sequential(
          (0): Conv2d(74, 74, kernel_size=(3, 3), stride=(1, 1), padding=(1, 1))
          (1): LeakyReLU(negative_slope=0.2, inplace=True)
          (2): Conv2d(74, 64, kernel_size=(3, 3), stride=(1, 1), padding=(1, 1))
          (3): CALayer(
            (body): Sequential(
              (0): Conv2d(64, 4, kernel_size=(1, 1), stride=(1, 1))
              (1): LeakyReLU(negative_slope=0.2)
              (2): Conv2d(4, 64, kernel_size=(1, 1), stride=(1, 1))
              (3): Sigmoid()
            )
            (avg): AdaptiveAvgPool2d(output_size=1)
          )
        )
      )
      (38): CRB_Layer(
        (body): Sequential(
          (0): Conv2d(74, 74, kernel_size=(3, 3), stride=(1, 1), padding=(1, 1))
          (1): LeakyReLU(negative_slope=0.2, inplace=True)
          (2): Conv2d(74, 64, kernel_size=(3, 3), stride=(1, 1), padding=(1, 1))
          (3): CALayer(
            (body): Sequential(
              (0): Conv2d(64, 4, kernel_size=(1, 1), stride=(1, 1))
              (1): LeakyReLU(negative_slope=0.2)
              (2): Conv2d(4, 64, kernel_size=(1, 1), stride=(1, 1))
              (3): Sigmoid()
            )
            (avg): AdaptiveAvgPool2d(output_size=1)
          )
        )
      )
      (39): CRB_Layer(
        (body): Sequential(
          (0): Conv2d(74, 74, kernel_size=(3, 3), stride=(1, 1), padding=(1, 1))
          (1): LeakyReLU(negative_slope=0.2, inplace=True)
          (2): Conv2d(74, 64, kernel_size=(3, 3), stride=(1, 1), padding=(1, 1))
          (3): CALayer(
            (body): Sequential(
              (0): Conv2d(64, 4, kernel_size=(1, 1), stride=(1, 1))
              (1): LeakyReLU(negative_slope=0.2)
              (2): Conv2d(4, 64, kernel_size=(1, 1), stride=(1, 1))
              (3): Sigmoid()
            )
            (avg): AdaptiveAvgPool2d(output_size=1)
          )
        )
      )
    )
    (fusion): Conv2d(64, 64, kernel_size=(3, 3), stride=(1, 1), padding=(1, 1))
    (upscale): Sequential(
      (0): Conv2d(64, 256, kernel_size=(3, 3), stride=(1, 1), padding=(1, 1))
      (1): PixelShuffle(upscale_factor=2)
      (2): Conv2d(64, 3, kernel_size=(3, 3), stride=(1, 1), padding=(1, 1))
    )
  )
  (Estimator): Estimator(
    (head_LR): Conv2d(3, 32, kernel_size=(1, 1), stride=(1, 1))
    (head_HR): Conv2d(3, 32, kernel_size=(9, 9), stride=(2, 2), padding=(4, 4))
    (body): Sequential(
      (0): CRB_Layer(
        (body): Sequential(
          (0): Conv2d(64, 64, kernel_size=(3, 3), stride=(1, 1), padding=(1, 1))
          (1): LeakyReLU(negative_slope=0.2, inplace=True)
          (2): Conv2d(64, 32, kernel_size=(3, 3), stride=(1, 1), padding=(1, 1))
          (3): CALayer(
            (body): Sequential(
              (0): Conv2d(32, 2, kernel_size=(1, 1), stride=(1, 1))
              (1): LeakyReLU(negative_slope=0.2)
              (2): Conv2d(2, 32, kernel_size=(1, 1), stride=(1, 1))
              (3): Sigmoid()
            )
            (avg): AdaptiveAvgPool2d(output_size=1)
          )
        )
      )
      (1): CRB_Layer(
        (body): Sequential(
          (0): Conv2d(64, 64, kernel_size=(3, 3), stride=(1, 1), padding=(1, 1))
          (1): LeakyReLU(negative_slope=0.2, inplace=True)
          (2): Conv2d(64, 32, kernel_size=(3, 3), stride=(1, 1), padding=(1, 1))
          (3): CALayer(
            (body): Sequential(
              (0): Conv2d(32, 2, kernel_size=(1, 1), stride=(1, 1))
              (1): LeakyReLU(negative_slope=0.2)
              (2): Conv2d(2, 32, kernel_size=(1, 1), stride=(1, 1))
              (3): Sigmoid()
            )
            (avg): AdaptiveAvgPool2d(output_size=1)
          )
        )
      )
      (2): CRB_Layer(
        (body): Sequential(
          (0): Conv2d(64, 64, kernel_size=(3, 3), stride=(1, 1), padding=(1, 1))
          (1): LeakyReLU(negative_slope=0.2, inplace=True)
          (2): Conv2d(64, 32, kernel_size=(3, 3), stride=(1, 1), padding=(1, 1))
          (3): CALayer(
            (body): Sequential(
              (0): Conv2d(32, 2, kernel_size=(1, 1), stride=(1, 1))
              (1): LeakyReLU(negative_slope=0.2)
              (2): Conv2d(2, 32, kernel_size=(1, 1), stride=(1, 1))
              (3): Sigmoid()
            )
            (avg): AdaptiveAvgPool2d(output_size=1)
          )
        )
      )
      (3): CRB_Layer(
        (body): Sequential(
          (0): Conv2d(64, 64, kernel_size=(3, 3), stride=(1, 1), padding=(1, 1))
          (1): LeakyReLU(negative_slope=0.2, inplace=True)
          (2): Conv2d(64, 32, kernel_size=(3, 3), stride=(1, 1), padding=(1, 1))
          (3): CALayer(
            (body): Sequential(
              (0): Conv2d(32, 2, kernel_size=(1, 1), stride=(1, 1))
              (1): LeakyReLU(negative_slope=0.2)
              (2): Conv2d(2, 32, kernel_size=(1, 1), stride=(1, 1))
              (3): Sigmoid()
            )
            (avg): AdaptiveAvgPool2d(output_size=1)
          )
        )
      )
      (4): CRB_Layer(
        (body): Sequential(
          (0): Conv2d(64, 64, kernel_size=(3, 3), stride=(1, 1), padding=(1, 1))
          (1): LeakyReLU(negative_slope=0.2, inplace=True)
          (2): Conv2d(64, 32, kernel_size=(3, 3), stride=(1, 1), padding=(1, 1))
          (3): CALayer(
            (body): Sequential(
              (0): Conv2d(32, 2, kernel_size=(1, 1), stride=(1, 1))
              (1): LeakyReLU(negative_slope=0.2)
              (2): Conv2d(2, 32, kernel_size=(1, 1), stride=(1, 1))
              (3): Sigmoid()
            )
            (avg): AdaptiveAvgPool2d(output_size=1)
          )
        )
      )
    )
    (out): Conv2d(32, 10, kernel_size=(3, 3), stride=(1, 1), padding=(1, 1))
    (globalPooling): AdaptiveAvgPool2d(output_size=(1, 1))
  )
)
21-07-21 14:36:39.194 - INFO: Loading model for G [/content/DAN/experiments/DANv1/DANx2_setting1/models/latest_G.pth] ...
21-07-21 14:36:39.433 - INFO: Model [B_Model] is created.
21-07-21 14:36:39.458 - INFO: 
Testing [S]...
21-07-21 14:37:16.895 - INFO: img:sig1.8_0009     - PSNR: 18.323149 dB; SSIM: 0.338666; PSNR_Y: 20.289239 dB; SSIM_Y: 0.465986.
…
