21-07-22 17:29:12.304 - INFO: Dataset [GTDataset - DIV2K] is created.
21-07-22 17:29:12.309 - INFO: Dataset [LQGTDataset - DIV2KRK] is created.
21-07-22 17:29:14.791 - INFO: Network G structure: DataParallel - DAN, with parameters: 1,933,237
21-07-22 17:29:14.792 - INFO: DAN(
  (Restorer): Restorer(
    (head1): conv_ds(
      (conv): Sequential(
        (0): Conv2d(3, 3, kernel_size=(1, 1), stride=(1, 1))
        (1): BatchNorm2d(3, eps=1e-05, momentum=0.1, affine=True, track_running_stats=True)
        (2): ReLU6()
        (3): Conv2d(3, 3, kernel_size=(3, 3), stride=(1, 1), padding=(1, 1), groups=3, bias=False)
        (4): BatchNorm2d(3, eps=1e-05, momentum=0.1, affine=True, track_running_stats=True)
        (5): ReLU6()
        (6): Conv2d(3, 64, kernel_size=(1, 1), stride=(1, 1))
        (7): BatchNorm2d(64, eps=1e-05, momentum=0.1, affine=True, track_running_stats=True)
      )
    )
    (head2): conv_ds(
      (conv): Sequential(
        (0): Conv2d(10, 10, kernel_size=(1, 1), stride=(1, 1))
        (1): BatchNorm2d(10, eps=1e-05, momentum=0.1, affine=True, track_running_stats=True)
        (2): ReLU6()
        (3): Conv2d(10, 10, kernel_size=(1, 1), stride=(1, 1), groups=10, bias=False)
        (4): BatchNorm2d(10, eps=1e-05, momentum=0.1, affine=True, track_running_stats=True)
        (5): ReLU6()
        (6): Conv2d(10, 64, kernel_size=(1, 1), stride=(1, 1))
        (7): BatchNorm2d(64, eps=1e-05, momentum=0.1, affine=True, track_running_stats=True)
      )
    )
    (body): Sequential(
      (0): DPCG(
        (body): Sequential(
          (0): DPCB(
            (body1): Sequential(
              (0): conv_ds(
                (conv): Sequential(
                  (0): Conv2d(64, 64, kernel_size=(1, 1), stride=(1, 1))
                  (1): BatchNorm2d(64, eps=1e-05, momentum=0.1, affine=True, track_running_stats=True)
                  (2): ReLU6()
                  (3): Conv2d(64, 64, kernel_size=(3, 3), stride=(1, 1), padding=(1, 1), groups=64, bias=False)
                  (4): BatchNorm2d(64, eps=1e-05, momentum=0.1, affine=True, track_running_stats=True)
                  (5): ReLU6()
                  (6): Conv2d(64, 64, kernel_size=(1, 1), stride=(1, 1))
                  (7): BatchNorm2d(64, eps=1e-05, momentum=0.1, affine=True, track_running_stats=True)
                )
              )
              (1): LeakyReLU(negative_slope=0.2, inplace=True)
              (2): conv_ds(
                (conv): Sequential(
                  (0): Conv2d(64, 64, kernel_size=(1, 1), stride=(1, 1))
                  (1): BatchNorm2d(64, eps=1e-05, momentum=0.1, affine=True, track_running_stats=True)
                  (2): ReLU6()
                  (3): Conv2d(64, 64, kernel_size=(3, 3), stride=(1, 1), padding=(1, 1), groups=64, bias=False)
                  (4): BatchNorm2d(64, eps=1e-05, momentum=0.1, affine=True, track_running_stats=True)
                  (5): ReLU6()
                  (6): Conv2d(64, 64, kernel_size=(1, 1), stride=(1, 1))
                  (7): BatchNorm2d(64, eps=1e-05, momentum=0.1, affine=True, track_running_stats=True)
                )
              )
            )
            (body2): Sequential(
              (0): conv_ds(
                (conv): Sequential(
                  (0): Conv2d(64, 64, kernel_size=(1, 1), stride=(1, 1))
                  (1): BatchNorm2d(64, eps=1e-05, momentum=0.1, affine=True, track_running_stats=True)
                  (2): ReLU6()
                  (3): Conv2d(64, 64, kernel_size=(1, 1), stride=(1, 1), groups=64, bias=False)
                  (4): BatchNorm2d(64, eps=1e-05, momentum=0.1, affine=True, track_running_stats=True)
                  (5): ReLU6()
                  (6): Conv2d(64, 64, kernel_size=(1, 1), stride=(1, 1))
                  (7): BatchNorm2d(64, eps=1e-05, momentum=0.1, affine=True, track_running_stats=True)
                )
              )
              (1): LeakyReLU(negative_slope=0.2, inplace=True)
              (2): conv_ds(
                (conv): Sequential(
                  (0): Conv2d(64, 64, kernel_size=(1, 1), stride=(1, 1))
                  (1): BatchNorm2d(64, eps=1e-05, momentum=0.1, affine=True, track_running_stats=True)
                  (2): ReLU6()
                  (3): Conv2d(64, 64, kernel_size=(1, 1), stride=(1, 1), groups=64, bias=False)
                  (4): BatchNorm2d(64, eps=1e-05, momentum=0.1, affine=True, track_running_stats=True)
                  (5): ReLU6()
                  (6): Conv2d(64, 64, kernel_size=(1, 1), stride=(1, 1))
                  (7): BatchNorm2d(64, eps=1e-05, momentum=0.1, affine=True, track_running_stats=True)
                )
              )
            )
          )
          (1): DPCB(
            (body1): Sequential(
              (0): conv_ds(
                (conv): Sequential(
                  (0): Conv2d(64, 64, kernel_size=(1, 1), stride=(1, 1))
                  (1): BatchNorm2d(64, eps=1e-05, momentum=0.1, affine=True, track_running_stats=True)
                  (2): ReLU6()
                  (3): Conv2d(64, 64, kernel_size=(3, 3), stride=(1, 1), padding=(1, 1), groups=64, bias=False)
                  (4): BatchNorm2d(64, eps=1e-05, momentum=0.1, affine=True, track_running_stats=True)
                  (5): ReLU6()
                  (6): Conv2d(64, 64, kernel_size=(1, 1), stride=(1, 1))
                  (7): BatchNorm2d(64, eps=1e-05, momentum=0.1, affine=True, track_running_stats=True)
                )
              )
              (1): LeakyReLU(negative_slope=0.2, inplace=True)
              (2): conv_ds(
                (conv): Sequential(
                  (0): Conv2d(64, 64, kernel_size=(1, 1), stride=(1, 1))
                  (1): BatchNorm2d(64, eps=1e-05, momentum=0.1, affine=True, track_running_stats=True)
                  (2): ReLU6()
                  (3): Conv2d(64, 64, kernel_size=(3, 3), stride=(1, 1), padding=(1, 1), groups=64, bias=False)
                  (4): BatchNorm2d(64, eps=1e-05, momentum=0.1, affine=True, track_running_stats=True)
                  (5): ReLU6()
                  (6): Conv2d(64, 64, kernel_size=(1, 1), stride=(1, 1))
                  (7): BatchNorm2d(64, eps=1e-05, momentum=0.1, affine=True, track_running_stats=True)
                )
              )
            )
            (body2): Sequential(
              (0): conv_ds(
                (conv): Sequential(
                  (0): Conv2d(64, 64, kernel_size=(1, 1), stride=(1, 1))
                  (1): BatchNorm2d(64, eps=1e-05, momentum=0.1, affine=True, track_running_stats=True)
                  (2): ReLU6()
                  (3): Conv2d(64, 64, kernel_size=(1, 1), stride=(1, 1), groups=64, bias=False)
                  (4): BatchNorm2d(64, eps=1e-05, momentum=0.1, affine=True, track_running_stats=True)
                  (5): ReLU6()
                  (6): Conv2d(64, 64, kernel_size=(1, 1), stride=(1, 1))
                  (7): BatchNorm2d(64, eps=1e-05, momentum=0.1, affine=True, track_running_stats=True)
                )
              )
              (1): LeakyReLU(negative_slope=0.2, inplace=True)
              (2): conv_ds(
                (conv): Sequential(
                  (0): Conv2d(64, 64, kernel_size=(1, 1), stride=(1, 1))
                  (1): BatchNorm2d(64, eps=1e-05, momentum=0.1, affine=True, track_running_stats=True)
                  (2): ReLU6()
                  (3): Conv2d(64, 64, kernel_size=(1, 1), stride=(1, 1), groups=64, bias=False)
                  (4): BatchNorm2d(64, eps=1e-05, momentum=0.1, affine=True, track_running_stats=True)
                  (5): ReLU6()
                  (6): Conv2d(64, 64, kernel_size=(1, 1), stride=(1, 1))
                  (7): BatchNorm2d(64, eps=1e-05, momentum=0.1, affine=True, track_running_stats=True)
                )
              )
            )
          )
          (2): DPCB(
            (body1): Sequential(
              (0): conv_ds(
                (conv): Sequential(
                  (0): Conv2d(64, 64, kernel_size=(1, 1), stride=(1, 1))
                  (1): BatchNorm2d(64, eps=1e-05, momentum=0.1, affine=True, track_running_stats=True)
                  (2): ReLU6()
                  (3): Conv2d(64, 64, kernel_size=(3, 3), stride=(1, 1), padding=(1, 1), groups=64, bias=False)
                  (4): BatchNorm2d(64, eps=1e-05, momentum=0.1, affine=True, track_running_stats=True)
                  (5): ReLU6()
                  (6): Conv2d(64, 64, kernel_size=(1, 1), stride=(1, 1))
                  (7): BatchNorm2d(64, eps=1e-05, momentum=0.1, affine=True, track_running_stats=True)
                )
              )
              (1): LeakyReLU(negative_slope=0.2, inplace=True)
              (2): conv_ds(
                (conv): Sequential(
                  (0): Conv2d(64, 64, kernel_size=(1, 1), stride=(1, 1))
                  (1): BatchNorm2d(64, eps=1e-05, momentum=0.1, affine=True, track_running_stats=True)
                  (2): ReLU6()
                  (3): Conv2d(64, 64, kernel_size=(3, 3), stride=(1, 1), padding=(1, 1), groups=64, bias=False)
                  (4): BatchNorm2d(64, eps=1e-05, momentum=0.1, affine=True, track_running_stats=True)
                  (5): ReLU6()
                  (6): Conv2d(64, 64, kernel_size=(1, 1), stride=(1, 1))
                  (7): BatchNorm2d(64, eps=1e-05, momentum=0.1, affine=True, track_running_stats=True)
                )
              )
            )
            (body2): Sequential(
              (0): conv_ds(
                (conv): Sequential(
                  (0): Conv2d(64, 64, kernel_size=(1, 1), stride=(1, 1))
                  (1): BatchNorm2d(64, eps=1e-05, momentum=0.1, affine=True, track_running_stats=True)
                  (2): ReLU6()
                  (3): Conv2d(64, 64, kernel_size=(1, 1), stride=(1, 1), groups=64, bias=False)
                  (4): BatchNorm2d(64, eps=1e-05, momentum=0.1, affine=True, track_running_stats=True)
                  (5): ReLU6()
                  (6): Conv2d(64, 64, kernel_size=(1, 1), stride=(1, 1))
                  (7): BatchNorm2d(64, eps=1e-05, momentum=0.1, affine=True, track_running_stats=True)
                )
              )
              (1): LeakyReLU(negative_slope=0.2, inplace=True)
              (2): conv_ds(
                (conv): Sequential(
                  (0): Conv2d(64, 64, kernel_size=(1, 1), stride=(1, 1))
                  (1): BatchNorm2d(64, eps=1e-05, momentum=0.1, affine=True, track_running_stats=True)
                  (2): ReLU6()
                  (3): Conv2d(64, 64, kernel_size=(1, 1), stride=(1, 1), groups=64, bias=False)
                  (4): BatchNorm2d(64, eps=1e-05, momentum=0.1, affine=True, track_running_stats=True)
                  (5): ReLU6()
                  (6): Conv2d(64, 64, kernel_size=(1, 1), stride=(1, 1))
                  (7): BatchNorm2d(64, eps=1e-05, momentum=0.1, affine=True, track_running_stats=True)
                )
              )
            )
          )
          (3): DPCB(
            (body1): Sequential(
              (0): conv_ds(
                (conv): Sequential(
                  (0): Conv2d(64, 64, kernel_size=(1, 1), stride=(1, 1))
                  (1): BatchNorm2d(64, eps=1e-05, momentum=0.1, affine=True, track_running_stats=True)
                  (2): ReLU6()
                  (3): Conv2d(64, 64, kernel_size=(3, 3), stride=(1, 1), padding=(1, 1), groups=64, bias=False)
                  (4): BatchNorm2d(64, eps=1e-05, momentum=0.1, affine=True, track_running_stats=True)
                  (5): ReLU6()
                  (6): Conv2d(64, 64, kernel_size=(1, 1), stride=(1, 1))
                  (7): BatchNorm2d(64, eps=1e-05, momentum=0.1, affine=True, track_running_stats=True)
                )
              )
              (1): LeakyReLU(negative_slope=0.2, inplace=True)
              (2): conv_ds(
                (conv): Sequential(
                  (0): Conv2d(64, 64, kernel_size=(1, 1), stride=(1, 1))
                  (1): BatchNorm2d(64, eps=1e-05, momentum=0.1, affine=True, track_running_stats=True)
                  (2): ReLU6()
                  (3): Conv2d(64, 64, kernel_size=(3, 3), stride=(1, 1), padding=(1, 1), groups=64, bias=False)
                  (4): BatchNorm2d(64, eps=1e-05, momentum=0.1, affine=True, track_running_stats=True)
                  (5): ReLU6()
                  (6): Conv2d(64, 64, kernel_size=(1, 1), stride=(1, 1))
                  (7): BatchNorm2d(64, eps=1e-05, momentum=0.1, affine=True, track_running_stats=True)
                )
              )
            )
            (body2): Sequential(
              (0): conv_ds(
                (conv): Sequential(
                  (0): Conv2d(64, 64, kernel_size=(1, 1), stride=(1, 1))
                  (1): BatchNorm2d(64, eps=1e-05, momentum=0.1, affine=True, track_running_stats=True)
                  (2): ReLU6()
                  (3): Conv2d(64, 64, kernel_size=(1, 1), stride=(1, 1), groups=64, bias=False)
                  (4): BatchNorm2d(64, eps=1e-05, momentum=0.1, affine=True, track_running_stats=True)
                  (5): ReLU6()
                  (6): Conv2d(64, 64, kernel_size=(1, 1), stride=(1, 1))
                  (7): BatchNorm2d(64, eps=1e-05, momentum=0.1, affine=True, track_running_stats=True)
                )
              )
              (1): LeakyReLU(negative_slope=0.2, inplace=True)
              (2): conv_ds(
                (conv): Sequential(
                  (0): Conv2d(64, 64, kernel_size=(1, 1), stride=(1, 1))
                  (1): BatchNorm2d(64, eps=1e-05, momentum=0.1, affine=True, track_running_stats=True)
                  (2): ReLU6()
                  (3): Conv2d(64, 64, kernel_size=(1, 1), stride=(1, 1), groups=64, bias=False)
                  (4): BatchNorm2d(64, eps=1e-05, momentum=0.1, affine=True, track_running_stats=True)
                  (5): ReLU6()
                  (6): Conv2d(64, 64, kernel_size=(1, 1), stride=(1, 1))
                  (7): BatchNorm2d(64, eps=1e-05, momentum=0.1, affine=True, track_running_stats=True)
                )
              )
            )
          )
          (4): DPCB(
            (body1): Sequential(
              (0): conv_ds(
                (conv): Sequential(
                  (0): Conv2d(64, 64, kernel_size=(1, 1), stride=(1, 1))
                  (1): BatchNorm2d(64, eps=1e-05, momentum=0.1, affine=True, track_running_stats=True)
                  (2): ReLU6()
                  (3): Conv2d(64, 64, kernel_size=(3, 3), stride=(1, 1), padding=(1, 1), groups=64, bias=False)
                  (4): BatchNorm2d(64, eps=1e-05, momentum=0.1, affine=True, track_running_stats=True)
                  (5): ReLU6()
                  (6): Conv2d(64, 64, kernel_size=(1, 1), stride=(1, 1))
                  (7): BatchNorm2d(64, eps=1e-05, momentum=0.1, affine=True, track_running_stats=True)
                )
              )
              (1): LeakyReLU(negative_slope=0.2, inplace=True)
              (2): conv_ds(
                (conv): Sequential(
                  (0): Conv2d(64, 64, kernel_size=(1, 1), stride=(1, 1))
                  (1): BatchNorm2d(64, eps=1e-05, momentum=0.1, affine=True, track_running_stats=True)
                  (2): ReLU6()
                  (3): Conv2d(64, 64, kernel_size=(3, 3), stride=(1, 1), padding=(1, 1), groups=64, bias=False)
                  (4): BatchNorm2d(64, eps=1e-05, momentum=0.1, affine=True, track_running_stats=True)
                  (5): ReLU6()
                  (6): Conv2d(64, 64, kernel_size=(1, 1), stride=(1, 1))
                  (7): BatchNorm2d(64, eps=1e-05, momentum=0.1, affine=True, track_running_stats=True)
                )
              )
            )
            (body2): Sequential(
              (0): conv_ds(
                (conv): Sequential(
                  (0): Conv2d(64, 64, kernel_size=(1, 1), stride=(1, 1))
                  (1): BatchNorm2d(64, eps=1e-05, momentum=0.1, affine=True, track_running_stats=True)
                  (2): ReLU6()
                  (3): Conv2d(64, 64, kernel_size=(1, 1), stride=(1, 1), groups=64, bias=False)
                  (4): BatchNorm2d(64, eps=1e-05, momentum=0.1, affine=True, track_running_stats=True)
                  (5): ReLU6()
                  (6): Conv2d(64, 64, kernel_size=(1, 1), stride=(1, 1))
                  (7): BatchNorm2d(64, eps=1e-05, momentum=0.1, affine=True, track_running_stats=True)
                )
              )
              (1): LeakyReLU(negative_slope=0.2, inplace=True)
              (2): conv_ds(
                (conv): Sequential(
                  (0): Conv2d(64, 64, kernel_size=(1, 1), stride=(1, 1))
                  (1): BatchNorm2d(64, eps=1e-05, momentum=0.1, affine=True, track_running_stats=True)
                  (2): ReLU6()
                  (3): Conv2d(64, 64, kernel_size=(1, 1), stride=(1, 1), groups=64, bias=False)
                  (4): BatchNorm2d(64, eps=1e-05, momentum=0.1, affine=True, track_running_stats=True)
                  (5): ReLU6()
                  (6): Conv2d(64, 64, kernel_size=(1, 1), stride=(1, 1))
                  (7): BatchNorm2d(64, eps=1e-05, momentum=0.1, affine=True, track_running_stats=True)
                )
              )
            )
          )
          (5): DPCB(
            (body1): Sequential(
              (0): conv_ds(
                (conv): Sequential(
                  (0): Conv2d(64, 64, kernel_size=(1, 1), stride=(1, 1))
                  (1): BatchNorm2d(64, eps=1e-05, momentum=0.1, affine=True, track_running_stats=True)
                  (2): ReLU6()
                  (3): Conv2d(64, 64, kernel_size=(3, 3), stride=(1, 1), padding=(1, 1), groups=64, bias=False)
                  (4): BatchNorm2d(64, eps=1e-05, momentum=0.1, affine=True, track_running_stats=True)
                  (5): ReLU6()
                  (6): Conv2d(64, 64, kernel_size=(1, 1), stride=(1, 1))
                  (7): BatchNorm2d(64, eps=1e-05, momentum=0.1, affine=True, track_running_stats=True)
                )
              )
              (1): LeakyReLU(negative_slope=0.2, inplace=True)
              (2): conv_ds(
                (conv): Sequential(
                  (0): Conv2d(64, 64, kernel_size=(1, 1), stride=(1, 1))
                  (1): BatchNorm2d(64, eps=1e-05, momentum=0.1, affine=True, track_running_stats=True)
                  (2): ReLU6()
                  (3): Conv2d(64, 64, kernel_size=(3, 3), stride=(1, 1), padding=(1, 1), groups=64, bias=False)
                  (4): BatchNorm2d(64, eps=1e-05, momentum=0.1, affine=True, track_running_stats=True)
                  (5): ReLU6()
                  (6): Conv2d(64, 64, kernel_size=(1, 1), stride=(1, 1))
                  (7): BatchNorm2d(64, eps=1e-05, momentum=0.1, affine=True, track_running_stats=True)
                )
              )
            )
            (body2): Sequential(
              (0): conv_ds(
                (conv): Sequential(
                  (0): Conv2d(64, 64, kernel_size=(1, 1), stride=(1, 1))
                  (1): BatchNorm2d(64, eps=1e-05, momentum=0.1, affine=True, track_running_stats=True)
                  (2): ReLU6()
                  (3): Conv2d(64, 64, kernel_size=(1, 1), stride=(1, 1), groups=64, bias=False)
                  (4): BatchNorm2d(64, eps=1e-05, momentum=0.1, affine=True, track_running_stats=True)
                  (5): ReLU6()
                  (6): Conv2d(64, 64, kernel_size=(1, 1), stride=(1, 1))
                  (7): BatchNorm2d(64, eps=1e-05, momentum=0.1, affine=True, track_running_stats=True)
                )
              )
              (1): LeakyReLU(negative_slope=0.2, inplace=True)
              (2): conv_ds(
                (conv): Sequential(
                  (0): Conv2d(64, 64, kernel_size=(1, 1), stride=(1, 1))
                  (1): BatchNorm2d(64, eps=1e-05, momentum=0.1, affine=True, track_running_stats=True)
                  (2): ReLU6()
                  (3): Conv2d(64, 64, kernel_size=(1, 1), stride=(1, 1), groups=64, bias=False)
                  (4): BatchNorm2d(64, eps=1e-05, momentum=0.1, affine=True, track_running_stats=True)
                  (5): ReLU6()
                  (6): Conv2d(64, 64, kernel_size=(1, 1), stride=(1, 1))
                  (7): BatchNorm2d(64, eps=1e-05, momentum=0.1, affine=True, track_running_stats=True)
                )
              )
            )
          )
          (6): DPCB(
            (body1): Sequential(
              (0): conv_ds(
                (conv): Sequential(
                  (0): Conv2d(64, 64, kernel_size=(1, 1), stride=(1, 1))
                  (1): BatchNorm2d(64, eps=1e-05, momentum=0.1, affine=True, track_running_stats=True)
                  (2): ReLU6()
                  (3): Conv2d(64, 64, kernel_size=(3, 3), stride=(1, 1), padding=(1, 1), groups=64, bias=False)
                  (4): BatchNorm2d(64, eps=1e-05, momentum=0.1, affine=True, track_running_stats=True)
                  (5): ReLU6()
                  (6): Conv2d(64, 64, kernel_size=(1, 1), stride=(1, 1))
                  (7): BatchNorm2d(64, eps=1e-05, momentum=0.1, affine=True, track_running_stats=True)
                )
              )
              (1): LeakyReLU(negative_slope=0.2, inplace=True)
              (2): conv_ds(
                (conv): Sequential(
                  (0): Conv2d(64, 64, kernel_size=(1, 1), stride=(1, 1))
                  (1): BatchNorm2d(64, eps=1e-05, momentum=0.1, affine=True, track_running_stats=True)
                  (2): ReLU6()
                  (3): Conv2d(64, 64, kernel_size=(3, 3), stride=(1, 1), padding=(1, 1), groups=64, bias=False)
                  (4): BatchNorm2d(64, eps=1e-05, momentum=0.1, affine=True, track_running_stats=True)
                  (5): ReLU6()
                  (6): Conv2d(64, 64, kernel_size=(1, 1), stride=(1, 1))
                  (7): BatchNorm2d(64, eps=1e-05, momentum=0.1, affine=True, track_running_stats=True)
                )
              )
            )
            (body2): Sequential(
              (0): conv_ds(
                (conv): Sequential(
                  (0): Conv2d(64, 64, kernel_size=(1, 1), stride=(1, 1))
                  (1): BatchNorm2d(64, eps=1e-05, momentum=0.1, affine=True, track_running_stats=True)
                  (2): ReLU6()
                  (3): Conv2d(64, 64, kernel_size=(1, 1), stride=(1, 1), groups=64, bias=False)
                  (4): BatchNorm2d(64, eps=1e-05, momentum=0.1, affine=True, track_running_stats=True)
                  (5): ReLU6()
                  (6): Conv2d(64, 64, kernel_size=(1, 1), stride=(1, 1))
                  (7): BatchNorm2d(64, eps=1e-05, momentum=0.1, affine=True, track_running_stats=True)
                )
              )
              (1): LeakyReLU(negative_slope=0.2, inplace=True)
              (2): conv_ds(
                (conv): Sequential(
                  (0): Conv2d(64, 64, kernel_size=(1, 1), stride=(1, 1))
                  (1): BatchNorm2d(64, eps=1e-05, momentum=0.1, affine=True, track_running_stats=True)
                  (2): ReLU6()
                  (3): Conv2d(64, 64, kernel_size=(1, 1), stride=(1, 1), groups=64, bias=False)
                  (4): BatchNorm2d(64, eps=1e-05, momentum=0.1, affine=True, track_running_stats=True)
                  (5): ReLU6()
                  (6): Conv2d(64, 64, kernel_size=(1, 1), stride=(1, 1))
                  (7): BatchNorm2d(64, eps=1e-05, momentum=0.1, affine=True, track_running_stats=True)
                )
              )
            )
          )
          (7): DPCB(
            (body1): Sequential(
              (0): conv_ds(
                (conv): Sequential(
                  (0): Conv2d(64, 64, kernel_size=(1, 1), stride=(1, 1))
                  (1): BatchNorm2d(64, eps=1e-05, momentum=0.1, affine=True, track_running_stats=True)
                  (2): ReLU6()
                  (3): Conv2d(64, 64, kernel_size=(3, 3), stride=(1, 1), padding=(1, 1), groups=64, bias=False)
                  (4): BatchNorm2d(64, eps=1e-05, momentum=0.1, affine=True, track_running_stats=True)
                  (5): ReLU6()
                  (6): Conv2d(64, 64, kernel_size=(1, 1), stride=(1, 1))
                  (7): BatchNorm2d(64, eps=1e-05, momentum=0.1, affine=True, track_running_stats=True)
                )
              )
              (1): LeakyReLU(negative_slope=0.2, inplace=True)
              (2): conv_ds(
                (conv): Sequential(
                  (0): Conv2d(64, 64, kernel_size=(1, 1), stride=(1, 1))
                  (1): BatchNorm2d(64, eps=1e-05, momentum=0.1, affine=True, track_running_stats=True)
                  (2): ReLU6()
                  (3): Conv2d(64, 64, kernel_size=(3, 3), stride=(1, 1), padding=(1, 1), groups=64, bias=False)
                  (4): BatchNorm2d(64, eps=1e-05, momentum=0.1, affine=True, track_running_stats=True)
                  (5): ReLU6()
                  (6): Conv2d(64, 64, kernel_size=(1, 1), stride=(1, 1))
                  (7): BatchNorm2d(64, eps=1e-05, momentum=0.1, affine=True, track_running_stats=True)
                )
              )
            )
            (body2): Sequential(
              (0): conv_ds(
                (conv): Sequential(
                  (0): Conv2d(64, 64, kernel_size=(1, 1), stride=(1, 1))
                  (1): BatchNorm2d(64, eps=1e-05, momentum=0.1, affine=True, track_running_stats=True)
                  (2): ReLU6()
                  (3): Conv2d(64, 64, kernel_size=(1, 1), stride=(1, 1), groups=64, bias=False)
                  (4): BatchNorm2d(64, eps=1e-05, momentum=0.1, affine=True, track_running_stats=True)
                  (5): ReLU6()
                  (6): Conv2d(64, 64, kernel_size=(1, 1), stride=(1, 1))
                  (7): BatchNorm2d(64, eps=1e-05, momentum=0.1, affine=True, track_running_stats=True)
                )
              )
              (1): LeakyReLU(negative_slope=0.2, inplace=True)
              (2): conv_ds(
                (conv): Sequential(
                  (0): Conv2d(64, 64, kernel_size=(1, 1), stride=(1, 1))
                  (1): BatchNorm2d(64, eps=1e-05, momentum=0.1, affine=True, track_running_stats=True)
                  (2): ReLU6()
                  (3): Conv2d(64, 64, kernel_size=(1, 1), stride=(1, 1), groups=64, bias=False)
                  (4): BatchNorm2d(64, eps=1e-05, momentum=0.1, affine=True, track_running_stats=True)
                  (5): ReLU6()
                  (6): Conv2d(64, 64, kernel_size=(1, 1), stride=(1, 1))
                  (7): BatchNorm2d(64, eps=1e-05, momentum=0.1, affine=True, track_running_stats=True)
                )
              )
            )
          )
          (8): DPCB(
            (body1): Sequential(
              (0): conv_ds(
                (conv): Sequential(
                  (0): Conv2d(64, 64, kernel_size=(1, 1), stride=(1, 1))
                  (1): BatchNorm2d(64, eps=1e-05, momentum=0.1, affine=True, track_running_stats=True)
                  (2): ReLU6()
                  (3): Conv2d(64, 64, kernel_size=(3, 3), stride=(1, 1), padding=(1, 1), groups=64, bias=False)
                  (4): BatchNorm2d(64, eps=1e-05, momentum=0.1, affine=True, track_running_stats=True)
                  (5): ReLU6()
                  (6): Conv2d(64, 64, kernel_size=(1, 1), stride=(1, 1))
                  (7): BatchNorm2d(64, eps=1e-05, momentum=0.1, affine=True, track_running_stats=True)
                )
              )
              (1): LeakyReLU(negative_slope=0.2, inplace=True)
              (2): conv_ds(
                (conv): Sequential(
                  (0): Conv2d(64, 64, kernel_size=(1, 1), stride=(1, 1))
                  (1): BatchNorm2d(64, eps=1e-05, momentum=0.1, affine=True, track_running_stats=True)
                  (2): ReLU6()
                  (3): Conv2d(64, 64, kernel_size=(3, 3), stride=(1, 1), padding=(1, 1), groups=64, bias=False)
                  (4): BatchNorm2d(64, eps=1e-05, momentum=0.1, affine=True, track_running_stats=True)
                  (5): ReLU6()
                  (6): Conv2d(64, 64, kernel_size=(1, 1), stride=(1, 1))
                  (7): BatchNorm2d(64, eps=1e-05, momentum=0.1, affine=True, track_running_stats=True)
                )
              )
            )
            (body2): Sequential(
              (0): conv_ds(
                (conv): Sequential(
                  (0): Conv2d(64, 64, kernel_size=(1, 1), stride=(1, 1))
                  (1): BatchNorm2d(64, eps=1e-05, momentum=0.1, affine=True, track_running_stats=True)
                  (2): ReLU6()
                  (3): Conv2d(64, 64, kernel_size=(1, 1), stride=(1, 1), groups=64, bias=False)
                  (4): BatchNorm2d(64, eps=1e-05, momentum=0.1, affine=True, track_running_stats=True)
                  (5): ReLU6()
                  (6): Conv2d(64, 64, kernel_size=(1, 1), stride=(1, 1))
                  (7): BatchNorm2d(64, eps=1e-05, momentum=0.1, affine=True, track_running_stats=True)
                )
              )
              (1): LeakyReLU(negative_slope=0.2, inplace=True)
              (2): conv_ds(
                (conv): Sequential(
                  (0): Conv2d(64, 64, kernel_size=(1, 1), stride=(1, 1))
                  (1): BatchNorm2d(64, eps=1e-05, momentum=0.1, affine=True, track_running_stats=True)
                  (2): ReLU6()
                  (3): Conv2d(64, 64, kernel_size=(1, 1), stride=(1, 1), groups=64, bias=False)
                  (4): BatchNorm2d(64, eps=1e-05, momentum=0.1, affine=True, track_running_stats=True)
                  (5): ReLU6()
                  (6): Conv2d(64, 64, kernel_size=(1, 1), stride=(1, 1))
                  (7): BatchNorm2d(64, eps=1e-05, momentum=0.1, affine=True, track_running_stats=True)
                )
              )
            )
          )
          (9): DPCB(
            (body1): Sequential(
              (0): conv_ds(
                (conv): Sequential(
                  (0): Conv2d(64, 64, kernel_size=(1, 1), stride=(1, 1))
                  (1): BatchNorm2d(64, eps=1e-05, momentum=0.1, affine=True, track_running_stats=True)
                  (2): ReLU6()
                  (3): Conv2d(64, 64, kernel_size=(3, 3), stride=(1, 1), padding=(1, 1), groups=64, bias=False)
                  (4): BatchNorm2d(64, eps=1e-05, momentum=0.1, affine=True, track_running_stats=True)
                  (5): ReLU6()
                  (6): Conv2d(64, 64, kernel_size=(1, 1), stride=(1, 1))
                  (7): BatchNorm2d(64, eps=1e-05, momentum=0.1, affine=True, track_running_stats=True)
                )
              )
              (1): LeakyReLU(negative_slope=0.2, inplace=True)
              (2): conv_ds(
                (conv): Sequential(
                  (0): Conv2d(64, 64, kernel_size=(1, 1), stride=(1, 1))
                  (1): BatchNorm2d(64, eps=1e-05, momentum=0.1, affine=True, track_running_stats=True)
                  (2): ReLU6()
                  (3): Conv2d(64, 64, kernel_size=(3, 3), stride=(1, 1), padding=(1, 1), groups=64, bias=False)
                  (4): BatchNorm2d(64, eps=1e-05, momentum=0.1, affine=True, track_running_stats=True)
                  (5): ReLU6()
                  (6): Conv2d(64, 64, kernel_size=(1, 1), stride=(1, 1))
                  (7): BatchNorm2d(64, eps=1e-05, momentum=0.1, affine=True, track_running_stats=True)
                )
              )
            )
            (body2): Sequential(
              (0): conv_ds(
                (conv): Sequential(
                  (0): Conv2d(64, 64, kernel_size=(1, 1), stride=(1, 1))
                  (1): BatchNorm2d(64, eps=1e-05, momentum=0.1, affine=True, track_running_stats=True)
                  (2): ReLU6()
                  (3): Conv2d(64, 64, kernel_size=(1, 1), stride=(1, 1), groups=64, bias=False)
                  (4): BatchNorm2d(64, eps=1e-05, momentum=0.1, affine=True, track_running_stats=True)
                  (5): ReLU6()
                  (6): Conv2d(64, 64, kernel_size=(1, 1), stride=(1, 1))
                  (7): BatchNorm2d(64, eps=1e-05, momentum=0.1, affine=True, track_running_stats=True)
                )
              )
              (1): LeakyReLU(negative_slope=0.2, inplace=True)
              (2): conv_ds(
                (conv): Sequential(
                  (0): Conv2d(64, 64, kernel_size=(1, 1), stride=(1, 1))
                  (1): BatchNorm2d(64, eps=1e-05, momentum=0.1, affine=True, track_running_stats=True)
                  (2): ReLU6()
                  (3): Conv2d(64, 64, kernel_size=(1, 1), stride=(1, 1), groups=64, bias=False)
                  (4): BatchNorm2d(64, eps=1e-05, momentum=0.1, affine=True, track_running_stats=True)
                  (5): ReLU6()
                  (6): Conv2d(64, 64, kernel_size=(1, 1), stride=(1, 1))
                  (7): BatchNorm2d(64, eps=1e-05, momentum=0.1, affine=True, track_running_stats=True)
                )
              )
            )
          )
        )
      )
      (1): DPCG(
        (body): Sequential(
          (0): DPCB(
            (body1): Sequential(
              (0): conv_ds(
                (conv): Sequential(
                  (0): Conv2d(64, 64, kernel_size=(1, 1), stride=(1, 1))
                  (1): BatchNorm2d(64, eps=1e-05, momentum=0.1, affine=True, track_running_stats=True)
                  (2): ReLU6()
                  (3): Conv2d(64, 64, kernel_size=(3, 3), stride=(1, 1), padding=(1, 1), groups=64, bias=False)
                  (4): BatchNorm2d(64, eps=1e-05, momentum=0.1, affine=True, track_running_stats=True)
                  (5): ReLU6()
                  (6): Conv2d(64, 64, kernel_size=(1, 1), stride=(1, 1))
                  (7): BatchNorm2d(64, eps=1e-05, momentum=0.1, affine=True, track_running_stats=True)
                )
              )
              (1): LeakyReLU(negative_slope=0.2, inplace=True)
              (2): conv_ds(
                (conv): Sequential(
                  (0): Conv2d(64, 64, kernel_size=(1, 1), stride=(1, 1))
                  (1): BatchNorm2d(64, eps=1e-05, momentum=0.1, affine=True, track_running_stats=True)
                  (2): ReLU6()
                  (3): Conv2d(64, 64, kernel_size=(3, 3), stride=(1, 1), padding=(1, 1), groups=64, bias=False)
                  (4): BatchNorm2d(64, eps=1e-05, momentum=0.1, affine=True, track_running_stats=True)
                  (5): ReLU6()
                  (6): Conv2d(64, 64, kernel_size=(1, 1), stride=(1, 1))
                  (7): BatchNorm2d(64, eps=1e-05, momentum=0.1, affine=True, track_running_stats=True)
                )
              )
            )
            (body2): Sequential(
              (0): conv_ds(
                (conv): Sequential(
                  (0): Conv2d(64, 64, kernel_size=(1, 1), stride=(1, 1))
                  (1): BatchNorm2d(64, eps=1e-05, momentum=0.1, affine=True, track_running_stats=True)
                  (2): ReLU6()
                  (3): Conv2d(64, 64, kernel_size=(1, 1), stride=(1, 1), groups=64, bias=False)
                  (4): BatchNorm2d(64, eps=1e-05, momentum=0.1, affine=True, track_running_stats=True)
                  (5): ReLU6()
                  (6): Conv2d(64, 64, kernel_size=(1, 1), stride=(1, 1))
                  (7): BatchNorm2d(64, eps=1e-05, momentum=0.1, affine=True, track_running_stats=True)
                )
              )
              (1): LeakyReLU(negative_slope=0.2, inplace=True)
              (2): conv_ds(
                (conv): Sequential(
                  (0): Conv2d(64, 64, kernel_size=(1, 1), stride=(1, 1))
                  (1): BatchNorm2d(64, eps=1e-05, momentum=0.1, affine=True, track_running_stats=True)
                  (2): ReLU6()
                  (3): Conv2d(64, 64, kernel_size=(1, 1), stride=(1, 1), groups=64, bias=False)
                  (4): BatchNorm2d(64, eps=1e-05, momentum=0.1, affine=True, track_running_stats=True)
                  (5): ReLU6()
                  (6): Conv2d(64, 64, kernel_size=(1, 1), stride=(1, 1))
                  (7): BatchNorm2d(64, eps=1e-05, momentum=0.1, affine=True, track_running_stats=True)
                )
              )
            )
          )
          (1): DPCB(
            (body1): Sequential(
              (0): conv_ds(
                (conv): Sequential(
                  (0): Conv2d(64, 64, kernel_size=(1, 1), stride=(1, 1))
                  (1): BatchNorm2d(64, eps=1e-05, momentum=0.1, affine=True, track_running_stats=True)
                  (2): ReLU6()
                  (3): Conv2d(64, 64, kernel_size=(3, 3), stride=(1, 1), padding=(1, 1), groups=64, bias=False)
                  (4): BatchNorm2d(64, eps=1e-05, momentum=0.1, affine=True, track_running_stats=True)
                  (5): ReLU6()
                  (6): Conv2d(64, 64, kernel_size=(1, 1), stride=(1, 1))
                  (7): BatchNorm2d(64, eps=1e-05, momentum=0.1, affine=True, track_running_stats=True)
                )
              )
              (1): LeakyReLU(negative_slope=0.2, inplace=True)
              (2): conv_ds(
                (conv): Sequential(
                  (0): Conv2d(64, 64, kernel_size=(1, 1), stride=(1, 1))
                  (1): BatchNorm2d(64, eps=1e-05, momentum=0.1, affine=True, track_running_stats=True)
                  (2): ReLU6()
                  (3): Conv2d(64, 64, kernel_size=(3, 3), stride=(1, 1), padding=(1, 1), groups=64, bias=False)
                  (4): BatchNorm2d(64, eps=1e-05, momentum=0.1, affine=True, track_running_stats=True)
                  (5): ReLU6()
                  (6): Conv2d(64, 64, kernel_size=(1, 1), stride=(1, 1))
                  (7): BatchNorm2d(64, eps=1e-05, momentum=0.1, affine=True, track_running_stats=True)
                )
              )
            )
            (body2): Sequential(
              (0): conv_ds(
                (conv): Sequential(
                  (0): Conv2d(64, 64, kernel_size=(1, 1), stride=(1, 1))
                  (1): BatchNorm2d(64, eps=1e-05, momentum=0.1, affine=True, track_running_stats=True)
                  (2): ReLU6()
                  (3): Conv2d(64, 64, kernel_size=(1, 1), stride=(1, 1), groups=64, bias=False)
                  (4): BatchNorm2d(64, eps=1e-05, momentum=0.1, affine=True, track_running_stats=True)
                  (5): ReLU6()
                  (6): Conv2d(64, 64, kernel_size=(1, 1), stride=(1, 1))
                  (7): BatchNorm2d(64, eps=1e-05, momentum=0.1, affine=True, track_running_stats=True)
                )
              )
              (1): LeakyReLU(negative_slope=0.2, inplace=True)
              (2): conv_ds(
                (conv): Sequential(
                  (0): Conv2d(64, 64, kernel_size=(1, 1), stride=(1, 1))
                  (1): BatchNorm2d(64, eps=1e-05, momentum=0.1, affine=True, track_running_stats=True)
                  (2): ReLU6()
                  (3): Conv2d(64, 64, kernel_size=(1, 1), stride=(1, 1), groups=64, bias=False)
                  (4): BatchNorm2d(64, eps=1e-05, momentum=0.1, affine=True, track_running_stats=True)
                  (5): ReLU6()
                  (6): Conv2d(64, 64, kernel_size=(1, 1), stride=(1, 1))
                  (7): BatchNorm2d(64, eps=1e-05, momentum=0.1, affine=True, track_running_stats=True)
                )
              )
            )
          )
          (2): DPCB(
            (body1): Sequential(
              (0): conv_ds(
                (conv): Sequential(
                  (0): Conv2d(64, 64, kernel_size=(1, 1), stride=(1, 1))
                  (1): BatchNorm2d(64, eps=1e-05, momentum=0.1, affine=True, track_running_stats=True)
                  (2): ReLU6()
                  (3): Conv2d(64, 64, kernel_size=(3, 3), stride=(1, 1), padding=(1, 1), groups=64, bias=False)
                  (4): BatchNorm2d(64, eps=1e-05, momentum=0.1, affine=True, track_running_stats=True)
                  (5): ReLU6()
                  (6): Conv2d(64, 64, kernel_size=(1, 1), stride=(1, 1))
                  (7): BatchNorm2d(64, eps=1e-05, momentum=0.1, affine=True, track_running_stats=True)
                )
              )
              (1): LeakyReLU(negative_slope=0.2, inplace=True)
              (2): conv_ds(
                (conv): Sequential(
                  (0): Conv2d(64, 64, kernel_size=(1, 1), stride=(1, 1))
                  (1): BatchNorm2d(64, eps=1e-05, momentum=0.1, affine=True, track_running_stats=True)
                  (2): ReLU6()
                  (3): Conv2d(64, 64, kernel_size=(3, 3), stride=(1, 1), padding=(1, 1), groups=64, bias=False)
                  (4): BatchNorm2d(64, eps=1e-05, momentum=0.1, affine=True, track_running_stats=True)
                  (5): ReLU6()
                  (6): Conv2d(64, 64, kernel_size=(1, 1), stride=(1, 1))
                  (7): BatchNorm2d(64, eps=1e-05, momentum=0.1, affine=True, track_running_stats=True)
                )
              )
            )
            (body2): Sequential(
              (0): conv_ds(
                (conv): Sequential(
                  (0): Conv2d(64, 64, kernel_size=(1, 1), stride=(1, 1))
                  (1): BatchNorm2d(64, eps=1e-05, momentum=0.1, affine=True, track_running_stats=True)
                  (2): ReLU6()
                  (3): Conv2d(64, 64, kernel_size=(1, 1), stride=(1, 1), groups=64, bias=False)
                  (4): BatchNorm2d(64, eps=1e-05, momentum=0.1, affine=True, track_running_stats=True)
                  (5): ReLU6()
                  (6): Conv2d(64, 64, kernel_size=(1, 1), stride=(1, 1))
                  (7): BatchNorm2d(64, eps=1e-05, momentum=0.1, affine=True, track_running_stats=True)
                )
              )
              (1): LeakyReLU(negative_slope=0.2, inplace=True)
              (2): conv_ds(
                (conv): Sequential(
                  (0): Conv2d(64, 64, kernel_size=(1, 1), stride=(1, 1))
                  (1): BatchNorm2d(64, eps=1e-05, momentum=0.1, affine=True, track_running_stats=True)
                  (2): ReLU6()
                  (3): Conv2d(64, 64, kernel_size=(1, 1), stride=(1, 1), groups=64, bias=False)
                  (4): BatchNorm2d(64, eps=1e-05, momentum=0.1, affine=True, track_running_stats=True)
                  (5): ReLU6()
                  (6): Conv2d(64, 64, kernel_size=(1, 1), stride=(1, 1))
                  (7): BatchNorm2d(64, eps=1e-05, momentum=0.1, affine=True, track_running_stats=True)
                )
              )
            )
          )
          (3): DPCB(
            (body1): Sequential(
              (0): conv_ds(
                (conv): Sequential(
                  (0): Conv2d(64, 64, kernel_size=(1, 1), stride=(1, 1))
                  (1): BatchNorm2d(64, eps=1e-05, momentum=0.1, affine=True, track_running_stats=True)
                  (2): ReLU6()
                  (3): Conv2d(64, 64, kernel_size=(3, 3), stride=(1, 1), padding=(1, 1), groups=64, bias=False)
                  (4): BatchNorm2d(64, eps=1e-05, momentum=0.1, affine=True, track_running_stats=True)
                  (5): ReLU6()
                  (6): Conv2d(64, 64, kernel_size=(1, 1), stride=(1, 1))
                  (7): BatchNorm2d(64, eps=1e-05, momentum=0.1, affine=True, track_running_stats=True)
                )
              )
              (1): LeakyReLU(negative_slope=0.2, inplace=True)
              (2): conv_ds(
                (conv): Sequential(
                  (0): Conv2d(64, 64, kernel_size=(1, 1), stride=(1, 1))
                  (1): BatchNorm2d(64, eps=1e-05, momentum=0.1, affine=True, track_running_stats=True)
                  (2): ReLU6()
                  (3): Conv2d(64, 64, kernel_size=(3, 3), stride=(1, 1), padding=(1, 1), groups=64, bias=False)
                  (4): BatchNorm2d(64, eps=1e-05, momentum=0.1, affine=True, track_running_stats=True)
                  (5): ReLU6()
                  (6): Conv2d(64, 64, kernel_size=(1, 1), stride=(1, 1))
                  (7): BatchNorm2d(64, eps=1e-05, momentum=0.1, affine=True, track_running_stats=True)
                )
              )
            )
            (body2): Sequential(
              (0): conv_ds(
                (conv): Sequential(
                  (0): Conv2d(64, 64, kernel_size=(1, 1), stride=(1, 1))
                  (1): BatchNorm2d(64, eps=1e-05, momentum=0.1, affine=True, track_running_stats=True)
                  (2): ReLU6()
                  (3): Conv2d(64, 64, kernel_size=(1, 1), stride=(1, 1), groups=64, bias=False)
                  (4): BatchNorm2d(64, eps=1e-05, momentum=0.1, affine=True, track_running_stats=True)
                  (5): ReLU6()
                  (6): Conv2d(64, 64, kernel_size=(1, 1), stride=(1, 1))
                  (7): BatchNorm2d(64, eps=1e-05, momentum=0.1, affine=True, track_running_stats=True)
                )
              )
              (1): LeakyReLU(negative_slope=0.2, inplace=True)
              (2): conv_ds(
                (conv): Sequential(
                  (0): Conv2d(64, 64, kernel_size=(1, 1), stride=(1, 1))
                  (1): BatchNorm2d(64, eps=1e-05, momentum=0.1, affine=True, track_running_stats=True)
                  (2): ReLU6()
                  (3): Conv2d(64, 64, kernel_size=(1, 1), stride=(1, 1), groups=64, bias=False)
                  (4): BatchNorm2d(64, eps=1e-05, momentum=0.1, affine=True, track_running_stats=True)
                  (5): ReLU6()
                  (6): Conv2d(64, 64, kernel_size=(1, 1), stride=(1, 1))
                  (7): BatchNorm2d(64, eps=1e-05, momentum=0.1, affine=True, track_running_stats=True)
                )
              )
            )
          )
          (4): DPCB(
            (body1): Sequential(
              (0): conv_ds(
                (conv): Sequential(
                  (0): Conv2d(64, 64, kernel_size=(1, 1), stride=(1, 1))
                  (1): BatchNorm2d(64, eps=1e-05, momentum=0.1, affine=True, track_running_stats=True)
                  (2): ReLU6()
                  (3): Conv2d(64, 64, kernel_size=(3, 3), stride=(1, 1), padding=(1, 1), groups=64, bias=False)
                  (4): BatchNorm2d(64, eps=1e-05, momentum=0.1, affine=True, track_running_stats=True)
                  (5): ReLU6()
                  (6): Conv2d(64, 64, kernel_size=(1, 1), stride=(1, 1))
                  (7): BatchNorm2d(64, eps=1e-05, momentum=0.1, affine=True, track_running_stats=True)
                )
              )
              (1): LeakyReLU(negative_slope=0.2, inplace=True)
              (2): conv_ds(
                (conv): Sequential(
                  (0): Conv2d(64, 64, kernel_size=(1, 1), stride=(1, 1))
                  (1): BatchNorm2d(64, eps=1e-05, momentum=0.1, affine=True, track_running_stats=True)
                  (2): ReLU6()
                  (3): Conv2d(64, 64, kernel_size=(3, 3), stride=(1, 1), padding=(1, 1), groups=64, bias=False)
                  (4): BatchNorm2d(64, eps=1e-05, momentum=0.1, affine=True, track_running_stats=True)
                  (5): ReLU6()
                  (6): Conv2d(64, 64, kernel_size=(1, 1), stride=(1, 1))
                  (7): BatchNorm2d(64, eps=1e-05, momentum=0.1, affine=True, track_running_stats=True)
                )
              )
            )
            (body2): Sequential(
              (0): conv_ds(
                (conv): Sequential(
                  (0): Conv2d(64, 64, kernel_size=(1, 1), stride=(1, 1))
                  (1): BatchNorm2d(64, eps=1e-05, momentum=0.1, affine=True, track_running_stats=True)
                  (2): ReLU6()
                  (3): Conv2d(64, 64, kernel_size=(1, 1), stride=(1, 1), groups=64, bias=False)
                  (4): BatchNorm2d(64, eps=1e-05, momentum=0.1, affine=True, track_running_stats=True)
                  (5): ReLU6()
                  (6): Conv2d(64, 64, kernel_size=(1, 1), stride=(1, 1))
                  (7): BatchNorm2d(64, eps=1e-05, momentum=0.1, affine=True, track_running_stats=True)
                )
              )
              (1): LeakyReLU(negative_slope=0.2, inplace=True)
              (2): conv_ds(
                (conv): Sequential(
                  (0): Conv2d(64, 64, kernel_size=(1, 1), stride=(1, 1))
                  (1): BatchNorm2d(64, eps=1e-05, momentum=0.1, affine=True, track_running_stats=True)
                  (2): ReLU6()
                  (3): Conv2d(64, 64, kernel_size=(1, 1), stride=(1, 1), groups=64, bias=False)
                  (4): BatchNorm2d(64, eps=1e-05, momentum=0.1, affine=True, track_running_stats=True)
                  (5): ReLU6()
                  (6): Conv2d(64, 64, kernel_size=(1, 1), stride=(1, 1))
                  (7): BatchNorm2d(64, eps=1e-05, momentum=0.1, affine=True, track_running_stats=True)
                )
              )
            )
          )
          (5): DPCB(
            (body1): Sequential(
              (0): conv_ds(
                (conv): Sequential(
                  (0): Conv2d(64, 64, kernel_size=(1, 1), stride=(1, 1))
                  (1): BatchNorm2d(64, eps=1e-05, momentum=0.1, affine=True, track_running_stats=True)
                  (2): ReLU6()
                  (3): Conv2d(64, 64, kernel_size=(3, 3), stride=(1, 1), padding=(1, 1), groups=64, bias=False)
                  (4): BatchNorm2d(64, eps=1e-05, momentum=0.1, affine=True, track_running_stats=True)
                  (5): ReLU6()
                  (6): Conv2d(64, 64, kernel_size=(1, 1), stride=(1, 1))
                  (7): BatchNorm2d(64, eps=1e-05, momentum=0.1, affine=True, track_running_stats=True)
                )
              )
              (1): LeakyReLU(negative_slope=0.2, inplace=True)
              (2): conv_ds(
                (conv): Sequential(
                  (0): Conv2d(64, 64, kernel_size=(1, 1), stride=(1, 1))
                  (1): BatchNorm2d(64, eps=1e-05, momentum=0.1, affine=True, track_running_stats=True)
                  (2): ReLU6()
                  (3): Conv2d(64, 64, kernel_size=(3, 3), stride=(1, 1), padding=(1, 1), groups=64, bias=False)
                  (4): BatchNorm2d(64, eps=1e-05, momentum=0.1, affine=True, track_running_stats=True)
                  (5): ReLU6()
                  (6): Conv2d(64, 64, kernel_size=(1, 1), stride=(1, 1))
                  (7): BatchNorm2d(64, eps=1e-05, momentum=0.1, affine=True, track_running_stats=True)
                )
              )
            )
            (body2): Sequential(
              (0): conv_ds(
                (conv): Sequential(
                  (0): Conv2d(64, 64, kernel_size=(1, 1), stride=(1, 1))
                  (1): BatchNorm2d(64, eps=1e-05, momentum=0.1, affine=True, track_running_stats=True)
                  (2): ReLU6()
                  (3): Conv2d(64, 64, kernel_size=(1, 1), stride=(1, 1), groups=64, bias=False)
                  (4): BatchNorm2d(64, eps=1e-05, momentum=0.1, affine=True, track_running_stats=True)
                  (5): ReLU6()
                  (6): Conv2d(64, 64, kernel_size=(1, 1), stride=(1, 1))
                  (7): BatchNorm2d(64, eps=1e-05, momentum=0.1, affine=True, track_running_stats=True)
                )
              )
              (1): LeakyReLU(negative_slope=0.2, inplace=True)
              (2): conv_ds(
                (conv): Sequential(
                  (0): Conv2d(64, 64, kernel_size=(1, 1), stride=(1, 1))
                  (1): BatchNorm2d(64, eps=1e-05, momentum=0.1, affine=True, track_running_stats=True)
                  (2): ReLU6()
                  (3): Conv2d(64, 64, kernel_size=(1, 1), stride=(1, 1), groups=64, bias=False)
                  (4): BatchNorm2d(64, eps=1e-05, momentum=0.1, affine=True, track_running_stats=True)
                  (5): ReLU6()
                  (6): Conv2d(64, 64, kernel_size=(1, 1), stride=(1, 1))
                  (7): BatchNorm2d(64, eps=1e-05, momentum=0.1, affine=True, track_running_stats=True)
                )
              )
            )
          )
          (6): DPCB(
            (body1): Sequential(
              (0): conv_ds(
                (conv): Sequential(
                  (0): Conv2d(64, 64, kernel_size=(1, 1), stride=(1, 1))
                  (1): BatchNorm2d(64, eps=1e-05, momentum=0.1, affine=True, track_running_stats=True)
                  (2): ReLU6()
                  (3): Conv2d(64, 64, kernel_size=(3, 3), stride=(1, 1), padding=(1, 1), groups=64, bias=False)
                  (4): BatchNorm2d(64, eps=1e-05, momentum=0.1, affine=True, track_running_stats=True)
                  (5): ReLU6()
                  (6): Conv2d(64, 64, kernel_size=(1, 1), stride=(1, 1))
                  (7): BatchNorm2d(64, eps=1e-05, momentum=0.1, affine=True, track_running_stats=True)
                )
              )
              (1): LeakyReLU(negative_slope=0.2, inplace=True)
              (2): conv_ds(
                (conv): Sequential(
                  (0): Conv2d(64, 64, kernel_size=(1, 1), stride=(1, 1))
                  (1): BatchNorm2d(64, eps=1e-05, momentum=0.1, affine=True, track_running_stats=True)
                  (2): ReLU6()
                  (3): Conv2d(64, 64, kernel_size=(3, 3), stride=(1, 1), padding=(1, 1), groups=64, bias=False)
                  (4): BatchNorm2d(64, eps=1e-05, momentum=0.1, affine=True, track_running_stats=True)
                  (5): ReLU6()
                  (6): Conv2d(64, 64, kernel_size=(1, 1), stride=(1, 1))
                  (7): BatchNorm2d(64, eps=1e-05, momentum=0.1, affine=True, track_running_stats=True)
                )
              )
            )
            (body2): Sequential(
              (0): conv_ds(
                (conv): Sequential(
                  (0): Conv2d(64, 64, kernel_size=(1, 1), stride=(1, 1))
                  (1): BatchNorm2d(64, eps=1e-05, momentum=0.1, affine=True, track_running_stats=True)
                  (2): ReLU6()
                  (3): Conv2d(64, 64, kernel_size=(1, 1), stride=(1, 1), groups=64, bias=False)
                  (4): BatchNorm2d(64, eps=1e-05, momentum=0.1, affine=True, track_running_stats=True)
                  (5): ReLU6()
                  (6): Conv2d(64, 64, kernel_size=(1, 1), stride=(1, 1))
                  (7): BatchNorm2d(64, eps=1e-05, momentum=0.1, affine=True, track_running_stats=True)
                )
              )
              (1): LeakyReLU(negative_slope=0.2, inplace=True)
              (2): conv_ds(
                (conv): Sequential(
                  (0): Conv2d(64, 64, kernel_size=(1, 1), stride=(1, 1))
                  (1): BatchNorm2d(64, eps=1e-05, momentum=0.1, affine=True, track_running_stats=True)
                  (2): ReLU6()
                  (3): Conv2d(64, 64, kernel_size=(1, 1), stride=(1, 1), groups=64, bias=False)
                  (4): BatchNorm2d(64, eps=1e-05, momentum=0.1, affine=True, track_running_stats=True)
                  (5): ReLU6()
                  (6): Conv2d(64, 64, kernel_size=(1, 1), stride=(1, 1))
                  (7): BatchNorm2d(64, eps=1e-05, momentum=0.1, affine=True, track_running_stats=True)
                )
              )
            )
          )
          (7): DPCB(
            (body1): Sequential(
              (0): conv_ds(
                (conv): Sequential(
                  (0): Conv2d(64, 64, kernel_size=(1, 1), stride=(1, 1))
                  (1): BatchNorm2d(64, eps=1e-05, momentum=0.1, affine=True, track_running_stats=True)
                  (2): ReLU6()
                  (3): Conv2d(64, 64, kernel_size=(3, 3), stride=(1, 1), padding=(1, 1), groups=64, bias=False)
                  (4): BatchNorm2d(64, eps=1e-05, momentum=0.1, affine=True, track_running_stats=True)
                  (5): ReLU6()
                  (6): Conv2d(64, 64, kernel_size=(1, 1), stride=(1, 1))
                  (7): BatchNorm2d(64, eps=1e-05, momentum=0.1, affine=True, track_running_stats=True)
                )
              )
              (1): LeakyReLU(negative_slope=0.2, inplace=True)
              (2): conv_ds(
                (conv): Sequential(
                  (0): Conv2d(64, 64, kernel_size=(1, 1), stride=(1, 1))
                  (1): BatchNorm2d(64, eps=1e-05, momentum=0.1, affine=True, track_running_stats=True)
                  (2): ReLU6()
                  (3): Conv2d(64, 64, kernel_size=(3, 3), stride=(1, 1), padding=(1, 1), groups=64, bias=False)
                  (4): BatchNorm2d(64, eps=1e-05, momentum=0.1, affine=True, track_running_stats=True)
                  (5): ReLU6()
                  (6): Conv2d(64, 64, kernel_size=(1, 1), stride=(1, 1))
                  (7): BatchNorm2d(64, eps=1e-05, momentum=0.1, affine=True, track_running_stats=True)
                )
              )
            )
            (body2): Sequential(
              (0): conv_ds(
                (conv): Sequential(
                  (0): Conv2d(64, 64, kernel_size=(1, 1), stride=(1, 1))
                  (1): BatchNorm2d(64, eps=1e-05, momentum=0.1, affine=True, track_running_stats=True)
                  (2): ReLU6()
                  (3): Conv2d(64, 64, kernel_size=(1, 1), stride=(1, 1), groups=64, bias=False)
                  (4): BatchNorm2d(64, eps=1e-05, momentum=0.1, affine=True, track_running_stats=True)
                  (5): ReLU6()
                  (6): Conv2d(64, 64, kernel_size=(1, 1), stride=(1, 1))
                  (7): BatchNorm2d(64, eps=1e-05, momentum=0.1, affine=True, track_running_stats=True)
                )
              )
              (1): LeakyReLU(negative_slope=0.2, inplace=True)
              (2): conv_ds(
                (conv): Sequential(
                  (0): Conv2d(64, 64, kernel_size=(1, 1), stride=(1, 1))
                  (1): BatchNorm2d(64, eps=1e-05, momentum=0.1, affine=True, track_running_stats=True)
                  (2): ReLU6()
                  (3): Conv2d(64, 64, kernel_size=(1, 1), stride=(1, 1), groups=64, bias=False)
                  (4): BatchNorm2d(64, eps=1e-05, momentum=0.1, affine=True, track_running_stats=True)
                  (5): ReLU6()
                  (6): Conv2d(64, 64, kernel_size=(1, 1), stride=(1, 1))
                  (7): BatchNorm2d(64, eps=1e-05, momentum=0.1, affine=True, track_running_stats=True)
                )
              )
            )
          )
          (8): DPCB(
            (body1): Sequential(
              (0): conv_ds(
                (conv): Sequential(
                  (0): Conv2d(64, 64, kernel_size=(1, 1), stride=(1, 1))
                  (1): BatchNorm2d(64, eps=1e-05, momentum=0.1, affine=True, track_running_stats=True)
                  (2): ReLU6()
                  (3): Conv2d(64, 64, kernel_size=(3, 3), stride=(1, 1), padding=(1, 1), groups=64, bias=False)
                  (4): BatchNorm2d(64, eps=1e-05, momentum=0.1, affine=True, track_running_stats=True)
                  (5): ReLU6()
                  (6): Conv2d(64, 64, kernel_size=(1, 1), stride=(1, 1))
                  (7): BatchNorm2d(64, eps=1e-05, momentum=0.1, affine=True, track_running_stats=True)
                )
              )
              (1): LeakyReLU(negative_slope=0.2, inplace=True)
              (2): conv_ds(
                (conv): Sequential(
                  (0): Conv2d(64, 64, kernel_size=(1, 1), stride=(1, 1))
                  (1): BatchNorm2d(64, eps=1e-05, momentum=0.1, affine=True, track_running_stats=True)
                  (2): ReLU6()
                  (3): Conv2d(64, 64, kernel_size=(3, 3), stride=(1, 1), padding=(1, 1), groups=64, bias=False)
                  (4): BatchNorm2d(64, eps=1e-05, momentum=0.1, affine=True, track_running_stats=True)
                  (5): ReLU6()
                  (6): Conv2d(64, 64, kernel_size=(1, 1), stride=(1, 1))
                  (7): BatchNorm2d(64, eps=1e-05, momentum=0.1, affine=True, track_running_stats=True)
                )
              )
            )
            (body2): Sequential(
              (0): conv_ds(
                (conv): Sequential(
                  (0): Conv2d(64, 64, kernel_size=(1, 1), stride=(1, 1))
                  (1): BatchNorm2d(64, eps=1e-05, momentum=0.1, affine=True, track_running_stats=True)
                  (2): ReLU6()
                  (3): Conv2d(64, 64, kernel_size=(1, 1), stride=(1, 1), groups=64, bias=False)
                  (4): BatchNorm2d(64, eps=1e-05, momentum=0.1, affine=True, track_running_stats=True)
                  (5): ReLU6()
                  (6): Conv2d(64, 64, kernel_size=(1, 1), stride=(1, 1))
                  (7): BatchNorm2d(64, eps=1e-05, momentum=0.1, affine=True, track_running_stats=True)
                )
              )
              (1): LeakyReLU(negative_slope=0.2, inplace=True)
              (2): conv_ds(
                (conv): Sequential(
                  (0): Conv2d(64, 64, kernel_size=(1, 1), stride=(1, 1))
                  (1): BatchNorm2d(64, eps=1e-05, momentum=0.1, affine=True, track_running_stats=True)
                  (2): ReLU6()
                  (3): Conv2d(64, 64, kernel_size=(1, 1), stride=(1, 1), groups=64, bias=False)
                  (4): BatchNorm2d(64, eps=1e-05, momentum=0.1, affine=True, track_running_stats=True)
                  (5): ReLU6()
                  (6): Conv2d(64, 64, kernel_size=(1, 1), stride=(1, 1))
                  (7): BatchNorm2d(64, eps=1e-05, momentum=0.1, affine=True, track_running_stats=True)
                )
              )
            )
          )
          (9): DPCB(
            (body1): Sequential(
              (0): conv_ds(
                (conv): Sequential(
                  (0): Conv2d(64, 64, kernel_size=(1, 1), stride=(1, 1))
                  (1): BatchNorm2d(64, eps=1e-05, momentum=0.1, affine=True, track_running_stats=True)
                  (2): ReLU6()
                  (3): Conv2d(64, 64, kernel_size=(3, 3), stride=(1, 1), padding=(1, 1), groups=64, bias=False)
                  (4): BatchNorm2d(64, eps=1e-05, momentum=0.1, affine=True, track_running_stats=True)
                  (5): ReLU6()
                  (6): Conv2d(64, 64, kernel_size=(1, 1), stride=(1, 1))
                  (7): BatchNorm2d(64, eps=1e-05, momentum=0.1, affine=True, track_running_stats=True)
                )
              )
              (1): LeakyReLU(negative_slope=0.2, inplace=True)
              (2): conv_ds(
                (conv): Sequential(
                  (0): Conv2d(64, 64, kernel_size=(1, 1), stride=(1, 1))
                  (1): BatchNorm2d(64, eps=1e-05, momentum=0.1, affine=True, track_running_stats=True)
                  (2): ReLU6()
                  (3): Conv2d(64, 64, kernel_size=(3, 3), stride=(1, 1), padding=(1, 1), groups=64, bias=False)
                  (4): BatchNorm2d(64, eps=1e-05, momentum=0.1, affine=True, track_running_stats=True)
                  (5): ReLU6()
                  (6): Conv2d(64, 64, kernel_size=(1, 1), stride=(1, 1))
                  (7): BatchNorm2d(64, eps=1e-05, momentum=0.1, affine=True, track_running_stats=True)
                )
              )
            )
            (body2): Sequential(
              (0): conv_ds(
                (conv): Sequential(
                  (0): Conv2d(64, 64, kernel_size=(1, 1), stride=(1, 1))
                  (1): BatchNorm2d(64, eps=1e-05, momentum=0.1, affine=True, track_running_stats=True)
                  (2): ReLU6()
                  (3): Conv2d(64, 64, kernel_size=(1, 1), stride=(1, 1), groups=64, bias=False)
                  (4): BatchNorm2d(64, eps=1e-05, momentum=0.1, affine=True, track_running_stats=True)
                  (5): ReLU6()
                  (6): Conv2d(64, 64, kernel_size=(1, 1), stride=(1, 1))
                  (7): BatchNorm2d(64, eps=1e-05, momentum=0.1, affine=True, track_running_stats=True)
                )
              )
              (1): LeakyReLU(negative_slope=0.2, inplace=True)
              (2): conv_ds(
                (conv): Sequential(
                  (0): Conv2d(64, 64, kernel_size=(1, 1), stride=(1, 1))
                  (1): BatchNorm2d(64, eps=1e-05, momentum=0.1, affine=True, track_running_stats=True)
                  (2): ReLU6()
                  (3): Conv2d(64, 64, kernel_size=(1, 1), stride=(1, 1), groups=64, bias=False)
                  (4): BatchNorm2d(64, eps=1e-05, momentum=0.1, affine=True, track_running_stats=True)
                  (5): ReLU6()
                  (6): Conv2d(64, 64, kernel_size=(1, 1), stride=(1, 1))
                  (7): BatchNorm2d(64, eps=1e-05, momentum=0.1, affine=True, track_running_stats=True)
                )
              )
            )
          )
        )
      )
      (2): DPCG(
        (body): Sequential(
          (0): DPCB(
            (body1): Sequential(
              (0): conv_ds(
                (conv): Sequential(
                  (0): Conv2d(64, 64, kernel_size=(1, 1), stride=(1, 1))
                  (1): BatchNorm2d(64, eps=1e-05, momentum=0.1, affine=True, track_running_stats=True)
                  (2): ReLU6()
                  (3): Conv2d(64, 64, kernel_size=(3, 3), stride=(1, 1), padding=(1, 1), groups=64, bias=False)
                  (4): BatchNorm2d(64, eps=1e-05, momentum=0.1, affine=True, track_running_stats=True)
                  (5): ReLU6()
                  (6): Conv2d(64, 64, kernel_size=(1, 1), stride=(1, 1))
                  (7): BatchNorm2d(64, eps=1e-05, momentum=0.1, affine=True, track_running_stats=True)
                )
              )
              (1): LeakyReLU(negative_slope=0.2, inplace=True)
              (2): conv_ds(
                (conv): Sequential(
                  (0): Conv2d(64, 64, kernel_size=(1, 1), stride=(1, 1))
                  (1): BatchNorm2d(64, eps=1e-05, momentum=0.1, affine=True, track_running_stats=True)
                  (2): ReLU6()
                  (3): Conv2d(64, 64, kernel_size=(3, 3), stride=(1, 1), padding=(1, 1), groups=64, bias=False)
                  (4): BatchNorm2d(64, eps=1e-05, momentum=0.1, affine=True, track_running_stats=True)
                  (5): ReLU6()
                  (6): Conv2d(64, 64, kernel_size=(1, 1), stride=(1, 1))
                  (7): BatchNorm2d(64, eps=1e-05, momentum=0.1, affine=True, track_running_stats=True)
                )
              )
            )
            (body2): Sequential(
              (0): conv_ds(
                (conv): Sequential(
                  (0): Conv2d(64, 64, kernel_size=(1, 1), stride=(1, 1))
                  (1): BatchNorm2d(64, eps=1e-05, momentum=0.1, affine=True, track_running_stats=True)
                  (2): ReLU6()
                  (3): Conv2d(64, 64, kernel_size=(1, 1), stride=(1, 1), groups=64, bias=False)
                  (4): BatchNorm2d(64, eps=1e-05, momentum=0.1, affine=True, track_running_stats=True)
                  (5): ReLU6()
                  (6): Conv2d(64, 64, kernel_size=(1, 1), stride=(1, 1))
                  (7): BatchNorm2d(64, eps=1e-05, momentum=0.1, affine=True, track_running_stats=True)
                )
              )
              (1): LeakyReLU(negative_slope=0.2, inplace=True)
              (2): conv_ds(
                (conv): Sequential(
                  (0): Conv2d(64, 64, kernel_size=(1, 1), stride=(1, 1))
                  (1): BatchNorm2d(64, eps=1e-05, momentum=0.1, affine=True, track_running_stats=True)
                  (2): ReLU6()
                  (3): Conv2d(64, 64, kernel_size=(1, 1), stride=(1, 1), groups=64, bias=False)
                  (4): BatchNorm2d(64, eps=1e-05, momentum=0.1, affine=True, track_running_stats=True)
                  (5): ReLU6()
                  (6): Conv2d(64, 64, kernel_size=(1, 1), stride=(1, 1))
                  (7): BatchNorm2d(64, eps=1e-05, momentum=0.1, affine=True, track_running_stats=True)
                )
              )
            )
          )
          (1): DPCB(
            (body1): Sequential(
              (0): conv_ds(
                (conv): Sequential(
                  (0): Conv2d(64, 64, kernel_size=(1, 1), stride=(1, 1))
                  (1): BatchNorm2d(64, eps=1e-05, momentum=0.1, affine=True, track_running_stats=True)
                  (2): ReLU6()
                  (3): Conv2d(64, 64, kernel_size=(3, 3), stride=(1, 1), padding=(1, 1), groups=64, bias=False)
                  (4): BatchNorm2d(64, eps=1e-05, momentum=0.1, affine=True, track_running_stats=True)
                  (5): ReLU6()
                  (6): Conv2d(64, 64, kernel_size=(1, 1), stride=(1, 1))
                  (7): BatchNorm2d(64, eps=1e-05, momentum=0.1, affine=True, track_running_stats=True)
                )
              )
              (1): LeakyReLU(negative_slope=0.2, inplace=True)
              (2): conv_ds(
                (conv): Sequential(
                  (0): Conv2d(64, 64, kernel_size=(1, 1), stride=(1, 1))
                  (1): BatchNorm2d(64, eps=1e-05, momentum=0.1, affine=True, track_running_stats=True)
                  (2): ReLU6()
                  (3): Conv2d(64, 64, kernel_size=(3, 3), stride=(1, 1), padding=(1, 1), groups=64, bias=False)
                  (4): BatchNorm2d(64, eps=1e-05, momentum=0.1, affine=True, track_running_stats=True)
                  (5): ReLU6()
                  (6): Conv2d(64, 64, kernel_size=(1, 1), stride=(1, 1))
                  (7): BatchNorm2d(64, eps=1e-05, momentum=0.1, affine=True, track_running_stats=True)
                )
              )
            )
            (body2): Sequential(
              (0): conv_ds(
                (conv): Sequential(
                  (0): Conv2d(64, 64, kernel_size=(1, 1), stride=(1, 1))
                  (1): BatchNorm2d(64, eps=1e-05, momentum=0.1, affine=True, track_running_stats=True)
                  (2): ReLU6()
                  (3): Conv2d(64, 64, kernel_size=(1, 1), stride=(1, 1), groups=64, bias=False)
                  (4): BatchNorm2d(64, eps=1e-05, momentum=0.1, affine=True, track_running_stats=True)
                  (5): ReLU6()
                  (6): Conv2d(64, 64, kernel_size=(1, 1), stride=(1, 1))
                  (7): BatchNorm2d(64, eps=1e-05, momentum=0.1, affine=True, track_running_stats=True)
                )
              )
              (1): LeakyReLU(negative_slope=0.2, inplace=True)
              (2): conv_ds(
                (conv): Sequential(
                  (0): Conv2d(64, 64, kernel_size=(1, 1), stride=(1, 1))
                  (1): BatchNorm2d(64, eps=1e-05, momentum=0.1, affine=True, track_running_stats=True)
                  (2): ReLU6()
                  (3): Conv2d(64, 64, kernel_size=(1, 1), stride=(1, 1), groups=64, bias=False)
                  (4): BatchNorm2d(64, eps=1e-05, momentum=0.1, affine=True, track_running_stats=True)
                  (5): ReLU6()
                  (6): Conv2d(64, 64, kernel_size=(1, 1), stride=(1, 1))
                  (7): BatchNorm2d(64, eps=1e-05, momentum=0.1, affine=True, track_running_stats=True)
                )
              )
            )
          )
          (2): DPCB(
            (body1): Sequential(
              (0): conv_ds(
                (conv): Sequential(
                  (0): Conv2d(64, 64, kernel_size=(1, 1), stride=(1, 1))
                  (1): BatchNorm2d(64, eps=1e-05, momentum=0.1, affine=True, track_running_stats=True)
                  (2): ReLU6()
                  (3): Conv2d(64, 64, kernel_size=(3, 3), stride=(1, 1), padding=(1, 1), groups=64, bias=False)
                  (4): BatchNorm2d(64, eps=1e-05, momentum=0.1, affine=True, track_running_stats=True)
                  (5): ReLU6()
                  (6): Conv2d(64, 64, kernel_size=(1, 1), stride=(1, 1))
                  (7): BatchNorm2d(64, eps=1e-05, momentum=0.1, affine=True, track_running_stats=True)
                )
              )
              (1): LeakyReLU(negative_slope=0.2, inplace=True)
              (2): conv_ds(
                (conv): Sequential(
                  (0): Conv2d(64, 64, kernel_size=(1, 1), stride=(1, 1))
                  (1): BatchNorm2d(64, eps=1e-05, momentum=0.1, affine=True, track_running_stats=True)
                  (2): ReLU6()
                  (3): Conv2d(64, 64, kernel_size=(3, 3), stride=(1, 1), padding=(1, 1), groups=64, bias=False)
                  (4): BatchNorm2d(64, eps=1e-05, momentum=0.1, affine=True, track_running_stats=True)
                  (5): ReLU6()
                  (6): Conv2d(64, 64, kernel_size=(1, 1), stride=(1, 1))
                  (7): BatchNorm2d(64, eps=1e-05, momentum=0.1, affine=True, track_running_stats=True)
                )
              )
            )
            (body2): Sequential(
              (0): conv_ds(
                (conv): Sequential(
                  (0): Conv2d(64, 64, kernel_size=(1, 1), stride=(1, 1))
                  (1): BatchNorm2d(64, eps=1e-05, momentum=0.1, affine=True, track_running_stats=True)
                  (2): ReLU6()
                  (3): Conv2d(64, 64, kernel_size=(1, 1), stride=(1, 1), groups=64, bias=False)
                  (4): BatchNorm2d(64, eps=1e-05, momentum=0.1, affine=True, track_running_stats=True)
                  (5): ReLU6()
                  (6): Conv2d(64, 64, kernel_size=(1, 1), stride=(1, 1))
                  (7): BatchNorm2d(64, eps=1e-05, momentum=0.1, affine=True, track_running_stats=True)
                )
              )
              (1): LeakyReLU(negative_slope=0.2, inplace=True)
              (2): conv_ds(
                (conv): Sequential(
                  (0): Conv2d(64, 64, kernel_size=(1, 1), stride=(1, 1))
                  (1): BatchNorm2d(64, eps=1e-05, momentum=0.1, affine=True, track_running_stats=True)
                  (2): ReLU6()
                  (3): Conv2d(64, 64, kernel_size=(1, 1), stride=(1, 1), groups=64, bias=False)
                  (4): BatchNorm2d(64, eps=1e-05, momentum=0.1, affine=True, track_running_stats=True)
                  (5): ReLU6()
                  (6): Conv2d(64, 64, kernel_size=(1, 1), stride=(1, 1))
                  (7): BatchNorm2d(64, eps=1e-05, momentum=0.1, affine=True, track_running_stats=True)
                )
              )
            )
          )
          (3): DPCB(
            (body1): Sequential(
              (0): conv_ds(
                (conv): Sequential(
                  (0): Conv2d(64, 64, kernel_size=(1, 1), stride=(1, 1))
                  (1): BatchNorm2d(64, eps=1e-05, momentum=0.1, affine=True, track_running_stats=True)
                  (2): ReLU6()
                  (3): Conv2d(64, 64, kernel_size=(3, 3), stride=(1, 1), padding=(1, 1), groups=64, bias=False)
                  (4): BatchNorm2d(64, eps=1e-05, momentum=0.1, affine=True, track_running_stats=True)
                  (5): ReLU6()
                  (6): Conv2d(64, 64, kernel_size=(1, 1), stride=(1, 1))
                  (7): BatchNorm2d(64, eps=1e-05, momentum=0.1, affine=True, track_running_stats=True)
                )
              )
              (1): LeakyReLU(negative_slope=0.2, inplace=True)
              (2): conv_ds(
                (conv): Sequential(
                  (0): Conv2d(64, 64, kernel_size=(1, 1), stride=(1, 1))
                  (1): BatchNorm2d(64, eps=1e-05, momentum=0.1, affine=True, track_running_stats=True)
                  (2): ReLU6()
                  (3): Conv2d(64, 64, kernel_size=(3, 3), stride=(1, 1), padding=(1, 1), groups=64, bias=False)
                  (4): BatchNorm2d(64, eps=1e-05, momentum=0.1, affine=True, track_running_stats=True)
                  (5): ReLU6()
                  (6): Conv2d(64, 64, kernel_size=(1, 1), stride=(1, 1))
                  (7): BatchNorm2d(64, eps=1e-05, momentum=0.1, affine=True, track_running_stats=True)
                )
              )
            )
            (body2): Sequential(
              (0): conv_ds(
                (conv): Sequential(
                  (0): Conv2d(64, 64, kernel_size=(1, 1), stride=(1, 1))
                  (1): BatchNorm2d(64, eps=1e-05, momentum=0.1, affine=True, track_running_stats=True)
                  (2): ReLU6()
                  (3): Conv2d(64, 64, kernel_size=(1, 1), stride=(1, 1), groups=64, bias=False)
                  (4): BatchNorm2d(64, eps=1e-05, momentum=0.1, affine=True, track_running_stats=True)
                  (5): ReLU6()
                  (6): Conv2d(64, 64, kernel_size=(1, 1), stride=(1, 1))
                  (7): BatchNorm2d(64, eps=1e-05, momentum=0.1, affine=True, track_running_stats=True)
                )
              )
              (1): LeakyReLU(negative_slope=0.2, inplace=True)
              (2): conv_ds(
                (conv): Sequential(
                  (0): Conv2d(64, 64, kernel_size=(1, 1), stride=(1, 1))
                  (1): BatchNorm2d(64, eps=1e-05, momentum=0.1, affine=True, track_running_stats=True)
                  (2): ReLU6()
                  (3): Conv2d(64, 64, kernel_size=(1, 1), stride=(1, 1), groups=64, bias=False)
                  (4): BatchNorm2d(64, eps=1e-05, momentum=0.1, affine=True, track_running_stats=True)
                  (5): ReLU6()
                  (6): Conv2d(64, 64, kernel_size=(1, 1), stride=(1, 1))
                  (7): BatchNorm2d(64, eps=1e-05, momentum=0.1, affine=True, track_running_stats=True)
                )
              )
            )
          )
          (4): DPCB(
            (body1): Sequential(
              (0): conv_ds(
                (conv): Sequential(
                  (0): Conv2d(64, 64, kernel_size=(1, 1), stride=(1, 1))
                  (1): BatchNorm2d(64, eps=1e-05, momentum=0.1, affine=True, track_running_stats=True)
                  (2): ReLU6()
                  (3): Conv2d(64, 64, kernel_size=(3, 3), stride=(1, 1), padding=(1, 1), groups=64, bias=False)
                  (4): BatchNorm2d(64, eps=1e-05, momentum=0.1, affine=True, track_running_stats=True)
                  (5): ReLU6()
                  (6): Conv2d(64, 64, kernel_size=(1, 1), stride=(1, 1))
                  (7): BatchNorm2d(64, eps=1e-05, momentum=0.1, affine=True, track_running_stats=True)
                )
              )
              (1): LeakyReLU(negative_slope=0.2, inplace=True)
              (2): conv_ds(
                (conv): Sequential(
                  (0): Conv2d(64, 64, kernel_size=(1, 1), stride=(1, 1))
                  (1): BatchNorm2d(64, eps=1e-05, momentum=0.1, affine=True, track_running_stats=True)
                  (2): ReLU6()
                  (3): Conv2d(64, 64, kernel_size=(3, 3), stride=(1, 1), padding=(1, 1), groups=64, bias=False)
                  (4): BatchNorm2d(64, eps=1e-05, momentum=0.1, affine=True, track_running_stats=True)
                  (5): ReLU6()
                  (6): Conv2d(64, 64, kernel_size=(1, 1), stride=(1, 1))
                  (7): BatchNorm2d(64, eps=1e-05, momentum=0.1, affine=True, track_running_stats=True)
                )
              )
            )
            (body2): Sequential(
              (0): conv_ds(
                (conv): Sequential(
                  (0): Conv2d(64, 64, kernel_size=(1, 1), stride=(1, 1))
                  (1): BatchNorm2d(64, eps=1e-05, momentum=0.1, affine=True, track_running_stats=True)
                  (2): ReLU6()
                  (3): Conv2d(64, 64, kernel_size=(1, 1), stride=(1, 1), groups=64, bias=False)
                  (4): BatchNorm2d(64, eps=1e-05, momentum=0.1, affine=True, track_running_stats=True)
                  (5): ReLU6()
                  (6): Conv2d(64, 64, kernel_size=(1, 1), stride=(1, 1))
                  (7): BatchNorm2d(64, eps=1e-05, momentum=0.1, affine=True, track_running_stats=True)
                )
              )
              (1): LeakyReLU(negative_slope=0.2, inplace=True)
              (2): conv_ds(
                (conv): Sequential(
                  (0): Conv2d(64, 64, kernel_size=(1, 1), stride=(1, 1))
                  (1): BatchNorm2d(64, eps=1e-05, momentum=0.1, affine=True, track_running_stats=True)
                  (2): ReLU6()
                  (3): Conv2d(64, 64, kernel_size=(1, 1), stride=(1, 1), groups=64, bias=False)
                  (4): BatchNorm2d(64, eps=1e-05, momentum=0.1, affine=True, track_running_stats=True)
                  (5): ReLU6()
                  (6): Conv2d(64, 64, kernel_size=(1, 1), stride=(1, 1))
                  (7): BatchNorm2d(64, eps=1e-05, momentum=0.1, affine=True, track_running_stats=True)
                )
              )
            )
          )
          (5): DPCB(
            (body1): Sequential(
              (0): conv_ds(
                (conv): Sequential(
                  (0): Conv2d(64, 64, kernel_size=(1, 1), stride=(1, 1))
                  (1): BatchNorm2d(64, eps=1e-05, momentum=0.1, affine=True, track_running_stats=True)
                  (2): ReLU6()
                  (3): Conv2d(64, 64, kernel_size=(3, 3), stride=(1, 1), padding=(1, 1), groups=64, bias=False)
                  (4): BatchNorm2d(64, eps=1e-05, momentum=0.1, affine=True, track_running_stats=True)
                  (5): ReLU6()
                  (6): Conv2d(64, 64, kernel_size=(1, 1), stride=(1, 1))
                  (7): BatchNorm2d(64, eps=1e-05, momentum=0.1, affine=True, track_running_stats=True)
                )
              )
              (1): LeakyReLU(negative_slope=0.2, inplace=True)
              (2): conv_ds(
                (conv): Sequential(
                  (0): Conv2d(64, 64, kernel_size=(1, 1), stride=(1, 1))
                  (1): BatchNorm2d(64, eps=1e-05, momentum=0.1, affine=True, track_running_stats=True)
                  (2): ReLU6()
                  (3): Conv2d(64, 64, kernel_size=(3, 3), stride=(1, 1), padding=(1, 1), groups=64, bias=False)
                  (4): BatchNorm2d(64, eps=1e-05, momentum=0.1, affine=True, track_running_stats=True)
                  (5): ReLU6()
                  (6): Conv2d(64, 64, kernel_size=(1, 1), stride=(1, 1))
                  (7): BatchNorm2d(64, eps=1e-05, momentum=0.1, affine=True, track_running_stats=True)
                )
              )
            )
            (body2): Sequential(
              (0): conv_ds(
                (conv): Sequential(
                  (0): Conv2d(64, 64, kernel_size=(1, 1), stride=(1, 1))
                  (1): BatchNorm2d(64, eps=1e-05, momentum=0.1, affine=True, track_running_stats=True)
                  (2): ReLU6()
                  (3): Conv2d(64, 64, kernel_size=(1, 1), stride=(1, 1), groups=64, bias=False)
                  (4): BatchNorm2d(64, eps=1e-05, momentum=0.1, affine=True, track_running_stats=True)
                  (5): ReLU6()
                  (6): Conv2d(64, 64, kernel_size=(1, 1), stride=(1, 1))
                  (7): BatchNorm2d(64, eps=1e-05, momentum=0.1, affine=True, track_running_stats=True)
                )
              )
              (1): LeakyReLU(negative_slope=0.2, inplace=True)
              (2): conv_ds(
                (conv): Sequential(
                  (0): Conv2d(64, 64, kernel_size=(1, 1), stride=(1, 1))
                  (1): BatchNorm2d(64, eps=1e-05, momentum=0.1, affine=True, track_running_stats=True)
                  (2): ReLU6()
                  (3): Conv2d(64, 64, kernel_size=(1, 1), stride=(1, 1), groups=64, bias=False)
                  (4): BatchNorm2d(64, eps=1e-05, momentum=0.1, affine=True, track_running_stats=True)
                  (5): ReLU6()
                  (6): Conv2d(64, 64, kernel_size=(1, 1), stride=(1, 1))
                  (7): BatchNorm2d(64, eps=1e-05, momentum=0.1, affine=True, track_running_stats=True)
                )
              )
            )
          )
          (6): DPCB(
            (body1): Sequential(
              (0): conv_ds(
                (conv): Sequential(
                  (0): Conv2d(64, 64, kernel_size=(1, 1), stride=(1, 1))
                  (1): BatchNorm2d(64, eps=1e-05, momentum=0.1, affine=True, track_running_stats=True)
                  (2): ReLU6()
                  (3): Conv2d(64, 64, kernel_size=(3, 3), stride=(1, 1), padding=(1, 1), groups=64, bias=False)
                  (4): BatchNorm2d(64, eps=1e-05, momentum=0.1, affine=True, track_running_stats=True)
                  (5): ReLU6()
                  (6): Conv2d(64, 64, kernel_size=(1, 1), stride=(1, 1))
                  (7): BatchNorm2d(64, eps=1e-05, momentum=0.1, affine=True, track_running_stats=True)
                )
              )
              (1): LeakyReLU(negative_slope=0.2, inplace=True)
              (2): conv_ds(
                (conv): Sequential(
                  (0): Conv2d(64, 64, kernel_size=(1, 1), stride=(1, 1))
                  (1): BatchNorm2d(64, eps=1e-05, momentum=0.1, affine=True, track_running_stats=True)
                  (2): ReLU6()
                  (3): Conv2d(64, 64, kernel_size=(3, 3), stride=(1, 1), padding=(1, 1), groups=64, bias=False)
                  (4): BatchNorm2d(64, eps=1e-05, momentum=0.1, affine=True, track_running_stats=True)
                  (5): ReLU6()
                  (6): Conv2d(64, 64, kernel_size=(1, 1), stride=(1, 1))
                  (7): BatchNorm2d(64, eps=1e-05, momentum=0.1, affine=True, track_running_stats=True)
                )
              )
            )
            (body2): Sequential(
              (0): conv_ds(
                (conv): Sequential(
                  (0): Conv2d(64, 64, kernel_size=(1, 1), stride=(1, 1))
                  (1): BatchNorm2d(64, eps=1e-05, momentum=0.1, affine=True, track_running_stats=True)
                  (2): ReLU6()
                  (3): Conv2d(64, 64, kernel_size=(1, 1), stride=(1, 1), groups=64, bias=False)
                  (4): BatchNorm2d(64, eps=1e-05, momentum=0.1, affine=True, track_running_stats=True)
                  (5): ReLU6()
                  (6): Conv2d(64, 64, kernel_size=(1, 1), stride=(1, 1))
                  (7): BatchNorm2d(64, eps=1e-05, momentum=0.1, affine=True, track_running_stats=True)
                )
              )
              (1): LeakyReLU(negative_slope=0.2, inplace=True)
              (2): conv_ds(
                (conv): Sequential(
                  (0): Conv2d(64, 64, kernel_size=(1, 1), stride=(1, 1))
                  (1): BatchNorm2d(64, eps=1e-05, momentum=0.1, affine=True, track_running_stats=True)
                  (2): ReLU6()
                  (3): Conv2d(64, 64, kernel_size=(1, 1), stride=(1, 1), groups=64, bias=False)
                  (4): BatchNorm2d(64, eps=1e-05, momentum=0.1, affine=True, track_running_stats=True)
                  (5): ReLU6()
                  (6): Conv2d(64, 64, kernel_size=(1, 1), stride=(1, 1))
                  (7): BatchNorm2d(64, eps=1e-05, momentum=0.1, affine=True, track_running_stats=True)
                )
              )
            )
          )
          (7): DPCB(
            (body1): Sequential(
              (0): conv_ds(
                (conv): Sequential(
                  (0): Conv2d(64, 64, kernel_size=(1, 1), stride=(1, 1))
                  (1): BatchNorm2d(64, eps=1e-05, momentum=0.1, affine=True, track_running_stats=True)
                  (2): ReLU6()
                  (3): Conv2d(64, 64, kernel_size=(3, 3), stride=(1, 1), padding=(1, 1), groups=64, bias=False)
                  (4): BatchNorm2d(64, eps=1e-05, momentum=0.1, affine=True, track_running_stats=True)
                  (5): ReLU6()
                  (6): Conv2d(64, 64, kernel_size=(1, 1), stride=(1, 1))
                  (7): BatchNorm2d(64, eps=1e-05, momentum=0.1, affine=True, track_running_stats=True)
                )
              )
              (1): LeakyReLU(negative_slope=0.2, inplace=True)
              (2): conv_ds(
                (conv): Sequential(
                  (0): Conv2d(64, 64, kernel_size=(1, 1), stride=(1, 1))
                  (1): BatchNorm2d(64, eps=1e-05, momentum=0.1, affine=True, track_running_stats=True)
                  (2): ReLU6()
                  (3): Conv2d(64, 64, kernel_size=(3, 3), stride=(1, 1), padding=(1, 1), groups=64, bias=False)
                  (4): BatchNorm2d(64, eps=1e-05, momentum=0.1, affine=True, track_running_stats=True)
                  (5): ReLU6()
                  (6): Conv2d(64, 64, kernel_size=(1, 1), stride=(1, 1))
                  (7): BatchNorm2d(64, eps=1e-05, momentum=0.1, affine=True, track_running_stats=True)
                )
              )
            )
            (body2): Sequential(
              (0): conv_ds(
                (conv): Sequential(
                  (0): Conv2d(64, 64, kernel_size=(1, 1), stride=(1, 1))
                  (1): BatchNorm2d(64, eps=1e-05, momentum=0.1, affine=True, track_running_stats=True)
                  (2): ReLU6()
                  (3): Conv2d(64, 64, kernel_size=(1, 1), stride=(1, 1), groups=64, bias=False)
                  (4): BatchNorm2d(64, eps=1e-05, momentum=0.1, affine=True, track_running_stats=True)
                  (5): ReLU6()
                  (6): Conv2d(64, 64, kernel_size=(1, 1), stride=(1, 1))
                  (7): BatchNorm2d(64, eps=1e-05, momentum=0.1, affine=True, track_running_stats=True)
                )
              )
              (1): LeakyReLU(negative_slope=0.2, inplace=True)
              (2): conv_ds(
                (conv): Sequential(
                  (0): Conv2d(64, 64, kernel_size=(1, 1), stride=(1, 1))
                  (1): BatchNorm2d(64, eps=1e-05, momentum=0.1, affine=True, track_running_stats=True)
                  (2): ReLU6()
                  (3): Conv2d(64, 64, kernel_size=(1, 1), stride=(1, 1), groups=64, bias=False)
                  (4): BatchNorm2d(64, eps=1e-05, momentum=0.1, affine=True, track_running_stats=True)
                  (5): ReLU6()
                  (6): Conv2d(64, 64, kernel_size=(1, 1), stride=(1, 1))
                  (7): BatchNorm2d(64, eps=1e-05, momentum=0.1, affine=True, track_running_stats=True)
                )
              )
            )
          )
          (8): DPCB(
            (body1): Sequential(
              (0): conv_ds(
                (conv): Sequential(
                  (0): Conv2d(64, 64, kernel_size=(1, 1), stride=(1, 1))
                  (1): BatchNorm2d(64, eps=1e-05, momentum=0.1, affine=True, track_running_stats=True)
                  (2): ReLU6()
                  (3): Conv2d(64, 64, kernel_size=(3, 3), stride=(1, 1), padding=(1, 1), groups=64, bias=False)
                  (4): BatchNorm2d(64, eps=1e-05, momentum=0.1, affine=True, track_running_stats=True)
                  (5): ReLU6()
                  (6): Conv2d(64, 64, kernel_size=(1, 1), stride=(1, 1))
                  (7): BatchNorm2d(64, eps=1e-05, momentum=0.1, affine=True, track_running_stats=True)
                )
              )
              (1): LeakyReLU(negative_slope=0.2, inplace=True)
              (2): conv_ds(
                (conv): Sequential(
                  (0): Conv2d(64, 64, kernel_size=(1, 1), stride=(1, 1))
                  (1): BatchNorm2d(64, eps=1e-05, momentum=0.1, affine=True, track_running_stats=True)
                  (2): ReLU6()
                  (3): Conv2d(64, 64, kernel_size=(3, 3), stride=(1, 1), padding=(1, 1), groups=64, bias=False)
                  (4): BatchNorm2d(64, eps=1e-05, momentum=0.1, affine=True, track_running_stats=True)
                  (5): ReLU6()
                  (6): Conv2d(64, 64, kernel_size=(1, 1), stride=(1, 1))
                  (7): BatchNorm2d(64, eps=1e-05, momentum=0.1, affine=True, track_running_stats=True)
                )
              )
            )
            (body2): Sequential(
              (0): conv_ds(
                (conv): Sequential(
                  (0): Conv2d(64, 64, kernel_size=(1, 1), stride=(1, 1))
                  (1): BatchNorm2d(64, eps=1e-05, momentum=0.1, affine=True, track_running_stats=True)
                  (2): ReLU6()
                  (3): Conv2d(64, 64, kernel_size=(1, 1), stride=(1, 1), groups=64, bias=False)
                  (4): BatchNorm2d(64, eps=1e-05, momentum=0.1, affine=True, track_running_stats=True)
                  (5): ReLU6()
                  (6): Conv2d(64, 64, kernel_size=(1, 1), stride=(1, 1))
                  (7): BatchNorm2d(64, eps=1e-05, momentum=0.1, affine=True, track_running_stats=True)
                )
              )
              (1): LeakyReLU(negative_slope=0.2, inplace=True)
              (2): conv_ds(
                (conv): Sequential(
                  (0): Conv2d(64, 64, kernel_size=(1, 1), stride=(1, 1))
                  (1): BatchNorm2d(64, eps=1e-05, momentum=0.1, affine=True, track_running_stats=True)
                  (2): ReLU6()
                  (3): Conv2d(64, 64, kernel_size=(1, 1), stride=(1, 1), groups=64, bias=False)
                  (4): BatchNorm2d(64, eps=1e-05, momentum=0.1, affine=True, track_running_stats=True)
                  (5): ReLU6()
                  (6): Conv2d(64, 64, kernel_size=(1, 1), stride=(1, 1))
                  (7): BatchNorm2d(64, eps=1e-05, momentum=0.1, affine=True, track_running_stats=True)
                )
              )
            )
          )
          (9): DPCB(
            (body1): Sequential(
              (0): conv_ds(
                (conv): Sequential(
                  (0): Conv2d(64, 64, kernel_size=(1, 1), stride=(1, 1))
                  (1): BatchNorm2d(64, eps=1e-05, momentum=0.1, affine=True, track_running_stats=True)
                  (2): ReLU6()
                  (3): Conv2d(64, 64, kernel_size=(3, 3), stride=(1, 1), padding=(1, 1), groups=64, bias=False)
                  (4): BatchNorm2d(64, eps=1e-05, momentum=0.1, affine=True, track_running_stats=True)
                  (5): ReLU6()
                  (6): Conv2d(64, 64, kernel_size=(1, 1), stride=(1, 1))
                  (7): BatchNorm2d(64, eps=1e-05, momentum=0.1, affine=True, track_running_stats=True)
                )
              )
              (1): LeakyReLU(negative_slope=0.2, inplace=True)
              (2): conv_ds(
                (conv): Sequential(
                  (0): Conv2d(64, 64, kernel_size=(1, 1), stride=(1, 1))
                  (1): BatchNorm2d(64, eps=1e-05, momentum=0.1, affine=True, track_running_stats=True)
                  (2): ReLU6()
                  (3): Conv2d(64, 64, kernel_size=(3, 3), stride=(1, 1), padding=(1, 1), groups=64, bias=False)
                  (4): BatchNorm2d(64, eps=1e-05, momentum=0.1, affine=True, track_running_stats=True)
                  (5): ReLU6()
                  (6): Conv2d(64, 64, kernel_size=(1, 1), stride=(1, 1))
                  (7): BatchNorm2d(64, eps=1e-05, momentum=0.1, affine=True, track_running_stats=True)
                )
              )
            )
            (body2): Sequential(
              (0): conv_ds(
                (conv): Sequential(
                  (0): Conv2d(64, 64, kernel_size=(1, 1), stride=(1, 1))
                  (1): BatchNorm2d(64, eps=1e-05, momentum=0.1, affine=True, track_running_stats=True)
                  (2): ReLU6()
                  (3): Conv2d(64, 64, kernel_size=(1, 1), stride=(1, 1), groups=64, bias=False)
                  (4): BatchNorm2d(64, eps=1e-05, momentum=0.1, affine=True, track_running_stats=True)
                  (5): ReLU6()
                  (6): Conv2d(64, 64, kernel_size=(1, 1), stride=(1, 1))
                  (7): BatchNorm2d(64, eps=1e-05, momentum=0.1, affine=True, track_running_stats=True)
                )
              )
              (1): LeakyReLU(negative_slope=0.2, inplace=True)
              (2): conv_ds(
                (conv): Sequential(
                  (0): Conv2d(64, 64, kernel_size=(1, 1), stride=(1, 1))
                  (1): BatchNorm2d(64, eps=1e-05, momentum=0.1, affine=True, track_running_stats=True)
                  (2): ReLU6()
                  (3): Conv2d(64, 64, kernel_size=(1, 1), stride=(1, 1), groups=64, bias=False)
                  (4): BatchNorm2d(64, eps=1e-05, momentum=0.1, affine=True, track_running_stats=True)
                  (5): ReLU6()
                  (6): Conv2d(64, 64, kernel_size=(1, 1), stride=(1, 1))
                  (7): BatchNorm2d(64, eps=1e-05, momentum=0.1, affine=True, track_running_stats=True)
                )
              )
            )
          )
        )
      )
      (3): DPCG(
        (body): Sequential(
          (0): DPCB(
            (body1): Sequential(
              (0): conv_ds(
                (conv): Sequential(
                  (0): Conv2d(64, 64, kernel_size=(1, 1), stride=(1, 1))
                  (1): BatchNorm2d(64, eps=1e-05, momentum=0.1, affine=True, track_running_stats=True)
                  (2): ReLU6()
                  (3): Conv2d(64, 64, kernel_size=(3, 3), stride=(1, 1), padding=(1, 1), groups=64, bias=False)
                  (4): BatchNorm2d(64, eps=1e-05, momentum=0.1, affine=True, track_running_stats=True)
                  (5): ReLU6()
                  (6): Conv2d(64, 64, kernel_size=(1, 1), stride=(1, 1))
                  (7): BatchNorm2d(64, eps=1e-05, momentum=0.1, affine=True, track_running_stats=True)
                )
              )
              (1): LeakyReLU(negative_slope=0.2, inplace=True)
              (2): conv_ds(
                (conv): Sequential(
                  (0): Conv2d(64, 64, kernel_size=(1, 1), stride=(1, 1))
                  (1): BatchNorm2d(64, eps=1e-05, momentum=0.1, affine=True, track_running_stats=True)
                  (2): ReLU6()
                  (3): Conv2d(64, 64, kernel_size=(3, 3), stride=(1, 1), padding=(1, 1), groups=64, bias=False)
                  (4): BatchNorm2d(64, eps=1e-05, momentum=0.1, affine=True, track_running_stats=True)
                  (5): ReLU6()
                  (6): Conv2d(64, 64, kernel_size=(1, 1), stride=(1, 1))
                  (7): BatchNorm2d(64, eps=1e-05, momentum=0.1, affine=True, track_running_stats=True)
                )
              )
            )
            (body2): Sequential(
              (0): conv_ds(
                (conv): Sequential(
                  (0): Conv2d(64, 64, kernel_size=(1, 1), stride=(1, 1))
                  (1): BatchNorm2d(64, eps=1e-05, momentum=0.1, affine=True, track_running_stats=True)
                  (2): ReLU6()
                  (3): Conv2d(64, 64, kernel_size=(1, 1), stride=(1, 1), groups=64, bias=False)
                  (4): BatchNorm2d(64, eps=1e-05, momentum=0.1, affine=True, track_running_stats=True)
                  (5): ReLU6()
                  (6): Conv2d(64, 64, kernel_size=(1, 1), stride=(1, 1))
                  (7): BatchNorm2d(64, eps=1e-05, momentum=0.1, affine=True, track_running_stats=True)
                )
              )
              (1): LeakyReLU(negative_slope=0.2, inplace=True)
              (2): conv_ds(
                (conv): Sequential(
                  (0): Conv2d(64, 64, kernel_size=(1, 1), stride=(1, 1))
                  (1): BatchNorm2d(64, eps=1e-05, momentum=0.1, affine=True, track_running_stats=True)
                  (2): ReLU6()
                  (3): Conv2d(64, 64, kernel_size=(1, 1), stride=(1, 1), groups=64, bias=False)
                  (4): BatchNorm2d(64, eps=1e-05, momentum=0.1, affine=True, track_running_stats=True)
                  (5): ReLU6()
                  (6): Conv2d(64, 64, kernel_size=(1, 1), stride=(1, 1))
                  (7): BatchNorm2d(64, eps=1e-05, momentum=0.1, affine=True, track_running_stats=True)
                )
              )
            )
          )
          (1): DPCB(
            (body1): Sequential(
              (0): conv_ds(
                (conv): Sequential(
                  (0): Conv2d(64, 64, kernel_size=(1, 1), stride=(1, 1))
                  (1): BatchNorm2d(64, eps=1e-05, momentum=0.1, affine=True, track_running_stats=True)
                  (2): ReLU6()
                  (3): Conv2d(64, 64, kernel_size=(3, 3), stride=(1, 1), padding=(1, 1), groups=64, bias=False)
                  (4): BatchNorm2d(64, eps=1e-05, momentum=0.1, affine=True, track_running_stats=True)
                  (5): ReLU6()
                  (6): Conv2d(64, 64, kernel_size=(1, 1), stride=(1, 1))
                  (7): BatchNorm2d(64, eps=1e-05, momentum=0.1, affine=True, track_running_stats=True)
                )
              )
              (1): LeakyReLU(negative_slope=0.2, inplace=True)
              (2): conv_ds(
                (conv): Sequential(
                  (0): Conv2d(64, 64, kernel_size=(1, 1), stride=(1, 1))
                  (1): BatchNorm2d(64, eps=1e-05, momentum=0.1, affine=True, track_running_stats=True)
                  (2): ReLU6()
                  (3): Conv2d(64, 64, kernel_size=(3, 3), stride=(1, 1), padding=(1, 1), groups=64, bias=False)
                  (4): BatchNorm2d(64, eps=1e-05, momentum=0.1, affine=True, track_running_stats=True)
                  (5): ReLU6()
                  (6): Conv2d(64, 64, kernel_size=(1, 1), stride=(1, 1))
                  (7): BatchNorm2d(64, eps=1e-05, momentum=0.1, affine=True, track_running_stats=True)
                )
              )
            )
            (body2): Sequential(
              (0): conv_ds(
                (conv): Sequential(
                  (0): Conv2d(64, 64, kernel_size=(1, 1), stride=(1, 1))
                  (1): BatchNorm2d(64, eps=1e-05, momentum=0.1, affine=True, track_running_stats=True)
                  (2): ReLU6()
                  (3): Conv2d(64, 64, kernel_size=(1, 1), stride=(1, 1), groups=64, bias=False)
                  (4): BatchNorm2d(64, eps=1e-05, momentum=0.1, affine=True, track_running_stats=True)
                  (5): ReLU6()
                  (6): Conv2d(64, 64, kernel_size=(1, 1), stride=(1, 1))
                  (7): BatchNorm2d(64, eps=1e-05, momentum=0.1, affine=True, track_running_stats=True)
                )
              )
              (1): LeakyReLU(negative_slope=0.2, inplace=True)
              (2): conv_ds(
                (conv): Sequential(
                  (0): Conv2d(64, 64, kernel_size=(1, 1), stride=(1, 1))
                  (1): BatchNorm2d(64, eps=1e-05, momentum=0.1, affine=True, track_running_stats=True)
                  (2): ReLU6()
                  (3): Conv2d(64, 64, kernel_size=(1, 1), stride=(1, 1), groups=64, bias=False)
                  (4): BatchNorm2d(64, eps=1e-05, momentum=0.1, affine=True, track_running_stats=True)
                  (5): ReLU6()
                  (6): Conv2d(64, 64, kernel_size=(1, 1), stride=(1, 1))
                  (7): BatchNorm2d(64, eps=1e-05, momentum=0.1, affine=True, track_running_stats=True)
                )
              )
            )
          )
          (2): DPCB(
            (body1): Sequential(
              (0): conv_ds(
                (conv): Sequential(
                  (0): Conv2d(64, 64, kernel_size=(1, 1), stride=(1, 1))
                  (1): BatchNorm2d(64, eps=1e-05, momentum=0.1, affine=True, track_running_stats=True)
                  (2): ReLU6()
                  (3): Conv2d(64, 64, kernel_size=(3, 3), stride=(1, 1), padding=(1, 1), groups=64, bias=False)
                  (4): BatchNorm2d(64, eps=1e-05, momentum=0.1, affine=True, track_running_stats=True)
                  (5): ReLU6()
                  (6): Conv2d(64, 64, kernel_size=(1, 1), stride=(1, 1))
                  (7): BatchNorm2d(64, eps=1e-05, momentum=0.1, affine=True, track_running_stats=True)
                )
              )
              (1): LeakyReLU(negative_slope=0.2, inplace=True)
              (2): conv_ds(
                (conv): Sequential(
                  (0): Conv2d(64, 64, kernel_size=(1, 1), stride=(1, 1))
                  (1): BatchNorm2d(64, eps=1e-05, momentum=0.1, affine=True, track_running_stats=True)
                  (2): ReLU6()
                  (3): Conv2d(64, 64, kernel_size=(3, 3), stride=(1, 1), padding=(1, 1), groups=64, bias=False)
                  (4): BatchNorm2d(64, eps=1e-05, momentum=0.1, affine=True, track_running_stats=True)
                  (5): ReLU6()
                  (6): Conv2d(64, 64, kernel_size=(1, 1), stride=(1, 1))
                  (7): BatchNorm2d(64, eps=1e-05, momentum=0.1, affine=True, track_running_stats=True)
                )
              )
            )
            (body2): Sequential(
              (0): conv_ds(
                (conv): Sequential(
                  (0): Conv2d(64, 64, kernel_size=(1, 1), stride=(1, 1))
                  (1): BatchNorm2d(64, eps=1e-05, momentum=0.1, affine=True, track_running_stats=True)
                  (2): ReLU6()
                  (3): Conv2d(64, 64, kernel_size=(1, 1), stride=(1, 1), groups=64, bias=False)
                  (4): BatchNorm2d(64, eps=1e-05, momentum=0.1, affine=True, track_running_stats=True)
                  (5): ReLU6()
                  (6): Conv2d(64, 64, kernel_size=(1, 1), stride=(1, 1))
                  (7): BatchNorm2d(64, eps=1e-05, momentum=0.1, affine=True, track_running_stats=True)
                )
              )
              (1): LeakyReLU(negative_slope=0.2, inplace=True)
              (2): conv_ds(
                (conv): Sequential(
                  (0): Conv2d(64, 64, kernel_size=(1, 1), stride=(1, 1))
                  (1): BatchNorm2d(64, eps=1e-05, momentum=0.1, affine=True, track_running_stats=True)
                  (2): ReLU6()
                  (3): Conv2d(64, 64, kernel_size=(1, 1), stride=(1, 1), groups=64, bias=False)
                  (4): BatchNorm2d(64, eps=1e-05, momentum=0.1, affine=True, track_running_stats=True)
                  (5): ReLU6()
                  (6): Conv2d(64, 64, kernel_size=(1, 1), stride=(1, 1))
                  (7): BatchNorm2d(64, eps=1e-05, momentum=0.1, affine=True, track_running_stats=True)
                )
              )
            )
          )
          (3): DPCB(
            (body1): Sequential(
              (0): conv_ds(
                (conv): Sequential(
                  (0): Conv2d(64, 64, kernel_size=(1, 1), stride=(1, 1))
                  (1): BatchNorm2d(64, eps=1e-05, momentum=0.1, affine=True, track_running_stats=True)
                  (2): ReLU6()
                  (3): Conv2d(64, 64, kernel_size=(3, 3), stride=(1, 1), padding=(1, 1), groups=64, bias=False)
                  (4): BatchNorm2d(64, eps=1e-05, momentum=0.1, affine=True, track_running_stats=True)
                  (5): ReLU6()
                  (6): Conv2d(64, 64, kernel_size=(1, 1), stride=(1, 1))
                  (7): BatchNorm2d(64, eps=1e-05, momentum=0.1, affine=True, track_running_stats=True)
                )
              )
              (1): LeakyReLU(negative_slope=0.2, inplace=True)
              (2): conv_ds(
                (conv): Sequential(
                  (0): Conv2d(64, 64, kernel_size=(1, 1), stride=(1, 1))
                  (1): BatchNorm2d(64, eps=1e-05, momentum=0.1, affine=True, track_running_stats=True)
                  (2): ReLU6()
                  (3): Conv2d(64, 64, kernel_size=(3, 3), stride=(1, 1), padding=(1, 1), groups=64, bias=False)
                  (4): BatchNorm2d(64, eps=1e-05, momentum=0.1, affine=True, track_running_stats=True)
                  (5): ReLU6()
                  (6): Conv2d(64, 64, kernel_size=(1, 1), stride=(1, 1))
                  (7): BatchNorm2d(64, eps=1e-05, momentum=0.1, affine=True, track_running_stats=True)
                )
              )
            )
            (body2): Sequential(
              (0): conv_ds(
                (conv): Sequential(
                  (0): Conv2d(64, 64, kernel_size=(1, 1), stride=(1, 1))
                  (1): BatchNorm2d(64, eps=1e-05, momentum=0.1, affine=True, track_running_stats=True)
                  (2): ReLU6()
                  (3): Conv2d(64, 64, kernel_size=(1, 1), stride=(1, 1), groups=64, bias=False)
                  (4): BatchNorm2d(64, eps=1e-05, momentum=0.1, affine=True, track_running_stats=True)
                  (5): ReLU6()
                  (6): Conv2d(64, 64, kernel_size=(1, 1), stride=(1, 1))
                  (7): BatchNorm2d(64, eps=1e-05, momentum=0.1, affine=True, track_running_stats=True)
                )
              )
              (1): LeakyReLU(negative_slope=0.2, inplace=True)
              (2): conv_ds(
                (conv): Sequential(
                  (0): Conv2d(64, 64, kernel_size=(1, 1), stride=(1, 1))
                  (1): BatchNorm2d(64, eps=1e-05, momentum=0.1, affine=True, track_running_stats=True)
                  (2): ReLU6()
                  (3): Conv2d(64, 64, kernel_size=(1, 1), stride=(1, 1), groups=64, bias=False)
                  (4): BatchNorm2d(64, eps=1e-05, momentum=0.1, affine=True, track_running_stats=True)
                  (5): ReLU6()
                  (6): Conv2d(64, 64, kernel_size=(1, 1), stride=(1, 1))
                  (7): BatchNorm2d(64, eps=1e-05, momentum=0.1, affine=True, track_running_stats=True)
                )
              )
            )
          )
          (4): DPCB(
            (body1): Sequential(
              (0): conv_ds(
                (conv): Sequential(
                  (0): Conv2d(64, 64, kernel_size=(1, 1), stride=(1, 1))
                  (1): BatchNorm2d(64, eps=1e-05, momentum=0.1, affine=True, track_running_stats=True)
                  (2): ReLU6()
                  (3): Conv2d(64, 64, kernel_size=(3, 3), stride=(1, 1), padding=(1, 1), groups=64, bias=False)
                  (4): BatchNorm2d(64, eps=1e-05, momentum=0.1, affine=True, track_running_stats=True)
                  (5): ReLU6()
                  (6): Conv2d(64, 64, kernel_size=(1, 1), stride=(1, 1))
                  (7): BatchNorm2d(64, eps=1e-05, momentum=0.1, affine=True, track_running_stats=True)
                )
              )
              (1): LeakyReLU(negative_slope=0.2, inplace=True)
              (2): conv_ds(
                (conv): Sequential(
                  (0): Conv2d(64, 64, kernel_size=(1, 1), stride=(1, 1))
                  (1): BatchNorm2d(64, eps=1e-05, momentum=0.1, affine=True, track_running_stats=True)
                  (2): ReLU6()
                  (3): Conv2d(64, 64, kernel_size=(3, 3), stride=(1, 1), padding=(1, 1), groups=64, bias=False)
                  (4): BatchNorm2d(64, eps=1e-05, momentum=0.1, affine=True, track_running_stats=True)
                  (5): ReLU6()
                  (6): Conv2d(64, 64, kernel_size=(1, 1), stride=(1, 1))
                  (7): BatchNorm2d(64, eps=1e-05, momentum=0.1, affine=True, track_running_stats=True)
                )
              )
            )
            (body2): Sequential(
              (0): conv_ds(
                (conv): Sequential(
                  (0): Conv2d(64, 64, kernel_size=(1, 1), stride=(1, 1))
                  (1): BatchNorm2d(64, eps=1e-05, momentum=0.1, affine=True, track_running_stats=True)
                  (2): ReLU6()
                  (3): Conv2d(64, 64, kernel_size=(1, 1), stride=(1, 1), groups=64, bias=False)
                  (4): BatchNorm2d(64, eps=1e-05, momentum=0.1, affine=True, track_running_stats=True)
                  (5): ReLU6()
                  (6): Conv2d(64, 64, kernel_size=(1, 1), stride=(1, 1))
                  (7): BatchNorm2d(64, eps=1e-05, momentum=0.1, affine=True, track_running_stats=True)
                )
              )
              (1): LeakyReLU(negative_slope=0.2, inplace=True)
              (2): conv_ds(
                (conv): Sequential(
                  (0): Conv2d(64, 64, kernel_size=(1, 1), stride=(1, 1))
                  (1): BatchNorm2d(64, eps=1e-05, momentum=0.1, affine=True, track_running_stats=True)
                  (2): ReLU6()
                  (3): Conv2d(64, 64, kernel_size=(1, 1), stride=(1, 1), groups=64, bias=False)
                  (4): BatchNorm2d(64, eps=1e-05, momentum=0.1, affine=True, track_running_stats=True)
                  (5): ReLU6()
                  (6): Conv2d(64, 64, kernel_size=(1, 1), stride=(1, 1))
                  (7): BatchNorm2d(64, eps=1e-05, momentum=0.1, affine=True, track_running_stats=True)
                )
              )
            )
          )
          (5): DPCB(
            (body1): Sequential(
              (0): conv_ds(
                (conv): Sequential(
                  (0): Conv2d(64, 64, kernel_size=(1, 1), stride=(1, 1))
                  (1): BatchNorm2d(64, eps=1e-05, momentum=0.1, affine=True, track_running_stats=True)
                  (2): ReLU6()
                  (3): Conv2d(64, 64, kernel_size=(3, 3), stride=(1, 1), padding=(1, 1), groups=64, bias=False)
                  (4): BatchNorm2d(64, eps=1e-05, momentum=0.1, affine=True, track_running_stats=True)
                  (5): ReLU6()
                  (6): Conv2d(64, 64, kernel_size=(1, 1), stride=(1, 1))
                  (7): BatchNorm2d(64, eps=1e-05, momentum=0.1, affine=True, track_running_stats=True)
                )
              )
              (1): LeakyReLU(negative_slope=0.2, inplace=True)
              (2): conv_ds(
                (conv): Sequential(
                  (0): Conv2d(64, 64, kernel_size=(1, 1), stride=(1, 1))
                  (1): BatchNorm2d(64, eps=1e-05, momentum=0.1, affine=True, track_running_stats=True)
                  (2): ReLU6()
                  (3): Conv2d(64, 64, kernel_size=(3, 3), stride=(1, 1), padding=(1, 1), groups=64, bias=False)
                  (4): BatchNorm2d(64, eps=1e-05, momentum=0.1, affine=True, track_running_stats=True)
                  (5): ReLU6()
                  (6): Conv2d(64, 64, kernel_size=(1, 1), stride=(1, 1))
                  (7): BatchNorm2d(64, eps=1e-05, momentum=0.1, affine=True, track_running_stats=True)
                )
              )
            )
            (body2): Sequential(
              (0): conv_ds(
                (conv): Sequential(
                  (0): Conv2d(64, 64, kernel_size=(1, 1), stride=(1, 1))
                  (1): BatchNorm2d(64, eps=1e-05, momentum=0.1, affine=True, track_running_stats=True)
                  (2): ReLU6()
                  (3): Conv2d(64, 64, kernel_size=(1, 1), stride=(1, 1), groups=64, bias=False)
                  (4): BatchNorm2d(64, eps=1e-05, momentum=0.1, affine=True, track_running_stats=True)
                  (5): ReLU6()
                  (6): Conv2d(64, 64, kernel_size=(1, 1), stride=(1, 1))
                  (7): BatchNorm2d(64, eps=1e-05, momentum=0.1, affine=True, track_running_stats=True)
                )
              )
              (1): LeakyReLU(negative_slope=0.2, inplace=True)
              (2): conv_ds(
                (conv): Sequential(
                  (0): Conv2d(64, 64, kernel_size=(1, 1), stride=(1, 1))
                  (1): BatchNorm2d(64, eps=1e-05, momentum=0.1, affine=True, track_running_stats=True)
                  (2): ReLU6()
                  (3): Conv2d(64, 64, kernel_size=(1, 1), stride=(1, 1), groups=64, bias=False)
                  (4): BatchNorm2d(64, eps=1e-05, momentum=0.1, affine=True, track_running_stats=True)
                  (5): ReLU6()
                  (6): Conv2d(64, 64, kernel_size=(1, 1), stride=(1, 1))
                  (7): BatchNorm2d(64, eps=1e-05, momentum=0.1, affine=True, track_running_stats=True)
                )
              )
            )
          )
          (6): DPCB(
            (body1): Sequential(
              (0): conv_ds(
                (conv): Sequential(
                  (0): Conv2d(64, 64, kernel_size=(1, 1), stride=(1, 1))
                  (1): BatchNorm2d(64, eps=1e-05, momentum=0.1, affine=True, track_running_stats=True)
                  (2): ReLU6()
                  (3): Conv2d(64, 64, kernel_size=(3, 3), stride=(1, 1), padding=(1, 1), groups=64, bias=False)
                  (4): BatchNorm2d(64, eps=1e-05, momentum=0.1, affine=True, track_running_stats=True)
                  (5): ReLU6()
                  (6): Conv2d(64, 64, kernel_size=(1, 1), stride=(1, 1))
                  (7): BatchNorm2d(64, eps=1e-05, momentum=0.1, affine=True, track_running_stats=True)
                )
              )
              (1): LeakyReLU(negative_slope=0.2, inplace=True)
              (2): conv_ds(
                (conv): Sequential(
                  (0): Conv2d(64, 64, kernel_size=(1, 1), stride=(1, 1))
                  (1): BatchNorm2d(64, eps=1e-05, momentum=0.1, affine=True, track_running_stats=True)
                  (2): ReLU6()
                  (3): Conv2d(64, 64, kernel_size=(3, 3), stride=(1, 1), padding=(1, 1), groups=64, bias=False)
                  (4): BatchNorm2d(64, eps=1e-05, momentum=0.1, affine=True, track_running_stats=True)
                  (5): ReLU6()
                  (6): Conv2d(64, 64, kernel_size=(1, 1), stride=(1, 1))
                  (7): BatchNorm2d(64, eps=1e-05, momentum=0.1, affine=True, track_running_stats=True)
                )
              )
            )
            (body2): Sequential(
              (0): conv_ds(
                (conv): Sequential(
                  (0): Conv2d(64, 64, kernel_size=(1, 1), stride=(1, 1))
                  (1): BatchNorm2d(64, eps=1e-05, momentum=0.1, affine=True, track_running_stats=True)
                  (2): ReLU6()
                  (3): Conv2d(64, 64, kernel_size=(1, 1), stride=(1, 1), groups=64, bias=False)
                  (4): BatchNorm2d(64, eps=1e-05, momentum=0.1, affine=True, track_running_stats=True)
                  (5): ReLU6()
                  (6): Conv2d(64, 64, kernel_size=(1, 1), stride=(1, 1))
                  (7): BatchNorm2d(64, eps=1e-05, momentum=0.1, affine=True, track_running_stats=True)
                )
              )
              (1): LeakyReLU(negative_slope=0.2, inplace=True)
              (2): conv_ds(
                (conv): Sequential(
                  (0): Conv2d(64, 64, kernel_size=(1, 1), stride=(1, 1))
                  (1): BatchNorm2d(64, eps=1e-05, momentum=0.1, affine=True, track_running_stats=True)
                  (2): ReLU6()
                  (3): Conv2d(64, 64, kernel_size=(1, 1), stride=(1, 1), groups=64, bias=False)
                  (4): BatchNorm2d(64, eps=1e-05, momentum=0.1, affine=True, track_running_stats=True)
                  (5): ReLU6()
                  (6): Conv2d(64, 64, kernel_size=(1, 1), stride=(1, 1))
                  (7): BatchNorm2d(64, eps=1e-05, momentum=0.1, affine=True, track_running_stats=True)
                )
              )
            )
          )
          (7): DPCB(
            (body1): Sequential(
              (0): conv_ds(
                (conv): Sequential(
                  (0): Conv2d(64, 64, kernel_size=(1, 1), stride=(1, 1))
                  (1): BatchNorm2d(64, eps=1e-05, momentum=0.1, affine=True, track_running_stats=True)
                  (2): ReLU6()
                  (3): Conv2d(64, 64, kernel_size=(3, 3), stride=(1, 1), padding=(1, 1), groups=64, bias=False)
                  (4): BatchNorm2d(64, eps=1e-05, momentum=0.1, affine=True, track_running_stats=True)
                  (5): ReLU6()
                  (6): Conv2d(64, 64, kernel_size=(1, 1), stride=(1, 1))
                  (7): BatchNorm2d(64, eps=1e-05, momentum=0.1, affine=True, track_running_stats=True)
                )
              )
              (1): LeakyReLU(negative_slope=0.2, inplace=True)
              (2): conv_ds(
                (conv): Sequential(
                  (0): Conv2d(64, 64, kernel_size=(1, 1), stride=(1, 1))
                  (1): BatchNorm2d(64, eps=1e-05, momentum=0.1, affine=True, track_running_stats=True)
                  (2): ReLU6()
                  (3): Conv2d(64, 64, kernel_size=(3, 3), stride=(1, 1), padding=(1, 1), groups=64, bias=False)
                  (4): BatchNorm2d(64, eps=1e-05, momentum=0.1, affine=True, track_running_stats=True)
                  (5): ReLU6()
                  (6): Conv2d(64, 64, kernel_size=(1, 1), stride=(1, 1))
                  (7): BatchNorm2d(64, eps=1e-05, momentum=0.1, affine=True, track_running_stats=True)
                )
              )
            )
            (body2): Sequential(
              (0): conv_ds(
                (conv): Sequential(
                  (0): Conv2d(64, 64, kernel_size=(1, 1), stride=(1, 1))
                  (1): BatchNorm2d(64, eps=1e-05, momentum=0.1, affine=True, track_running_stats=True)
                  (2): ReLU6()
                  (3): Conv2d(64, 64, kernel_size=(1, 1), stride=(1, 1), groups=64, bias=False)
                  (4): BatchNorm2d(64, eps=1e-05, momentum=0.1, affine=True, track_running_stats=True)
                  (5): ReLU6()
                  (6): Conv2d(64, 64, kernel_size=(1, 1), stride=(1, 1))
                  (7): BatchNorm2d(64, eps=1e-05, momentum=0.1, affine=True, track_running_stats=True)
                )
              )
              (1): LeakyReLU(negative_slope=0.2, inplace=True)
              (2): conv_ds(
                (conv): Sequential(
                  (0): Conv2d(64, 64, kernel_size=(1, 1), stride=(1, 1))
                  (1): BatchNorm2d(64, eps=1e-05, momentum=0.1, affine=True, track_running_stats=True)
                  (2): ReLU6()
                  (3): Conv2d(64, 64, kernel_size=(1, 1), stride=(1, 1), groups=64, bias=False)
                  (4): BatchNorm2d(64, eps=1e-05, momentum=0.1, affine=True, track_running_stats=True)
                  (5): ReLU6()
                  (6): Conv2d(64, 64, kernel_size=(1, 1), stride=(1, 1))
                  (7): BatchNorm2d(64, eps=1e-05, momentum=0.1, affine=True, track_running_stats=True)
                )
              )
            )
          )
          (8): DPCB(
            (body1): Sequential(
              (0): conv_ds(
                (conv): Sequential(
                  (0): Conv2d(64, 64, kernel_size=(1, 1), stride=(1, 1))
                  (1): BatchNorm2d(64, eps=1e-05, momentum=0.1, affine=True, track_running_stats=True)
                  (2): ReLU6()
                  (3): Conv2d(64, 64, kernel_size=(3, 3), stride=(1, 1), padding=(1, 1), groups=64, bias=False)
                  (4): BatchNorm2d(64, eps=1e-05, momentum=0.1, affine=True, track_running_stats=True)
                  (5): ReLU6()
                  (6): Conv2d(64, 64, kernel_size=(1, 1), stride=(1, 1))
                  (7): BatchNorm2d(64, eps=1e-05, momentum=0.1, affine=True, track_running_stats=True)
                )
              )
              (1): LeakyReLU(negative_slope=0.2, inplace=True)
              (2): conv_ds(
                (conv): Sequential(
                  (0): Conv2d(64, 64, kernel_size=(1, 1), stride=(1, 1))
                  (1): BatchNorm2d(64, eps=1e-05, momentum=0.1, affine=True, track_running_stats=True)
                  (2): ReLU6()
                  (3): Conv2d(64, 64, kernel_size=(3, 3), stride=(1, 1), padding=(1, 1), groups=64, bias=False)
                  (4): BatchNorm2d(64, eps=1e-05, momentum=0.1, affine=True, track_running_stats=True)
                  (5): ReLU6()
                  (6): Conv2d(64, 64, kernel_size=(1, 1), stride=(1, 1))
                  (7): BatchNorm2d(64, eps=1e-05, momentum=0.1, affine=True, track_running_stats=True)
                )
              )
            )
            (body2): Sequential(
              (0): conv_ds(
                (conv): Sequential(
                  (0): Conv2d(64, 64, kernel_size=(1, 1), stride=(1, 1))
                  (1): BatchNorm2d(64, eps=1e-05, momentum=0.1, affine=True, track_running_stats=True)
                  (2): ReLU6()
                  (3): Conv2d(64, 64, kernel_size=(1, 1), stride=(1, 1), groups=64, bias=False)
                  (4): BatchNorm2d(64, eps=1e-05, momentum=0.1, affine=True, track_running_stats=True)
                  (5): ReLU6()
                  (6): Conv2d(64, 64, kernel_size=(1, 1), stride=(1, 1))
                  (7): BatchNorm2d(64, eps=1e-05, momentum=0.1, affine=True, track_running_stats=True)
                )
              )
              (1): LeakyReLU(negative_slope=0.2, inplace=True)
              (2): conv_ds(
                (conv): Sequential(
                  (0): Conv2d(64, 64, kernel_size=(1, 1), stride=(1, 1))
                  (1): BatchNorm2d(64, eps=1e-05, momentum=0.1, affine=True, track_running_stats=True)
                  (2): ReLU6()
                  (3): Conv2d(64, 64, kernel_size=(1, 1), stride=(1, 1), groups=64, bias=False)
                  (4): BatchNorm2d(64, eps=1e-05, momentum=0.1, affine=True, track_running_stats=True)
                  (5): ReLU6()
                  (6): Conv2d(64, 64, kernel_size=(1, 1), stride=(1, 1))
                  (7): BatchNorm2d(64, eps=1e-05, momentum=0.1, affine=True, track_running_stats=True)
                )
              )
            )
          )
          (9): DPCB(
            (body1): Sequential(
              (0): conv_ds(
                (conv): Sequential(
                  (0): Conv2d(64, 64, kernel_size=(1, 1), stride=(1, 1))
                  (1): BatchNorm2d(64, eps=1e-05, momentum=0.1, affine=True, track_running_stats=True)
                  (2): ReLU6()
                  (3): Conv2d(64, 64, kernel_size=(3, 3), stride=(1, 1), padding=(1, 1), groups=64, bias=False)
                  (4): BatchNorm2d(64, eps=1e-05, momentum=0.1, affine=True, track_running_stats=True)
                  (5): ReLU6()
                  (6): Conv2d(64, 64, kernel_size=(1, 1), stride=(1, 1))
                  (7): BatchNorm2d(64, eps=1e-05, momentum=0.1, affine=True, track_running_stats=True)
                )
              )
              (1): LeakyReLU(negative_slope=0.2, inplace=True)
              (2): conv_ds(
                (conv): Sequential(
                  (0): Conv2d(64, 64, kernel_size=(1, 1), stride=(1, 1))
                  (1): BatchNorm2d(64, eps=1e-05, momentum=0.1, affine=True, track_running_stats=True)
                  (2): ReLU6()
                  (3): Conv2d(64, 64, kernel_size=(3, 3), stride=(1, 1), padding=(1, 1), groups=64, bias=False)
                  (4): BatchNorm2d(64, eps=1e-05, momentum=0.1, affine=True, track_running_stats=True)
                  (5): ReLU6()
                  (6): Conv2d(64, 64, kernel_size=(1, 1), stride=(1, 1))
                  (7): BatchNorm2d(64, eps=1e-05, momentum=0.1, affine=True, track_running_stats=True)
                )
              )
            )
            (body2): Sequential(
              (0): conv_ds(
                (conv): Sequential(
                  (0): Conv2d(64, 64, kernel_size=(1, 1), stride=(1, 1))
                  (1): BatchNorm2d(64, eps=1e-05, momentum=0.1, affine=True, track_running_stats=True)
                  (2): ReLU6()
                  (3): Conv2d(64, 64, kernel_size=(1, 1), stride=(1, 1), groups=64, bias=False)
                  (4): BatchNorm2d(64, eps=1e-05, momentum=0.1, affine=True, track_running_stats=True)
                  (5): ReLU6()
                  (6): Conv2d(64, 64, kernel_size=(1, 1), stride=(1, 1))
                  (7): BatchNorm2d(64, eps=1e-05, momentum=0.1, affine=True, track_running_stats=True)
                )
              )
              (1): LeakyReLU(negative_slope=0.2, inplace=True)
              (2): conv_ds(
                (conv): Sequential(
                  (0): Conv2d(64, 64, kernel_size=(1, 1), stride=(1, 1))
                  (1): BatchNorm2d(64, eps=1e-05, momentum=0.1, affine=True, track_running_stats=True)
                  (2): ReLU6()
                  (3): Conv2d(64, 64, kernel_size=(1, 1), stride=(1, 1), groups=64, bias=False)
                  (4): BatchNorm2d(64, eps=1e-05, momentum=0.1, affine=True, track_running_stats=True)
                  (5): ReLU6()
                  (6): Conv2d(64, 64, kernel_size=(1, 1), stride=(1, 1))
                  (7): BatchNorm2d(64, eps=1e-05, momentum=0.1, affine=True, track_running_stats=True)
                )
              )
            )
          )
        )
      )
      (4): DPCG(
        (body): Sequential(
          (0): DPCB(
            (body1): Sequential(
              (0): conv_ds(
                (conv): Sequential(
                  (0): Conv2d(64, 64, kernel_size=(1, 1), stride=(1, 1))
                  (1): BatchNorm2d(64, eps=1e-05, momentum=0.1, affine=True, track_running_stats=True)
                  (2): ReLU6()
                  (3): Conv2d(64, 64, kernel_size=(3, 3), stride=(1, 1), padding=(1, 1), groups=64, bias=False)
                  (4): BatchNorm2d(64, eps=1e-05, momentum=0.1, affine=True, track_running_stats=True)
                  (5): ReLU6()
                  (6): Conv2d(64, 64, kernel_size=(1, 1), stride=(1, 1))
                  (7): BatchNorm2d(64, eps=1e-05, momentum=0.1, affine=True, track_running_stats=True)
                )
              )
              (1): LeakyReLU(negative_slope=0.2, inplace=True)
              (2): conv_ds(
                (conv): Sequential(
                  (0): Conv2d(64, 64, kernel_size=(1, 1), stride=(1, 1))
                  (1): BatchNorm2d(64, eps=1e-05, momentum=0.1, affine=True, track_running_stats=True)
                  (2): ReLU6()
                  (3): Conv2d(64, 64, kernel_size=(3, 3), stride=(1, 1), padding=(1, 1), groups=64, bias=False)
                  (4): BatchNorm2d(64, eps=1e-05, momentum=0.1, affine=True, track_running_stats=True)
                  (5): ReLU6()
                  (6): Conv2d(64, 64, kernel_size=(1, 1), stride=(1, 1))
                  (7): BatchNorm2d(64, eps=1e-05, momentum=0.1, affine=True, track_running_stats=True)
                )
              )
            )
            (body2): Sequential(
              (0): conv_ds(
                (conv): Sequential(
                  (0): Conv2d(64, 64, kernel_size=(1, 1), stride=(1, 1))
                  (1): BatchNorm2d(64, eps=1e-05, momentum=0.1, affine=True, track_running_stats=True)
                  (2): ReLU6()
                  (3): Conv2d(64, 64, kernel_size=(1, 1), stride=(1, 1), groups=64, bias=False)
                  (4): BatchNorm2d(64, eps=1e-05, momentum=0.1, affine=True, track_running_stats=True)
                  (5): ReLU6()
                  (6): Conv2d(64, 64, kernel_size=(1, 1), stride=(1, 1))
                  (7): BatchNorm2d(64, eps=1e-05, momentum=0.1, affine=True, track_running_stats=True)
                )
              )
              (1): LeakyReLU(negative_slope=0.2, inplace=True)
              (2): conv_ds(
                (conv): Sequential(
                  (0): Conv2d(64, 64, kernel_size=(1, 1), stride=(1, 1))
                  (1): BatchNorm2d(64, eps=1e-05, momentum=0.1, affine=True, track_running_stats=True)
                  (2): ReLU6()
                  (3): Conv2d(64, 64, kernel_size=(1, 1), stride=(1, 1), groups=64, bias=False)
                  (4): BatchNorm2d(64, eps=1e-05, momentum=0.1, affine=True, track_running_stats=True)
                  (5): ReLU6()
                  (6): Conv2d(64, 64, kernel_size=(1, 1), stride=(1, 1))
                  (7): BatchNorm2d(64, eps=1e-05, momentum=0.1, affine=True, track_running_stats=True)
                )
              )
            )
          )
          (1): DPCB(
            (body1): Sequential(
              (0): conv_ds(
                (conv): Sequential(
                  (0): Conv2d(64, 64, kernel_size=(1, 1), stride=(1, 1))
                  (1): BatchNorm2d(64, eps=1e-05, momentum=0.1, affine=True, track_running_stats=True)
                  (2): ReLU6()
                  (3): Conv2d(64, 64, kernel_size=(3, 3), stride=(1, 1), padding=(1, 1), groups=64, bias=False)
                  (4): BatchNorm2d(64, eps=1e-05, momentum=0.1, affine=True, track_running_stats=True)
                  (5): ReLU6()
                  (6): Conv2d(64, 64, kernel_size=(1, 1), stride=(1, 1))
                  (7): BatchNorm2d(64, eps=1e-05, momentum=0.1, affine=True, track_running_stats=True)
                )
              )
              (1): LeakyReLU(negative_slope=0.2, inplace=True)
              (2): conv_ds(
                (conv): Sequential(
                  (0): Conv2d(64, 64, kernel_size=(1, 1), stride=(1, 1))
                  (1): BatchNorm2d(64, eps=1e-05, momentum=0.1, affine=True, track_running_stats=True)
                  (2): ReLU6()
                  (3): Conv2d(64, 64, kernel_size=(3, 3), stride=(1, 1), padding=(1, 1), groups=64, bias=False)
                  (4): BatchNorm2d(64, eps=1e-05, momentum=0.1, affine=True, track_running_stats=True)
                  (5): ReLU6()
                  (6): Conv2d(64, 64, kernel_size=(1, 1), stride=(1, 1))
                  (7): BatchNorm2d(64, eps=1e-05, momentum=0.1, affine=True, track_running_stats=True)
                )
              )
            )
            (body2): Sequential(
              (0): conv_ds(
                (conv): Sequential(
                  (0): Conv2d(64, 64, kernel_size=(1, 1), stride=(1, 1))
                  (1): BatchNorm2d(64, eps=1e-05, momentum=0.1, affine=True, track_running_stats=True)
                  (2): ReLU6()
                  (3): Conv2d(64, 64, kernel_size=(1, 1), stride=(1, 1), groups=64, bias=False)
                  (4): BatchNorm2d(64, eps=1e-05, momentum=0.1, affine=True, track_running_stats=True)
                  (5): ReLU6()
                  (6): Conv2d(64, 64, kernel_size=(1, 1), stride=(1, 1))
                  (7): BatchNorm2d(64, eps=1e-05, momentum=0.1, affine=True, track_running_stats=True)
                )
              )
              (1): LeakyReLU(negative_slope=0.2, inplace=True)
              (2): conv_ds(
                (conv): Sequential(
                  (0): Conv2d(64, 64, kernel_size=(1, 1), stride=(1, 1))
                  (1): BatchNorm2d(64, eps=1e-05, momentum=0.1, affine=True, track_running_stats=True)
                  (2): ReLU6()
                  (3): Conv2d(64, 64, kernel_size=(1, 1), stride=(1, 1), groups=64, bias=False)
                  (4): BatchNorm2d(64, eps=1e-05, momentum=0.1, affine=True, track_running_stats=True)
                  (5): ReLU6()
                  (6): Conv2d(64, 64, kernel_size=(1, 1), stride=(1, 1))
                  (7): BatchNorm2d(64, eps=1e-05, momentum=0.1, affine=True, track_running_stats=True)
                )
              )
            )
          )
          (2): DPCB(
            (body1): Sequential(
              (0): conv_ds(
                (conv): Sequential(
                  (0): Conv2d(64, 64, kernel_size=(1, 1), stride=(1, 1))
                  (1): BatchNorm2d(64, eps=1e-05, momentum=0.1, affine=True, track_running_stats=True)
                  (2): ReLU6()
                  (3): Conv2d(64, 64, kernel_size=(3, 3), stride=(1, 1), padding=(1, 1), groups=64, bias=False)
                  (4): BatchNorm2d(64, eps=1e-05, momentum=0.1, affine=True, track_running_stats=True)
                  (5): ReLU6()
                  (6): Conv2d(64, 64, kernel_size=(1, 1), stride=(1, 1))
                  (7): BatchNorm2d(64, eps=1e-05, momentum=0.1, affine=True, track_running_stats=True)
                )
              )
              (1): LeakyReLU(negative_slope=0.2, inplace=True)
              (2): conv_ds(
                (conv): Sequential(
                  (0): Conv2d(64, 64, kernel_size=(1, 1), stride=(1, 1))
                  (1): BatchNorm2d(64, eps=1e-05, momentum=0.1, affine=True, track_running_stats=True)
                  (2): ReLU6()
                  (3): Conv2d(64, 64, kernel_size=(3, 3), stride=(1, 1), padding=(1, 1), groups=64, bias=False)
                  (4): BatchNorm2d(64, eps=1e-05, momentum=0.1, affine=True, track_running_stats=True)
                  (5): ReLU6()
                  (6): Conv2d(64, 64, kernel_size=(1, 1), stride=(1, 1))
                  (7): BatchNorm2d(64, eps=1e-05, momentum=0.1, affine=True, track_running_stats=True)
                )
              )
            )
            (body2): Sequential(
              (0): conv_ds(
                (conv): Sequential(
                  (0): Conv2d(64, 64, kernel_size=(1, 1), stride=(1, 1))
                  (1): BatchNorm2d(64, eps=1e-05, momentum=0.1, affine=True, track_running_stats=True)
                  (2): ReLU6()
                  (3): Conv2d(64, 64, kernel_size=(1, 1), stride=(1, 1), groups=64, bias=False)
                  (4): BatchNorm2d(64, eps=1e-05, momentum=0.1, affine=True, track_running_stats=True)
                  (5): ReLU6()
                  (6): Conv2d(64, 64, kernel_size=(1, 1), stride=(1, 1))
                  (7): BatchNorm2d(64, eps=1e-05, momentum=0.1, affine=True, track_running_stats=True)
                )
              )
              (1): LeakyReLU(negative_slope=0.2, inplace=True)
              (2): conv_ds(
                (conv): Sequential(
                  (0): Conv2d(64, 64, kernel_size=(1, 1), stride=(1, 1))
                  (1): BatchNorm2d(64, eps=1e-05, momentum=0.1, affine=True, track_running_stats=True)
                  (2): ReLU6()
                  (3): Conv2d(64, 64, kernel_size=(1, 1), stride=(1, 1), groups=64, bias=False)
                  (4): BatchNorm2d(64, eps=1e-05, momentum=0.1, affine=True, track_running_stats=True)
                  (5): ReLU6()
                  (6): Conv2d(64, 64, kernel_size=(1, 1), stride=(1, 1))
                  (7): BatchNorm2d(64, eps=1e-05, momentum=0.1, affine=True, track_running_stats=True)
                )
              )
            )
          )
          (3): DPCB(
            (body1): Sequential(
              (0): conv_ds(
                (conv): Sequential(
                  (0): Conv2d(64, 64, kernel_size=(1, 1), stride=(1, 1))
                  (1): BatchNorm2d(64, eps=1e-05, momentum=0.1, affine=True, track_running_stats=True)
                  (2): ReLU6()
                  (3): Conv2d(64, 64, kernel_size=(3, 3), stride=(1, 1), padding=(1, 1), groups=64, bias=False)
                  (4): BatchNorm2d(64, eps=1e-05, momentum=0.1, affine=True, track_running_stats=True)
                  (5): ReLU6()
                  (6): Conv2d(64, 64, kernel_size=(1, 1), stride=(1, 1))
                  (7): BatchNorm2d(64, eps=1e-05, momentum=0.1, affine=True, track_running_stats=True)
                )
              )
              (1): LeakyReLU(negative_slope=0.2, inplace=True)
              (2): conv_ds(
                (conv): Sequential(
                  (0): Conv2d(64, 64, kernel_size=(1, 1), stride=(1, 1))
                  (1): BatchNorm2d(64, eps=1e-05, momentum=0.1, affine=True, track_running_stats=True)
                  (2): ReLU6()
                  (3): Conv2d(64, 64, kernel_size=(3, 3), stride=(1, 1), padding=(1, 1), groups=64, bias=False)
                  (4): BatchNorm2d(64, eps=1e-05, momentum=0.1, affine=True, track_running_stats=True)
                  (5): ReLU6()
                  (6): Conv2d(64, 64, kernel_size=(1, 1), stride=(1, 1))
                  (7): BatchNorm2d(64, eps=1e-05, momentum=0.1, affine=True, track_running_stats=True)
                )
              )
            )
            (body2): Sequential(
              (0): conv_ds(
                (conv): Sequential(
                  (0): Conv2d(64, 64, kernel_size=(1, 1), stride=(1, 1))
                  (1): BatchNorm2d(64, eps=1e-05, momentum=0.1, affine=True, track_running_stats=True)
                  (2): ReLU6()
                  (3): Conv2d(64, 64, kernel_size=(1, 1), stride=(1, 1), groups=64, bias=False)
                  (4): BatchNorm2d(64, eps=1e-05, momentum=0.1, affine=True, track_running_stats=True)
                  (5): ReLU6()
                  (6): Conv2d(64, 64, kernel_size=(1, 1), stride=(1, 1))
                  (7): BatchNorm2d(64, eps=1e-05, momentum=0.1, affine=True, track_running_stats=True)
                )
              )
              (1): LeakyReLU(negative_slope=0.2, inplace=True)
              (2): conv_ds(
                (conv): Sequential(
                  (0): Conv2d(64, 64, kernel_size=(1, 1), stride=(1, 1))
                  (1): BatchNorm2d(64, eps=1e-05, momentum=0.1, affine=True, track_running_stats=True)
                  (2): ReLU6()
                  (3): Conv2d(64, 64, kernel_size=(1, 1), stride=(1, 1), groups=64, bias=False)
                  (4): BatchNorm2d(64, eps=1e-05, momentum=0.1, affine=True, track_running_stats=True)
                  (5): ReLU6()
                  (6): Conv2d(64, 64, kernel_size=(1, 1), stride=(1, 1))
                  (7): BatchNorm2d(64, eps=1e-05, momentum=0.1, affine=True, track_running_stats=True)
                )
              )
            )
          )
          (4): DPCB(
            (body1): Sequential(
              (0): conv_ds(
                (conv): Sequential(
                  (0): Conv2d(64, 64, kernel_size=(1, 1), stride=(1, 1))
                  (1): BatchNorm2d(64, eps=1e-05, momentum=0.1, affine=True, track_running_stats=True)
                  (2): ReLU6()
                  (3): Conv2d(64, 64, kernel_size=(3, 3), stride=(1, 1), padding=(1, 1), groups=64, bias=False)
                  (4): BatchNorm2d(64, eps=1e-05, momentum=0.1, affine=True, track_running_stats=True)
                  (5): ReLU6()
                  (6): Conv2d(64, 64, kernel_size=(1, 1), stride=(1, 1))
                  (7): BatchNorm2d(64, eps=1e-05, momentum=0.1, affine=True, track_running_stats=True)
                )
              )
              (1): LeakyReLU(negative_slope=0.2, inplace=True)
              (2): conv_ds(
                (conv): Sequential(
                  (0): Conv2d(64, 64, kernel_size=(1, 1), stride=(1, 1))
                  (1): BatchNorm2d(64, eps=1e-05, momentum=0.1, affine=True, track_running_stats=True)
                  (2): ReLU6()
                  (3): Conv2d(64, 64, kernel_size=(3, 3), stride=(1, 1), padding=(1, 1), groups=64, bias=False)
                  (4): BatchNorm2d(64, eps=1e-05, momentum=0.1, affine=True, track_running_stats=True)
                  (5): ReLU6()
                  (6): Conv2d(64, 64, kernel_size=(1, 1), stride=(1, 1))
                  (7): BatchNorm2d(64, eps=1e-05, momentum=0.1, affine=True, track_running_stats=True)
                )
              )
            )
            (body2): Sequential(
              (0): conv_ds(
                (conv): Sequential(
                  (0): Conv2d(64, 64, kernel_size=(1, 1), stride=(1, 1))
                  (1): BatchNorm2d(64, eps=1e-05, momentum=0.1, affine=True, track_running_stats=True)
                  (2): ReLU6()
                  (3): Conv2d(64, 64, kernel_size=(1, 1), stride=(1, 1), groups=64, bias=False)
                  (4): BatchNorm2d(64, eps=1e-05, momentum=0.1, affine=True, track_running_stats=True)
                  (5): ReLU6()
                  (6): Conv2d(64, 64, kernel_size=(1, 1), stride=(1, 1))
                  (7): BatchNorm2d(64, eps=1e-05, momentum=0.1, affine=True, track_running_stats=True)
                )
              )
              (1): LeakyReLU(negative_slope=0.2, inplace=True)
              (2): conv_ds(
                (conv): Sequential(
                  (0): Conv2d(64, 64, kernel_size=(1, 1), stride=(1, 1))
                  (1): BatchNorm2d(64, eps=1e-05, momentum=0.1, affine=True, track_running_stats=True)
                  (2): ReLU6()
                  (3): Conv2d(64, 64, kernel_size=(1, 1), stride=(1, 1), groups=64, bias=False)
                  (4): BatchNorm2d(64, eps=1e-05, momentum=0.1, affine=True, track_running_stats=True)
                  (5): ReLU6()
                  (6): Conv2d(64, 64, kernel_size=(1, 1), stride=(1, 1))
                  (7): BatchNorm2d(64, eps=1e-05, momentum=0.1, affine=True, track_running_stats=True)
                )
              )
            )
          )
          (5): DPCB(
            (body1): Sequential(
              (0): conv_ds(
                (conv): Sequential(
                  (0): Conv2d(64, 64, kernel_size=(1, 1), stride=(1, 1))
                  (1): BatchNorm2d(64, eps=1e-05, momentum=0.1, affine=True, track_running_stats=True)
                  (2): ReLU6()
                  (3): Conv2d(64, 64, kernel_size=(3, 3), stride=(1, 1), padding=(1, 1), groups=64, bias=False)
                  (4): BatchNorm2d(64, eps=1e-05, momentum=0.1, affine=True, track_running_stats=True)
                  (5): ReLU6()
                  (6): Conv2d(64, 64, kernel_size=(1, 1), stride=(1, 1))
                  (7): BatchNorm2d(64, eps=1e-05, momentum=0.1, affine=True, track_running_stats=True)
                )
              )
              (1): LeakyReLU(negative_slope=0.2, inplace=True)
              (2): conv_ds(
                (conv): Sequential(
                  (0): Conv2d(64, 64, kernel_size=(1, 1), stride=(1, 1))
                  (1): BatchNorm2d(64, eps=1e-05, momentum=0.1, affine=True, track_running_stats=True)
                  (2): ReLU6()
                  (3): Conv2d(64, 64, kernel_size=(3, 3), stride=(1, 1), padding=(1, 1), groups=64, bias=False)
                  (4): BatchNorm2d(64, eps=1e-05, momentum=0.1, affine=True, track_running_stats=True)
                  (5): ReLU6()
                  (6): Conv2d(64, 64, kernel_size=(1, 1), stride=(1, 1))
                  (7): BatchNorm2d(64, eps=1e-05, momentum=0.1, affine=True, track_running_stats=True)
                )
              )
            )
            (body2): Sequential(
              (0): conv_ds(
                (conv): Sequential(
                  (0): Conv2d(64, 64, kernel_size=(1, 1), stride=(1, 1))
                  (1): BatchNorm2d(64, eps=1e-05, momentum=0.1, affine=True, track_running_stats=True)
                  (2): ReLU6()
                  (3): Conv2d(64, 64, kernel_size=(1, 1), stride=(1, 1), groups=64, bias=False)
                  (4): BatchNorm2d(64, eps=1e-05, momentum=0.1, affine=True, track_running_stats=True)
                  (5): ReLU6()
                  (6): Conv2d(64, 64, kernel_size=(1, 1), stride=(1, 1))
                  (7): BatchNorm2d(64, eps=1e-05, momentum=0.1, affine=True, track_running_stats=True)
                )
              )
              (1): LeakyReLU(negative_slope=0.2, inplace=True)
              (2): conv_ds(
                (conv): Sequential(
                  (0): Conv2d(64, 64, kernel_size=(1, 1), stride=(1, 1))
                  (1): BatchNorm2d(64, eps=1e-05, momentum=0.1, affine=True, track_running_stats=True)
                  (2): ReLU6()
                  (3): Conv2d(64, 64, kernel_size=(1, 1), stride=(1, 1), groups=64, bias=False)
                  (4): BatchNorm2d(64, eps=1e-05, momentum=0.1, affine=True, track_running_stats=True)
                  (5): ReLU6()
                  (6): Conv2d(64, 64, kernel_size=(1, 1), stride=(1, 1))
                  (7): BatchNorm2d(64, eps=1e-05, momentum=0.1, affine=True, track_running_stats=True)
                )
              )
            )
          )
          (6): DPCB(
            (body1): Sequential(
              (0): conv_ds(
                (conv): Sequential(
                  (0): Conv2d(64, 64, kernel_size=(1, 1), stride=(1, 1))
                  (1): BatchNorm2d(64, eps=1e-05, momentum=0.1, affine=True, track_running_stats=True)
                  (2): ReLU6()
                  (3): Conv2d(64, 64, kernel_size=(3, 3), stride=(1, 1), padding=(1, 1), groups=64, bias=False)
                  (4): BatchNorm2d(64, eps=1e-05, momentum=0.1, affine=True, track_running_stats=True)
                  (5): ReLU6()
                  (6): Conv2d(64, 64, kernel_size=(1, 1), stride=(1, 1))
                  (7): BatchNorm2d(64, eps=1e-05, momentum=0.1, affine=True, track_running_stats=True)
                )
              )
              (1): LeakyReLU(negative_slope=0.2, inplace=True)
              (2): conv_ds(
                (conv): Sequential(
                  (0): Conv2d(64, 64, kernel_size=(1, 1), stride=(1, 1))
                  (1): BatchNorm2d(64, eps=1e-05, momentum=0.1, affine=True, track_running_stats=True)
                  (2): ReLU6()
                  (3): Conv2d(64, 64, kernel_size=(3, 3), stride=(1, 1), padding=(1, 1), groups=64, bias=False)
                  (4): BatchNorm2d(64, eps=1e-05, momentum=0.1, affine=True, track_running_stats=True)
                  (5): ReLU6()
                  (6): Conv2d(64, 64, kernel_size=(1, 1), stride=(1, 1))
                  (7): BatchNorm2d(64, eps=1e-05, momentum=0.1, affine=True, track_running_stats=True)
                )
              )
            )
            (body2): Sequential(
              (0): conv_ds(
                (conv): Sequential(
                  (0): Conv2d(64, 64, kernel_size=(1, 1), stride=(1, 1))
                  (1): BatchNorm2d(64, eps=1e-05, momentum=0.1, affine=True, track_running_stats=True)
                  (2): ReLU6()
                  (3): Conv2d(64, 64, kernel_size=(1, 1), stride=(1, 1), groups=64, bias=False)
                  (4): BatchNorm2d(64, eps=1e-05, momentum=0.1, affine=True, track_running_stats=True)
                  (5): ReLU6()
                  (6): Conv2d(64, 64, kernel_size=(1, 1), stride=(1, 1))
                  (7): BatchNorm2d(64, eps=1e-05, momentum=0.1, affine=True, track_running_stats=True)
                )
              )
              (1): LeakyReLU(negative_slope=0.2, inplace=True)
              (2): conv_ds(
                (conv): Sequential(
                  (0): Conv2d(64, 64, kernel_size=(1, 1), stride=(1, 1))
                  (1): BatchNorm2d(64, eps=1e-05, momentum=0.1, affine=True, track_running_stats=True)
                  (2): ReLU6()
                  (3): Conv2d(64, 64, kernel_size=(1, 1), stride=(1, 1), groups=64, bias=False)
                  (4): BatchNorm2d(64, eps=1e-05, momentum=0.1, affine=True, track_running_stats=True)
                  (5): ReLU6()
                  (6): Conv2d(64, 64, kernel_size=(1, 1), stride=(1, 1))
                  (7): BatchNorm2d(64, eps=1e-05, momentum=0.1, affine=True, track_running_stats=True)
                )
              )
            )
          )
          (7): DPCB(
            (body1): Sequential(
              (0): conv_ds(
                (conv): Sequential(
                  (0): Conv2d(64, 64, kernel_size=(1, 1), stride=(1, 1))
                  (1): BatchNorm2d(64, eps=1e-05, momentum=0.1, affine=True, track_running_stats=True)
                  (2): ReLU6()
                  (3): Conv2d(64, 64, kernel_size=(3, 3), stride=(1, 1), padding=(1, 1), groups=64, bias=False)
                  (4): BatchNorm2d(64, eps=1e-05, momentum=0.1, affine=True, track_running_stats=True)
                  (5): ReLU6()
                  (6): Conv2d(64, 64, kernel_size=(1, 1), stride=(1, 1))
                  (7): BatchNorm2d(64, eps=1e-05, momentum=0.1, affine=True, track_running_stats=True)
                )
              )
              (1): LeakyReLU(negative_slope=0.2, inplace=True)
              (2): conv_ds(
                (conv): Sequential(
                  (0): Conv2d(64, 64, kernel_size=(1, 1), stride=(1, 1))
                  (1): BatchNorm2d(64, eps=1e-05, momentum=0.1, affine=True, track_running_stats=True)
                  (2): ReLU6()
                  (3): Conv2d(64, 64, kernel_size=(3, 3), stride=(1, 1), padding=(1, 1), groups=64, bias=False)
                  (4): BatchNorm2d(64, eps=1e-05, momentum=0.1, affine=True, track_running_stats=True)
                  (5): ReLU6()
                  (6): Conv2d(64, 64, kernel_size=(1, 1), stride=(1, 1))
                  (7): BatchNorm2d(64, eps=1e-05, momentum=0.1, affine=True, track_running_stats=True)
                )
              )
            )
            (body2): Sequential(
              (0): conv_ds(
                (conv): Sequential(
                  (0): Conv2d(64, 64, kernel_size=(1, 1), stride=(1, 1))
                  (1): BatchNorm2d(64, eps=1e-05, momentum=0.1, affine=True, track_running_stats=True)
                  (2): ReLU6()
                  (3): Conv2d(64, 64, kernel_size=(1, 1), stride=(1, 1), groups=64, bias=False)
                  (4): BatchNorm2d(64, eps=1e-05, momentum=0.1, affine=True, track_running_stats=True)
                  (5): ReLU6()
                  (6): Conv2d(64, 64, kernel_size=(1, 1), stride=(1, 1))
                  (7): BatchNorm2d(64, eps=1e-05, momentum=0.1, affine=True, track_running_stats=True)
                )
              )
              (1): LeakyReLU(negative_slope=0.2, inplace=True)
              (2): conv_ds(
                (conv): Sequential(
                  (0): Conv2d(64, 64, kernel_size=(1, 1), stride=(1, 1))
                  (1): BatchNorm2d(64, eps=1e-05, momentum=0.1, affine=True, track_running_stats=True)
                  (2): ReLU6()
                  (3): Conv2d(64, 64, kernel_size=(1, 1), stride=(1, 1), groups=64, bias=False)
                  (4): BatchNorm2d(64, eps=1e-05, momentum=0.1, affine=True, track_running_stats=True)
                  (5): ReLU6()
                  (6): Conv2d(64, 64, kernel_size=(1, 1), stride=(1, 1))
                  (7): BatchNorm2d(64, eps=1e-05, momentum=0.1, affine=True, track_running_stats=True)
                )
              )
            )
          )
          (8): DPCB(
            (body1): Sequential(
              (0): conv_ds(
                (conv): Sequential(
                  (0): Conv2d(64, 64, kernel_size=(1, 1), stride=(1, 1))
                  (1): BatchNorm2d(64, eps=1e-05, momentum=0.1, affine=True, track_running_stats=True)
                  (2): ReLU6()
                  (3): Conv2d(64, 64, kernel_size=(3, 3), stride=(1, 1), padding=(1, 1), groups=64, bias=False)
                  (4): BatchNorm2d(64, eps=1e-05, momentum=0.1, affine=True, track_running_stats=True)
                  (5): ReLU6()
                  (6): Conv2d(64, 64, kernel_size=(1, 1), stride=(1, 1))
                  (7): BatchNorm2d(64, eps=1e-05, momentum=0.1, affine=True, track_running_stats=True)
                )
              )
              (1): LeakyReLU(negative_slope=0.2, inplace=True)
              (2): conv_ds(
                (conv): Sequential(
                  (0): Conv2d(64, 64, kernel_size=(1, 1), stride=(1, 1))
                  (1): BatchNorm2d(64, eps=1e-05, momentum=0.1, affine=True, track_running_stats=True)
                  (2): ReLU6()
                  (3): Conv2d(64, 64, kernel_size=(3, 3), stride=(1, 1), padding=(1, 1), groups=64, bias=False)
                  (4): BatchNorm2d(64, eps=1e-05, momentum=0.1, affine=True, track_running_stats=True)
                  (5): ReLU6()
                  (6): Conv2d(64, 64, kernel_size=(1, 1), stride=(1, 1))
                  (7): BatchNorm2d(64, eps=1e-05, momentum=0.1, affine=True, track_running_stats=True)
                )
              )
            )
            (body2): Sequential(
              (0): conv_ds(
                (conv): Sequential(
                  (0): Conv2d(64, 64, kernel_size=(1, 1), stride=(1, 1))
                  (1): BatchNorm2d(64, eps=1e-05, momentum=0.1, affine=True, track_running_stats=True)
                  (2): ReLU6()
                  (3): Conv2d(64, 64, kernel_size=(1, 1), stride=(1, 1), groups=64, bias=False)
                  (4): BatchNorm2d(64, eps=1e-05, momentum=0.1, affine=True, track_running_stats=True)
                  (5): ReLU6()
                  (6): Conv2d(64, 64, kernel_size=(1, 1), stride=(1, 1))
                  (7): BatchNorm2d(64, eps=1e-05, momentum=0.1, affine=True, track_running_stats=True)
                )
              )
              (1): LeakyReLU(negative_slope=0.2, inplace=True)
              (2): conv_ds(
                (conv): Sequential(
                  (0): Conv2d(64, 64, kernel_size=(1, 1), stride=(1, 1))
                  (1): BatchNorm2d(64, eps=1e-05, momentum=0.1, affine=True, track_running_stats=True)
                  (2): ReLU6()
                  (3): Conv2d(64, 64, kernel_size=(1, 1), stride=(1, 1), groups=64, bias=False)
                  (4): BatchNorm2d(64, eps=1e-05, momentum=0.1, affine=True, track_running_stats=True)
                  (5): ReLU6()
                  (6): Conv2d(64, 64, kernel_size=(1, 1), stride=(1, 1))
                  (7): BatchNorm2d(64, eps=1e-05, momentum=0.1, affine=True, track_running_stats=True)
                )
              )
            )
          )
          (9): DPCB(
            (body1): Sequential(
              (0): conv_ds(
                (conv): Sequential(
                  (0): Conv2d(64, 64, kernel_size=(1, 1), stride=(1, 1))
                  (1): BatchNorm2d(64, eps=1e-05, momentum=0.1, affine=True, track_running_stats=True)
                  (2): ReLU6()
                  (3): Conv2d(64, 64, kernel_size=(3, 3), stride=(1, 1), padding=(1, 1), groups=64, bias=False)
                  (4): BatchNorm2d(64, eps=1e-05, momentum=0.1, affine=True, track_running_stats=True)
                  (5): ReLU6()
                  (6): Conv2d(64, 64, kernel_size=(1, 1), stride=(1, 1))
                  (7): BatchNorm2d(64, eps=1e-05, momentum=0.1, affine=True, track_running_stats=True)
                )
              )
              (1): LeakyReLU(negative_slope=0.2, inplace=True)
              (2): conv_ds(
                (conv): Sequential(
                  (0): Conv2d(64, 64, kernel_size=(1, 1), stride=(1, 1))
                  (1): BatchNorm2d(64, eps=1e-05, momentum=0.1, affine=True, track_running_stats=True)
                  (2): ReLU6()
                  (3): Conv2d(64, 64, kernel_size=(3, 3), stride=(1, 1), padding=(1, 1), groups=64, bias=False)
                  (4): BatchNorm2d(64, eps=1e-05, momentum=0.1, affine=True, track_running_stats=True)
                  (5): ReLU6()
                  (6): Conv2d(64, 64, kernel_size=(1, 1), stride=(1, 1))
                  (7): BatchNorm2d(64, eps=1e-05, momentum=0.1, affine=True, track_running_stats=True)
                )
              )
            )
            (body2): Sequential(
              (0): conv_ds(
                (conv): Sequential(
                  (0): Conv2d(64, 64, kernel_size=(1, 1), stride=(1, 1))
                  (1): BatchNorm2d(64, eps=1e-05, momentum=0.1, affine=True, track_running_stats=True)
                  (2): ReLU6()
                  (3): Conv2d(64, 64, kernel_size=(1, 1), stride=(1, 1), groups=64, bias=False)
                  (4): BatchNorm2d(64, eps=1e-05, momentum=0.1, affine=True, track_running_stats=True)
                  (5): ReLU6()
                  (6): Conv2d(64, 64, kernel_size=(1, 1), stride=(1, 1))
                  (7): BatchNorm2d(64, eps=1e-05, momentum=0.1, affine=True, track_running_stats=True)
                )
              )
              (1): LeakyReLU(negative_slope=0.2, inplace=True)
              (2): conv_ds(
                (conv): Sequential(
                  (0): Conv2d(64, 64, kernel_size=(1, 1), stride=(1, 1))
                  (1): BatchNorm2d(64, eps=1e-05, momentum=0.1, affine=True, track_running_stats=True)
                  (2): ReLU6()
                  (3): Conv2d(64, 64, kernel_size=(1, 1), stride=(1, 1), groups=64, bias=False)
                  (4): BatchNorm2d(64, eps=1e-05, momentum=0.1, affine=True, track_running_stats=True)
                  (5): ReLU6()
                  (6): Conv2d(64, 64, kernel_size=(1, 1), stride=(1, 1))
                  (7): BatchNorm2d(64, eps=1e-05, momentum=0.1, affine=True, track_running_stats=True)
                )
              )
            )
          )
        )
      )
    )
    (fusion): conv_ds(
      (conv): Sequential(
        (0): Conv2d(64, 64, kernel_size=(1, 1), stride=(1, 1))
        (1): BatchNorm2d(64, eps=1e-05, momentum=0.1, affine=True, track_running_stats=True)
        (2): ReLU6()
        (3): Conv2d(64, 64, kernel_size=(3, 3), stride=(1, 1), padding=(1, 1), groups=64, bias=False)
        (4): BatchNorm2d(64, eps=1e-05, momentum=0.1, affine=True, track_running_stats=True)
        (5): ReLU6()
        (6): Conv2d(64, 64, kernel_size=(1, 1), stride=(1, 1))
        (7): BatchNorm2d(64, eps=1e-05, momentum=0.1, affine=True, track_running_stats=True)
      )
    )
    (upscale): Sequential(
      (0): conv_ds(
        (conv): Sequential(
          (0): Conv2d(64, 64, kernel_size=(1, 1), stride=(1, 1))
          (1): BatchNorm2d(64, eps=1e-05, momentum=0.1, affine=True, track_running_stats=True)
          (2): ReLU6()
          (3): Conv2d(64, 64, kernel_size=(3, 3), stride=(1, 1), padding=(1, 1), groups=64)
          (4): BatchNorm2d(64, eps=1e-05, momentum=0.1, affine=True, track_running_stats=True)
          (5): ReLU6()
          (6): Conv2d(64, 256, kernel_size=(1, 1), stride=(1, 1))
          (7): BatchNorm2d(256, eps=1e-05, momentum=0.1, affine=True, track_running_stats=True)
        )
      )
      (1): PixelShuffle(upscale_factor=2)
      (2): conv_ds(
        (conv): Sequential(
          (0): Conv2d(64, 64, kernel_size=(1, 1), stride=(1, 1))
          (1): BatchNorm2d(64, eps=1e-05, momentum=0.1, affine=True, track_running_stats=True)
          (2): ReLU6()
          (3): Conv2d(64, 64, kernel_size=(3, 3), stride=(1, 1), padding=(1, 1), groups=64, bias=False)
          (4): BatchNorm2d(64, eps=1e-05, momentum=0.1, affine=True, track_running_stats=True)
          (5): ReLU6()
          (6): Conv2d(64, 3, kernel_size=(1, 1), stride=(1, 1))
          (7): BatchNorm2d(3, eps=1e-05, momentum=0.1, affine=True, track_running_stats=True)
        )
      )
    )
  )
  (Estimator): Estimator(
    (head_LR): Sequential(
      (0): conv_ds(
        (conv): Sequential(
          (0): Conv2d(3, 3, kernel_size=(1, 1), stride=(1, 1))
          (1): BatchNorm2d(3, eps=1e-05, momentum=0.1, affine=True, track_running_stats=True)
          (2): ReLU6()
          (3): Conv2d(3, 3, kernel_size=(5, 5), stride=(1, 1), padding=(2, 2), groups=3, bias=False)
          (4): BatchNorm2d(3, eps=1e-05, momentum=0.1, affine=True, track_running_stats=True)
          (5): ReLU6()
          (6): Conv2d(3, 32, kernel_size=(1, 1), stride=(1, 1))
          (7): BatchNorm2d(32, eps=1e-05, momentum=0.1, affine=True, track_running_stats=True)
        )
      )
    )
    (head_HR): Sequential(
      (0): conv_ds(
        (conv): Sequential(
          (0): Conv2d(3, 3, kernel_size=(1, 1), stride=(1, 1))
          (1): BatchNorm2d(3, eps=1e-05, momentum=0.1, affine=True, track_running_stats=True)
          (2): ReLU6()
          (3): Conv2d(3, 3, kernel_size=(9, 9), stride=(2, 2), padding=(4, 4), groups=3, bias=False)
          (4): BatchNorm2d(3, eps=1e-05, momentum=0.1, affine=True, track_running_stats=True)
          (5): ReLU6()
          (6): Conv2d(3, 32, kernel_size=(1, 1), stride=(1, 1))
          (7): BatchNorm2d(32, eps=1e-05, momentum=0.1, affine=True, track_running_stats=True)
        )
      )
    )
    (body): DPCG(
      (body): Sequential(
        (0): DPCB(
          (body1): Sequential(
            (0): conv_ds(
              (conv): Sequential(
                (0): Conv2d(32, 32, kernel_size=(1, 1), stride=(1, 1))
                (1): BatchNorm2d(32, eps=1e-05, momentum=0.1, affine=True, track_running_stats=True)
                (2): ReLU6()
                (3): Conv2d(32, 32, kernel_size=(3, 3), stride=(1, 1), padding=(1, 1), groups=32, bias=False)
                (4): BatchNorm2d(32, eps=1e-05, momentum=0.1, affine=True, track_running_stats=True)
                (5): ReLU6()
                (6): Conv2d(32, 32, kernel_size=(1, 1), stride=(1, 1))
                (7): BatchNorm2d(32, eps=1e-05, momentum=0.1, affine=True, track_running_stats=True)
              )
            )
            (1): LeakyReLU(negative_slope=0.2, inplace=True)
            (2): conv_ds(
              (conv): Sequential(
                (0): Conv2d(32, 32, kernel_size=(1, 1), stride=(1, 1))
                (1): BatchNorm2d(32, eps=1e-05, momentum=0.1, affine=True, track_running_stats=True)
                (2): ReLU6()
                (3): Conv2d(32, 32, kernel_size=(3, 3), stride=(1, 1), padding=(1, 1), groups=32, bias=False)
                (4): BatchNorm2d(32, eps=1e-05, momentum=0.1, affine=True, track_running_stats=True)
                (5): ReLU6()
                (6): Conv2d(32, 32, kernel_size=(1, 1), stride=(1, 1))
                (7): BatchNorm2d(32, eps=1e-05, momentum=0.1, affine=True, track_running_stats=True)
              )
            )
          )
          (body2): Sequential(
            (0): conv_ds(
              (conv): Sequential(
                (0): Conv2d(32, 32, kernel_size=(1, 1), stride=(1, 1))
                (1): BatchNorm2d(32, eps=1e-05, momentum=0.1, affine=True, track_running_stats=True)
                (2): ReLU6()
                (3): Conv2d(32, 32, kernel_size=(3, 3), stride=(1, 1), padding=(1, 1), groups=32, bias=False)
                (4): BatchNorm2d(32, eps=1e-05, momentum=0.1, affine=True, track_running_stats=True)
                (5): ReLU6()
                (6): Conv2d(32, 32, kernel_size=(1, 1), stride=(1, 1))
                (7): BatchNorm2d(32, eps=1e-05, momentum=0.1, affine=True, track_running_stats=True)
              )
            )
            (1): LeakyReLU(negative_slope=0.2, inplace=True)
            (2): conv_ds(
              (conv): Sequential(
                (0): Conv2d(32, 32, kernel_size=(1, 1), stride=(1, 1))
                (1): BatchNorm2d(32, eps=1e-05, momentum=0.1, affine=True, track_running_stats=True)
                (2): ReLU6()
                (3): Conv2d(32, 32, kernel_size=(3, 3), stride=(1, 1), padding=(1, 1), groups=32, bias=False)
                (4): BatchNorm2d(32, eps=1e-05, momentum=0.1, affine=True, track_running_stats=True)
                (5): ReLU6()
                (6): Conv2d(32, 32, kernel_size=(1, 1), stride=(1, 1))
                (7): BatchNorm2d(32, eps=1e-05, momentum=0.1, affine=True, track_running_stats=True)
              )
            )
          )
        )
        (1): DPCB(
          (body1): Sequential(
            (0): conv_ds(
              (conv): Sequential(
                (0): Conv2d(32, 32, kernel_size=(1, 1), stride=(1, 1))
                (1): BatchNorm2d(32, eps=1e-05, momentum=0.1, affine=True, track_running_stats=True)
                (2): ReLU6()
                (3): Conv2d(32, 32, kernel_size=(3, 3), stride=(1, 1), padding=(1, 1), groups=32, bias=False)
                (4): BatchNorm2d(32, eps=1e-05, momentum=0.1, affine=True, track_running_stats=True)
                (5): ReLU6()
                (6): Conv2d(32, 32, kernel_size=(1, 1), stride=(1, 1))
                (7): BatchNorm2d(32, eps=1e-05, momentum=0.1, affine=True, track_running_stats=True)
              )
            )
            (1): LeakyReLU(negative_slope=0.2, inplace=True)
            (2): conv_ds(
              (conv): Sequential(
                (0): Conv2d(32, 32, kernel_size=(1, 1), stride=(1, 1))
                (1): BatchNorm2d(32, eps=1e-05, momentum=0.1, affine=True, track_running_stats=True)
                (2): ReLU6()
                (3): Conv2d(32, 32, kernel_size=(3, 3), stride=(1, 1), padding=(1, 1), groups=32, bias=False)
                (4): BatchNorm2d(32, eps=1e-05, momentum=0.1, affine=True, track_running_stats=True)
                (5): ReLU6()
                (6): Conv2d(32, 32, kernel_size=(1, 1), stride=(1, 1))
                (7): BatchNorm2d(32, eps=1e-05, momentum=0.1, affine=True, track_running_stats=True)
              )
            )
          )
          (body2): Sequential(
            (0): conv_ds(
              (conv): Sequential(
                (0): Conv2d(32, 32, kernel_size=(1, 1), stride=(1, 1))
                (1): BatchNorm2d(32, eps=1e-05, momentum=0.1, affine=True, track_running_stats=True)
                (2): ReLU6()
                (3): Conv2d(32, 32, kernel_size=(3, 3), stride=(1, 1), padding=(1, 1), groups=32, bias=False)
                (4): BatchNorm2d(32, eps=1e-05, momentum=0.1, affine=True, track_running_stats=True)
                (5): ReLU6()
                (6): Conv2d(32, 32, kernel_size=(1, 1), stride=(1, 1))
                (7): BatchNorm2d(32, eps=1e-05, momentum=0.1, affine=True, track_running_stats=True)
              )
            )
            (1): LeakyReLU(negative_slope=0.2, inplace=True)
            (2): conv_ds(
              (conv): Sequential(
                (0): Conv2d(32, 32, kernel_size=(1, 1), stride=(1, 1))
                (1): BatchNorm2d(32, eps=1e-05, momentum=0.1, affine=True, track_running_stats=True)
                (2): ReLU6()
                (3): Conv2d(32, 32, kernel_size=(3, 3), stride=(1, 1), padding=(1, 1), groups=32, bias=False)
                (4): BatchNorm2d(32, eps=1e-05, momentum=0.1, affine=True, track_running_stats=True)
                (5): ReLU6()
                (6): Conv2d(32, 32, kernel_size=(1, 1), stride=(1, 1))
                (7): BatchNorm2d(32, eps=1e-05, momentum=0.1, affine=True, track_running_stats=True)
              )
            )
          )
        )
        (2): DPCB(
          (body1): Sequential(
            (0): conv_ds(
              (conv): Sequential(
                (0): Conv2d(32, 32, kernel_size=(1, 1), stride=(1, 1))
                (1): BatchNorm2d(32, eps=1e-05, momentum=0.1, affine=True, track_running_stats=True)
                (2): ReLU6()
                (3): Conv2d(32, 32, kernel_size=(3, 3), stride=(1, 1), padding=(1, 1), groups=32, bias=False)
                (4): BatchNorm2d(32, eps=1e-05, momentum=0.1, affine=True, track_running_stats=True)
                (5): ReLU6()
                (6): Conv2d(32, 32, kernel_size=(1, 1), stride=(1, 1))
                (7): BatchNorm2d(32, eps=1e-05, momentum=0.1, affine=True, track_running_stats=True)
              )
            )
            (1): LeakyReLU(negative_slope=0.2, inplace=True)
            (2): conv_ds(
              (conv): Sequential(
                (0): Conv2d(32, 32, kernel_size=(1, 1), stride=(1, 1))
                (1): BatchNorm2d(32, eps=1e-05, momentum=0.1, affine=True, track_running_stats=True)
                (2): ReLU6()
                (3): Conv2d(32, 32, kernel_size=(3, 3), stride=(1, 1), padding=(1, 1), groups=32, bias=False)
                (4): BatchNorm2d(32, eps=1e-05, momentum=0.1, affine=True, track_running_stats=True)
                (5): ReLU6()
                (6): Conv2d(32, 32, kernel_size=(1, 1), stride=(1, 1))
                (7): BatchNorm2d(32, eps=1e-05, momentum=0.1, affine=True, track_running_stats=True)
              )
            )
          )
          (body2): Sequential(
            (0): conv_ds(
              (conv): Sequential(
                (0): Conv2d(32, 32, kernel_size=(1, 1), stride=(1, 1))
                (1): BatchNorm2d(32, eps=1e-05, momentum=0.1, affine=True, track_running_stats=True)
                (2): ReLU6()
                (3): Conv2d(32, 32, kernel_size=(3, 3), stride=(1, 1), padding=(1, 1), groups=32, bias=False)
                (4): BatchNorm2d(32, eps=1e-05, momentum=0.1, affine=True, track_running_stats=True)
                (5): ReLU6()
                (6): Conv2d(32, 32, kernel_size=(1, 1), stride=(1, 1))
                (7): BatchNorm2d(32, eps=1e-05, momentum=0.1, affine=True, track_running_stats=True)
              )
            )
            (1): LeakyReLU(negative_slope=0.2, inplace=True)
            (2): conv_ds(
              (conv): Sequential(
                (0): Conv2d(32, 32, kernel_size=(1, 1), stride=(1, 1))
                (1): BatchNorm2d(32, eps=1e-05, momentum=0.1, affine=True, track_running_stats=True)
                (2): ReLU6()
                (3): Conv2d(32, 32, kernel_size=(3, 3), stride=(1, 1), padding=(1, 1), groups=32, bias=False)
                (4): BatchNorm2d(32, eps=1e-05, momentum=0.1, affine=True, track_running_stats=True)
                (5): ReLU6()
                (6): Conv2d(32, 32, kernel_size=(1, 1), stride=(1, 1))
                (7): BatchNorm2d(32, eps=1e-05, momentum=0.1, affine=True, track_running_stats=True)
              )
            )
          )
        )
        (3): DPCB(
          (body1): Sequential(
            (0): conv_ds(
              (conv): Sequential(
                (0): Conv2d(32, 32, kernel_size=(1, 1), stride=(1, 1))
                (1): BatchNorm2d(32, eps=1e-05, momentum=0.1, affine=True, track_running_stats=True)
                (2): ReLU6()
                (3): Conv2d(32, 32, kernel_size=(3, 3), stride=(1, 1), padding=(1, 1), groups=32, bias=False)
                (4): BatchNorm2d(32, eps=1e-05, momentum=0.1, affine=True, track_running_stats=True)
                (5): ReLU6()
                (6): Conv2d(32, 32, kernel_size=(1, 1), stride=(1, 1))
                (7): BatchNorm2d(32, eps=1e-05, momentum=0.1, affine=True, track_running_stats=True)
              )
            )
            (1): LeakyReLU(negative_slope=0.2, inplace=True)
            (2): conv_ds(
              (conv): Sequential(
                (0): Conv2d(32, 32, kernel_size=(1, 1), stride=(1, 1))
                (1): BatchNorm2d(32, eps=1e-05, momentum=0.1, affine=True, track_running_stats=True)
                (2): ReLU6()
                (3): Conv2d(32, 32, kernel_size=(3, 3), stride=(1, 1), padding=(1, 1), groups=32, bias=False)
                (4): BatchNorm2d(32, eps=1e-05, momentum=0.1, affine=True, track_running_stats=True)
                (5): ReLU6()
                (6): Conv2d(32, 32, kernel_size=(1, 1), stride=(1, 1))
                (7): BatchNorm2d(32, eps=1e-05, momentum=0.1, affine=True, track_running_stats=True)
              )
            )
          )
          (body2): Sequential(
            (0): conv_ds(
              (conv): Sequential(
                (0): Conv2d(32, 32, kernel_size=(1, 1), stride=(1, 1))
                (1): BatchNorm2d(32, eps=1e-05, momentum=0.1, affine=True, track_running_stats=True)
                (2): ReLU6()
                (3): Conv2d(32, 32, kernel_size=(3, 3), stride=(1, 1), padding=(1, 1), groups=32, bias=False)
                (4): BatchNorm2d(32, eps=1e-05, momentum=0.1, affine=True, track_running_stats=True)
                (5): ReLU6()
                (6): Conv2d(32, 32, kernel_size=(1, 1), stride=(1, 1))
                (7): BatchNorm2d(32, eps=1e-05, momentum=0.1, affine=True, track_running_stats=True)
              )
            )
            (1): LeakyReLU(negative_slope=0.2, inplace=True)
            (2): conv_ds(
              (conv): Sequential(
                (0): Conv2d(32, 32, kernel_size=(1, 1), stride=(1, 1))
                (1): BatchNorm2d(32, eps=1e-05, momentum=0.1, affine=True, track_running_stats=True)
                (2): ReLU6()
                (3): Conv2d(32, 32, kernel_size=(3, 3), stride=(1, 1), padding=(1, 1), groups=32, bias=False)
                (4): BatchNorm2d(32, eps=1e-05, momentum=0.1, affine=True, track_running_stats=True)
                (5): ReLU6()
                (6): Conv2d(32, 32, kernel_size=(1, 1), stride=(1, 1))
                (7): BatchNorm2d(32, eps=1e-05, momentum=0.1, affine=True, track_running_stats=True)
              )
            )
          )
        )
        (4): DPCB(
          (body1): Sequential(
            (0): conv_ds(
              (conv): Sequential(
                (0): Conv2d(32, 32, kernel_size=(1, 1), stride=(1, 1))
                (1): BatchNorm2d(32, eps=1e-05, momentum=0.1, affine=True, track_running_stats=True)
                (2): ReLU6()
                (3): Conv2d(32, 32, kernel_size=(3, 3), stride=(1, 1), padding=(1, 1), groups=32, bias=False)
                (4): BatchNorm2d(32, eps=1e-05, momentum=0.1, affine=True, track_running_stats=True)
                (5): ReLU6()
                (6): Conv2d(32, 32, kernel_size=(1, 1), stride=(1, 1))
                (7): BatchNorm2d(32, eps=1e-05, momentum=0.1, affine=True, track_running_stats=True)
              )
            )
            (1): LeakyReLU(negative_slope=0.2, inplace=True)
            (2): conv_ds(
              (conv): Sequential(
                (0): Conv2d(32, 32, kernel_size=(1, 1), stride=(1, 1))
                (1): BatchNorm2d(32, eps=1e-05, momentum=0.1, affine=True, track_running_stats=True)
                (2): ReLU6()
                (3): Conv2d(32, 32, kernel_size=(3, 3), stride=(1, 1), padding=(1, 1), groups=32, bias=False)
                (4): BatchNorm2d(32, eps=1e-05, momentum=0.1, affine=True, track_running_stats=True)
                (5): ReLU6()
                (6): Conv2d(32, 32, kernel_size=(1, 1), stride=(1, 1))
                (7): BatchNorm2d(32, eps=1e-05, momentum=0.1, affine=True, track_running_stats=True)
              )
            )
          )
          (body2): Sequential(
            (0): conv_ds(
              (conv): Sequential(
                (0): Conv2d(32, 32, kernel_size=(1, 1), stride=(1, 1))
                (1): BatchNorm2d(32, eps=1e-05, momentum=0.1, affine=True, track_running_stats=True)
                (2): ReLU6()
                (3): Conv2d(32, 32, kernel_size=(3, 3), stride=(1, 1), padding=(1, 1), groups=32, bias=False)
                (4): BatchNorm2d(32, eps=1e-05, momentum=0.1, affine=True, track_running_stats=True)
                (5): ReLU6()
                (6): Conv2d(32, 32, kernel_size=(1, 1), stride=(1, 1))
                (7): BatchNorm2d(32, eps=1e-05, momentum=0.1, affine=True, track_running_stats=True)
              )
            )
            (1): LeakyReLU(negative_slope=0.2, inplace=True)
            (2): conv_ds(
              (conv): Sequential(
                (0): Conv2d(32, 32, kernel_size=(1, 1), stride=(1, 1))
                (1): BatchNorm2d(32, eps=1e-05, momentum=0.1, affine=True, track_running_stats=True)
                (2): ReLU6()
                (3): Conv2d(32, 32, kernel_size=(3, 3), stride=(1, 1), padding=(1, 1), groups=32, bias=False)
                (4): BatchNorm2d(32, eps=1e-05, momentum=0.1, affine=True, track_running_stats=True)
                (5): ReLU6()
                (6): Conv2d(32, 32, kernel_size=(1, 1), stride=(1, 1))
                (7): BatchNorm2d(32, eps=1e-05, momentum=0.1, affine=True, track_running_stats=True)
              )
            )
          )
        )
      )
    )
    (tail): Sequential(
      (0): conv_ds(
        (conv): Sequential(
          (0): Conv2d(32, 32, kernel_size=(1, 1), stride=(1, 1))
          (1): BatchNorm2d(32, eps=1e-05, momentum=0.1, affine=True, track_running_stats=True)
          (2): ReLU6()
          (3): Conv2d(32, 32, kernel_size=(3, 3), stride=(1, 1), padding=(1, 1), groups=32, bias=False)
          (4): BatchNorm2d(32, eps=1e-05, momentum=0.1, affine=True, track_running_stats=True)
          (5): ReLU6()
          (6): Conv2d(32, 64, kernel_size=(1, 1), stride=(1, 1))
          (7): BatchNorm2d(64, eps=1e-05, momentum=0.1, affine=True, track_running_stats=True)
        )
      )
      (1): AdaptiveAvgPool2d(output_size=1)
      (2): conv_ds(
        (conv): Sequential(
          (0): Conv2d(64, 64, kernel_size=(1, 1), stride=(1, 1))
          (1): BatchNorm2d(64, eps=1e-05, momentum=0.1, affine=True, track_running_stats=True)
          (2): ReLU6()
          (3): Conv2d(64, 64, kernel_size=(1, 1), stride=(1, 1), groups=64, bias=False)
          (4): BatchNorm2d(64, eps=1e-05, momentum=0.1, affine=True, track_running_stats=True)
          (5): ReLU6()
          (6): Conv2d(64, 441, kernel_size=(1, 1), stride=(1, 1))
          (7): BatchNorm2d(441, eps=1e-05, momentum=0.1, affine=True, track_running_stats=True)
        )
      )
      (3): Softmax(dim=1)
    )
  )
)
21-07-22 17:29:14.819 - INFO: Model [B_Model] is created.
